examples/checkpoint.pt (torch, 716036 bytes, 1006 tensors)

backbone.convs.0.weight f4 [1, 1, 7]
00000000: c090 0abe 41a6 023f ce86 833f 8930 4dbf
00000010: fc83 a2bf e2ed ab3f e9b2 2cbf
-0.1353178 0.51034933 1.0275514 -0.80152184 -1.2696528 1.3431971 -0.67460495

backbone.convs.1.weight f4 [1, 1, 11]
00000000: b152 983e 40f5 c2bf 38f0 45bd 74cb d6be
00000010: 52e4 9b3f 0cb1 bb3f e801 99be 0000 673d
00000020: e45a 84bf b473 183d a66a 7e3e
0.2975059 -1.5231094 -0.048324794 -0.41952097 1.2179053 1.4663405 -0.29884267 0.056396484
-1.0340238 0.037219718 0.2484537

backbone.convs.2.weight f4 [1, 1, 7]
00000000: e876 3f3e 2ed3 273f cc62 7c3f fe29 0d3e
00000010: 4f18 1dbf 972c 55bf 4a19 05bf
0.18697703 0.6555661 0.9858825 0.1378555 -0.61365217 -0.83271164 -0.51991713

backbone.convs.3.weight f4 [1, 1, 9]
00000000: 3140 c73f 7953 c53d 4fee b73d 99f1 a8bf
00000010: e011 29c0 cdc5 d63f ab0c dfbe f6ef 343e
00000020: d5c0 4c3f
1.5566465 0.09635062 0.08981001 -1.319873 -2.641716 1.6779114 -0.43564352 0.17669663
0.7998174

backbone.convs.4.weight f4 [1, 1, 11]
00000000: b2a3 883f e561 383f 49ac 8dbf 7e56 79bf
00000010: 3552 013f cfe7 88bf ccc1 b43f 6e0d db3e
00000020: 60b8 43bd 08f0 ad3d ce84 82bf
1.0674956 0.72024375 -1.1068202 -0.973976 0.5051606 -1.0695742 1.4121642 0.42783684
-0.047783256 0.08493048 -1.0196779

backbone.convs.5.weight f4 [1, 1, 9]
00000000: ac07 b93d 51e5 eabe 2251 bdbf 23fb 14bf
00000010: bd4b 503f 8835 d6be bbb7 93be e116 a13f
00000020: 1d36 883f
0.090346664 -0.4587808 -1.4790385 -0.58195704 0.8136557 -0.41837716 -0.28851113 1.2585107
1.0641514

backbone.convs.6.weight f4 [1, 1, 7]
00000000: f479 253f e31b 0d3e 0002 1c3b a026 d93f
00000010: 2c5e 523d b2fe f3bf abd2 20bf
0.6463921 0.13780169 0.0023804903 1.6964912 0.05135934 -1.9062102 -0.62821454

backbone.convs.7.weight f4 [1, 1, 11]
00000000: 5756 46bf e70a 5cbf 4018 d33e 625b 4d3f
00000010: 20ac c8bf e4b2 e13f 09c2 14bf d19a 2240
00000020: 5e75 8f3f 8ed2 f3be a04f 18c0
-0.77475494 -0.85954136 0.4122944 0.80217564 -1.5677528 1.7632718 -0.58108574 2.5406992
1.1207693 -0.47621578 -2.37986

backbone.convs.8.weight f4 [1, 1, 7]
00000000: 8517 e13f 155a 1fbe 35d8 a13f bfc7 aa3f
00000010: dbbf babf 60b6 a8bf ff55 b6bf
1.7585303 -0.15561707 1.2644106 1.3342208 -1.45898 -1.3180656 -1.4244994

backbone.convs.9.weight f4 [1, 1, 7]
00000000: 5e46 4ebf d64e 14bf 15eb d93e bcfa 06bf
00000010: d789 a2be 245d 683f 3082 653f
-0.8057612 -0.57932794 0.42562166 -0.5272634 -0.31745788 0.9076712 0.89651775

backbone.convs.10.weight f4 [1, 1, 9]
00000000: f79f 4b3f 4731 0bc0 f468 693f 10a7 09bf
00000010: 46fe 2ebe a829 f5bd 2800 a93f 0a96 6c3e
00000020: 90bb 82be
0.7954096 -2.1748827 0.9117577 -0.5377054 -0.17089185 -0.11970836 1.3203173 0.2310411
-0.25533724

backbone.convs.11.weight f4 [1, 1, 7]
00000000: 19ae 953f a3a0 b63f 57b7 a6be 6cd7 9abf
00000010: daa3 82bf bac4 243f fc0f 2fbf
1.1693755 1.4267772 -0.32561752 -1.2096992 -1.0206254 0.6436268 -0.68383765

backbone.convs.12.weight f4 [1, 1, 7]
00000000: 7d59 be3f a84b 9fbe e45d fd3e 5cd9 b6bf
00000010: e739 153f aab3 eabf 0812 813f
1.487106 -0.3111241 0.49485695 -1.4285083 0.58291477 -1.8336079 1.0083628

backbone.convs.13.weight f4 [1, 1, 9]
00000000: 2243 f0be 3a6f 473e 2881 a7be 20ba d9bc
00000010: baba 2c3f e147 a53e 5894 40bf 2e6b 483e
00000020: 2ebc 3f3e
-0.46926218 0.19476023 -0.32715726 -0.02657801 0.6747242 0.32281402 -0.75226355 0.19572136
0.18724129

backbone.convs.14.weight f4 [1, 1, 7]
00000000: 4031 343f b63f 0bbf 47a5 e6be 8222 03bf
00000010: 395b 1c3f 1372 87bf 4606 a03f
0.7038765 -0.5439409 -0.45047972 -0.5122453 0.61076695 -1.0581688 1.2501915

backbone.convs.15.weight f4 [1, 1, 9]
00000000: 5f36 51bf 2870 583e 50c8 5ebd 9a91 19bf
00000010: e944 24bf eaf8 813f 3cd0 d13e 6230 a13f
00000020: 4d5d 48bf
-0.8172359 0.21136534 -0.05439025 -0.59987795 -0.6416765 1.0154088 0.40979183 1.259289
-0.78267366

backbone.convs.16.weight f4 [1, 1, 9]
00000000: 603e a33d 7af1 0dbf d4ec fd3e 2068 64bc
00000010: cc2d 4fbe a8e1 e9bf 3ed3 a53f f876 e23c
00000020: 75f9 323f
0.079708815 -0.5544659 0.49594748 -0.013940841 -0.20232314 -1.827199 1.2955091 0.02764462
0.6991189

backbone.convs.17.weight f4 [1, 1, 9]
00000000: 9a70 493e d153 a03f ddc0 89bf 48d7 d4bf
00000010: b20e 8cbe 79d6 56bf 4f9e 553f 781f 8d3c
00000020: 8681 c63f
0.1967186 1.2525579 -1.0761982 -1.6628199 -0.27354962 -0.8392101 0.83444685 0.01722692
1.5508277

backbone.convs.18.weight f4 [1, 1, 11]
00000000: 3e3d 113e 869b 243f c4d6 2b3e 0c38 2a3d
00000010: 7a3b 9bbf 98b0 0d3e dc78 05be bc80 89bd
00000020: 7cf7 43bf fc47 07bf 452a c93f
0.14183518 0.6429981 0.16781145 0.041557357 -1.2127526 0.13836896 -0.13034385 -0.06714007
-0.76549506 -0.52844214 1.5716025

backbone.convs.19.weight f4 [1, 1, 7]
00000000: 2e84 e23f 451b 06bf ed6d a83d 56b3 4abe
00000010: 1c5d 30bf ce6a 35bf d6f3 883e
1.7696588 -0.5238536 0.08224092 -0.19794974 -0.68892074 -0.70866096 0.26748532

backbone.convs.20.weight f4 [1, 1, 11]
00000000: 1c2a 2940 a85e 28be eab1 1abf b9c5 d6bc
00000010: e62c 183f e786 f2bf 7e2f 283d 9b02 8e3f
00000020: 60a3 eabe 5895 18be 76ac 8bbf
2.6431952 -0.16442358 -0.60427725 -0.026217328 0.5944351 -1.8947419 0.041060917 1.1094545
-0.4582777 -0.1490072 -1.0912006

backbone.convs.21.weight f4 [1, 1, 11]
00000000: e329 dcbf 12b1 303f 953a b0bf 3009 c5bf
00000010: 9e1a fa3f 3725 bf3f da06 fb3f bd32 613f
00000020: baeb a4be 2714 88bf b1f7 74bf
-1.7200283 0.6902019 -1.3767878 -1.5393429 1.9539373 1.4933232 1.9611466 0.87968045
-0.32211095 -1.063115 -0.9569045

backbone.convs.22.weight f4 [1, 1, 9]
00000000: a89c 3e3e e88f 953f f092 af3e bc78 5e3f
00000010: c8e6 56be 5dd5 b5bf 141b 173f 2845 49bf
00000020: b87a 3dbf
0.18614447 1.1684542 0.34291792 0.86902976 -0.20986474 -1.4205738 0.5902569 -0.7862115
-0.7401538

backbone.convs.23.weight f4 [1, 1, 11]
00000000: 2d23 ec3f 8e5f 55bf 1e7b a23f 3dd8 82bf
00000010: 9d29 babe 536c edbe f7d2 92be cbc1 d8be
00000020: d762 a1bf f09e 58be 1a2b e03f
1.8448235 -0.8334893 1.2693822 -1.0222241 -0.36359873 -0.46371707 -0.28676578 -0.42335352
-1.2608289 -0.2115438 1.7513154

backbone.convs.24.weight f4 [1, 1, 11]
00000000: f0e0 7e3f 987b 673f 1abd 233f 8f93 833f
00000010: 96b0 2d3f c0ca 37bf f649 88c0 2a43 3dbf
00000020: 5a7f 0a3f eb55 5d3e 7697 363f
0.9956198 0.90422964 0.6396042 1.0279406 0.67847574 -0.71793747 -4.2590284 -0.7393061
0.54100573 0.21614806 0.7132486

backbone.convs.25.weight f4 [1, 1, 9]
00000000: 334f d1bf 0357 a13e fcc1 bb3e 55c8 a83d
00000010: cdc0 e13f 780e cf3f 8e33 bdbe 9646 27c0
00000020: ee1c f23e
-1.6352295 0.31511697 0.36671436 0.08241335 1.7636963 1.617629 -0.36953396 -2.6136832
0.47287697

backbone.convs.26.weight f4 [1, 1, 9]
00000000: 869b 533f eabb 313f ac9e fd3e f466 1e3e
00000010: 6c6e 2e3f c8cb b7bf fa6d 483f 6638 43bf
00000020: 78e6 b7bf
0.82659185 0.6942736 0.4953512 0.15468961 0.6813724 -1.4359064 0.7829281 -0.7625793
-1.4367208

backbone.convs.27.weight f4 [1, 1, 7]
00000000: a1af d33f a4d8 6ebf 8e7e 90be 4be5 163f
00000010: 0cda 5c3e 2dc8 b5be 0d7f 63bf
1.6537973 -0.9329932 -0.28221554 0.58943623 0.21567553 -0.35504285 -0.8886574

backbone.convs.28.weight f4 [1, 1, 7]
00000000: 5a1b 403d fa36 7e3f b9c8 c5be a2ff 7e3e
00000010: a896 aebd 531b a63e 8927 92bf
0.046901084 0.9930264 -0.38629702 0.24902204 -0.08524829 0.32442722 -1.1418315

backbone.convs.29.weight f4 [1, 1, 11]
00000000: e1fe 8abf a93b 653e 4e2d 6ebf 60ff 7c3f
00000010: db03 84bf 18b0 a8bf ae78 33be 1012 8f3d
00000020: e793 863f 4397 5d3f c5c0 ab3f
-1.0859033 0.2238604 -0.9303788 0.9882717 -1.0313677 -1.317874 -0.17526504 0.06985867
1.0513886 0.8655893 1.3418204

backbone.convs.30.weight f4 [1, 1, 7]
00000000: 336c 85bf a890 18bf 87c4 013e 97c3 143f
00000010: 5fd3 623f 00b6 bdbd db5e 0c3e
-1.0423645 -0.5959573 0.12672625 0.58110946 0.88603777 -0.09263229 0.1370806

backbone.convs.31.weight f4 [1, 1, 9]
00000000: b1ef 3d3f 4b89 6a3f 866e bb3e ccd7 fd3e
00000010: 84b1 e6bf 404c 0b3f 32d9 c8bf 944c b3be
00000020: 5653 283f
0.74193865 0.9161574 0.3660776 0.49578702 -1.8022923 0.54413223 -1.5691283 -0.35019362
0.6575216

backbone.convs.32.weight f4 [1, 1, 7]
00000000: d272 043f 5eff 3540 78ae aebf 4dfa 76bf
00000010: 7422 c9bf b1a1 353f 54d7 2dbe
0.517377 2.8437114 -1.3646994 -0.9647568 -1.5713639 0.70949847 -0.16976672

backbone.convs.33.weight f4 [1, 1, 9]
00000000: a822 cfbf 7663 fdbf 4a70 b53e fe97 dd3f
00000010: d42d 553f eec9 893f 762c a73e 98ba 92bf
00000020: ac82 d83e
-1.6182451 -1.9795978 0.35437232 1.7312009 0.83273053 1.0764749 0.32651109 -1.1463194
0.42287195

backbone.convs.34.weight f4 [1, 1, 11]
00000000: 384a 993f 5687 1f3e 5485 03bf b06d db3c
00000010: 7f31 393f 3ef5 b9bf a438 37bf d701 cd3e
00000020: 4acb c93e 0ae3 8fbf c584 683f
1.1975775 0.1557897 -0.5137532 0.026785702 0.7234115 -1.4527967 -0.715708 0.40040466
0.3941291 -1.1241162 0.9082759

backbone.convs.35.weight f4 [1, 1, 7]
00000000: 2e26 553f 7027 173f e489 5a3e 3403 0fbf
00000010: 9737 81be fdeb bdbf e086 283f
0.8326138 0.5904455 0.21341664 -0.5586426 -0.25237724 -1.4837643 0.658308

backbone.convs.36.weight f4 [1, 1, 9]
00000000: 4d04 f83f 9251 0a3f ca3b 34be 6aa1 1dc0
00000010: cef3 d33e faa9 34bf 894c d73f 80df 00c0
00000020: 73cf 483f
1.9376312 0.54030716 -0.17600933 -2.462977 0.41396946 -0.70571864 1.6820232 -2.0136414
0.7844154

backbone.convs.37.weight f4 [1, 1, 7]
00000000: be13 f4bf f8b8 573d 242f 14c0 5389 383e
00000010: 7ddc e33f 6c35 2d3f e02b c43f
-1.9068525 0.052666634 -2.3153772 0.18021135 1.7801663 0.6765964 1.532589

backbone.convs.38.weight f4 [1, 1, 9]
00000000: edba a2bf 8671 753d 7faf b7bf a7c7 293f
00000010: 47e4 0c3f b47a 0340 c7f2 9bbe b20b 983e
00000020: 7125 1dbf
-1.2713295 0.059922718 -1.4350432 0.6632027 0.55035824 2.0543642 -0.30458662 0.29696423
-0.61385256

backbone.convs.39.weight f4 [1, 1, 11]
00000000: 76dd e93e d568 3ebe cdb2 16be 25e3 0fbf
00000010: 44bc 2dbd c403 683f d9e7 b2bf 5770 52be
00000020: 0892 123f 8e19 9d3d e049 073f
0.45676774 -0.18594678 -0.14716645 -0.5620597 -0.042415872 0.90630746 -1.3977004 -0.20550667
0.57254076 0.0767089 0.528471

backbone.convs.40.weight f4 [1, 1, 9]
00000000: b6ff 94be e3bd e2bf 32b4 333e b68f 68bf
00000010: f56d 973f 3095 3fbf 1cef 093f 6056 b53c
00000020: dd5e e63f
-0.29101342 -1.7714199 0.17549208 -0.90844285 1.1830431 -0.7483702 0.53880477 0.022135913
1.79977

backbone.convs.41.weight f4 [1, 1, 11]
00000000: 0362 543f 75a2 50bf 5a6e 253f 6b57 61be
00000010: 5496 b5be e11a 87bf 1a35 30bf 9ed4 8f3e
00000020: 2a13 2cbf f9e6 b43f e1b8 223f
0.82962054 -0.8149789 0.6462151 -0.22006004 -0.35466254 -1.0555078 -0.68831027 0.28091902
-0.6721674 1.4132987 0.6356335

backbone.convs.42.weight f4 [1, 1, 7]
00000000: bcb2 ce3f e8a8 103d bf74 9cbf b5ed 513f
00000010: 0977 a1bf ad30 d9be 5c24 e03e
1.6148295 0.03531733 -1.2223128 0.8200334 -1.2614452 -0.4241995 0.4377774

backbone.convs.43.weight f4 [1, 1, 9]
00000000: dd06 46bf f492 f9bd ca8c ee3e 5c43 a3bd
00000010: c6aa d53f eb8c dd3e 6c6e 0f3f c2b6 00c0
00000020: 8850 11be
-0.7735422 -0.12186232 0.4659179 -0.07971832 1.6692741 0.43271574 0.56027865 -2.0111547
-0.14190876

backbone.convs.44.weight f4 [1, 1, 11]
00000000: 50c2 3fbe 003e 8dba c43d cabd e08a ed3c
00000010: 264b babf 4ef1 8a3f e8d0 5d3e cc81 f33e
00000020: 58bc f7be 30e2 60bf c228 a63f
-0.18726468 -0.0010775924 -0.09875062 0.028996885 -1.4554183 1.085489 0.21661723 0.47559965
-0.48385882 -0.87845135 1.2981188

backbone.convs.45.weight f4 [1, 1, 7]
00000000: a2d1 923f 3cfd 463f c42c d53d 93e9 8cbf
00000010: 42a5 1c3e 18fb b5bf e1b3 ae3e
1.1470225 0.77730155 0.10408929 -1.1008781 0.15297416 -1.4217253 0.34121612

backbone.convs.46.weight f4 [1, 1, 11]
00000000: 6369 adbf 1877 7cbf 59b2 ce3c 2f51 13bf
00000010: cd38 713e be7d a8be db38 de3f e774 1a3f
00000020: b007 80bf d63b 793f 1803 2c3f
-1.3547786 -0.9861922 0.025231527 -0.5754575 0.23556824 -0.32908434 1.7361101 0.6033463
-1.0002346 0.9735693 0.6719222

backbone.convs.47.weight f4 [1, 1, 9]
00000000: c1b6 4c3e ed6a 523e 9358 243f 3a2c b5bf
00000010: 2a0f 9d3d 6245 e5be e751 2e3f d55a 92bf
00000020: 02ce 993f
0.1999159 0.20548601 0.64197654 -1.4154122 0.07668908 -0.44779497 0.68093723 -1.143397
1.2015994

backbone.convs.48.weight f4 [1, 1, 7]
00000000: 0a65 93bf 0566 f2bf 634e bc3f e6b9 0a40
00000010: 60b3 73bf 347c 133e 3898 5b3e
-1.151521 -1.8937384 1.4711422 2.1675963 -0.9519558 0.14402848 0.21444786

backbone.convs.49.weight f4 [1, 1, 9]
00000000: a844 06bd 384b 83be 1b7d 883f f641 8b3f
00000010: 87d4 e8be c328 9d3f decd 98bf 1e9b 33bf
00000020: a124 3ebf
-0.03278032 -0.25643325 1.0663179 1.0879505 -0.45474645 1.2278064 -1.1937826 -0.70158565
-0.7427464

backbone.convs.50.weight f4 [1, 1, 7]
00000000: a3b0 a43f 489c 933e 8857 8bbf 7c3d b4be
00000010: 22ba a3bf 2691 973f 10fa 20bd
1.2866405 0.2883017 -1.0886087 -0.3520316 -1.2791178 1.1841171 -0.03930098

backbone.convs.51.weight f4 [1, 1, 11]
00000000: 44d7 3dbf ca4f 2140 4648 babf d089 0240
00000010: 058a adbe 103b c83c 0d2b d0be bf1f f1bf
00000020: 6592 88bf 3919 b93e c071 723f
-0.74156594 2.520495 -1.4553306 2.0396614 -0.33894363 0.024442226 -0.40657845 -1.8837813
-1.0669676 0.36152056 0.9470482

backbone.convs.52.weight f4 [1, 1, 11]
00000000: e487 a03f 2a63 a33f ebef 1e3f 15a8 253f
00000010: aa04 053f 7c82 acbf d18e d3bf 9239 12bf
00000020: 4f03 d4bf 9859 a33f 5586 bbbe
1.254147 1.2764637 0.62084836 0.647096 0.5196024 -1.3477321 -1.6527959 -0.57119095
-1.656351 1.2761717 -0.36625925

backbone.convs.53.weight f4 [1, 1, 7]
00000000: 3dc1 8e3f 5fb7 07bf ea7d 79bf 9a7b 313f
00000010: 10c5 2d3f d323 2ebf 14d4 9abe
1.1152722 -0.5301418 -0.97457755 0.69329226 0.6787882 -0.68023413 -0.30239928

backbone.convs.54.weight f4 [1, 1, 9]
00000000: 1318 34be 81bc c83f cdd6 31bf 3494 c2bf
00000010: 41af e23b 5f32 d23e 0046 7fbd 04d5 0abf
00000020: 873b 813f
-0.17587309 1.5682527 -0.69468385 -1.5201478 0.0069178645 0.41054055 -0.062322617 -0.54231286
1.0096291

backbone.convs.55.weight f4 [1, 1, 9]
00000000: 3b28 71be 4e96 26bf 32a6 4a3e 08ae 8bbe
00000010: be3f a83e 5e45 2f3f 9d9c 7c3d d486 7ebc
00000020: b438 c9bd
-0.23550503 -0.65073097 0.19789961 -0.27281213 0.3286113 0.6846522 0.061672796 -0.015535075
-0.098252684

backbone.convs.56.weight f4 [1, 1, 7]
00000000: 6e5b b23e f006 663d 22fd bebf 60ed ed3f
00000010: 82c5 d33e c65d dcbf 2b6a 093f
0.3483538 0.05615896 -1.4921 1.8588066 0.41361624 -1.7216117 0.53677624

backbone.convs.57.weight f4 [1, 1, 11]
00000000: 5df9 af3e bc5d c13d 2058 713f 21ac ec3e
00000010: 0d3a 8ebf 7e4d 313e e2c3 4cbf b24e 14bf
00000020: ba0d 5e3f 0d70 02bf 50f8 ed3d
0.34369937 0.094417065 0.94275093 0.46225074 -1.1111466 0.17314717 -0.79986393 -0.5793258
0.86739695 -0.50952226 0.116196275

backbone.convs.58.weight f4 [1, 1, 7]
00000000: 5819 7e3e 0eba 46bf 1e97 12bf 0212 4c3e
00000010: d0a3 cf3f 7eb9 9bbe 1349 d5be
0.24814355 -0.77627647 -0.57261837 0.19928744 1.6221867 -0.30414957 -0.41657314

backbone.convs.59.weight f4 [1, 1, 9]
00000000: a18b 543f 4c8c e0be 8040 6cbc e0e0 a8bf
00000010: a7f4 86bf 0ebb f0bf 5995 353f 2c93 5940
00000020: 6d55 6dbe
0.83025557 -0.43857038 -0.014419675 -1.3193626 -1.0543412 -1.8807085 0.7093101 3.3996077
-0.23177119

backbone.convs.60.weight f4 [1, 1, 11]
00000000: 2ad9 2b3f a5f9 a33f e802 cabd af32 953f
00000010: 803d f3bd c2b7 77be 2210 9d3e 22e4 e7bf
00000020: 5242 f9be a039 99bd 4193 17bf
0.6712824 1.281056 -0.098638356 1.1656092 -0.118769646 -0.24191192 0.3067637 -1.8116496
-0.4868341 -0.07481694 -0.59209067

backbone.convs.61.weight f4 [1, 1, 11]
00000000: 45a3 32bf 9218 00c0 24f0 d03e 4c8f df3e
00000010: 8018 a73e 8f8f 9e3f b868 0340 1e01 28c0
00000020: d42c 4bbf b8a2 423e 1b80 bb3f
-0.6978038 -2.0014997 0.40808213 0.43664014 0.3263588 1.2387561 2.0532665 -2.6250682
-0.7936528 0.19007385 1.464847

backbone.convs.62.weight f4 [1, 1, 7]
00000000: 9476 2bbe dc23 8bbe 7211 a63e 85a3 d7bf
00000010: 8565 053f f379 4d3f d29c f33e
-0.16744453 -0.27175796 0.32435185 -1.6846777 0.5210803 0.80264205 0.47580582

backbone.convs.63.weight f4 [1, 1, 9]
00000000: 64c6 55bf 5599 39bf c80e 913f 5ebe 9c3e
00000010: 70af 73bf 2f77 f73f 73e5 ddbf 9804 d83d
00000020: 626e 443f
-0.83505845 -0.7249959 1.1332636 0.3061399 -0.9518957 1.9333247 -1.7335647 0.10547751
0.7673093

backbone.convs.64.weight f4 [1, 1, 7]
00000000: c892 2b3f 9ed0 f13f a196 0e40 00a2 c93a
00000010: 689a c6bf 7e8b 9cbf e4e9 00c0
0.67020845 1.889179 2.2279437 0.0015383363 -1.5515871 -1.223007 -2.0142756

backbone.convs.65.weight f4 [1, 1, 9]
00000000: b209 813d 2d83 483e 7029 81be d2b7 4d3e
00000010: 60a1 443f dc11 80be 607b 9bbb 2358 14bf
00000020: 5b92 10be
0.06300677 0.1958129 -0.25226927 0.20089653 0.7680874 -0.25013626 -0.004744932 -0.57946986
-0.1411833

backbone.convs.66.weight f4 [1, 1, 9]
00000000: c267 18bd 1b40 21bf 35dd c03f 1034 453f
00000010: ced9 0bc0 c4ba 703d 242e 2f3f 34e5 79bf
00000020: b7ea 4e3f
-0.037208326 -0.6298844 1.5067507 0.77032566 -2.1851687 0.058771864 0.6842978 -0.9761536
0.80826896

backbone.convs.67.weight f4 [1, 1, 11]
00000000: 9141 19bf ce7d 90bd c4a1 4e3f 4ee6 1c3f
00000010: ad5b e6bf e462 473f eaa2 77be 7aa8 b43f
00000020: 3669 e9be 0cba 8d3d 334d 03bf
-0.5986567 -0.07055245 0.80715585 0.6128892 -1.7996727 0.7788527 -0.2418324 1.4113915
-0.45588082 0.06920251 -0.5128967

backbone.convs.68.weight f4 [1, 1, 9]
00000000: 90b6 62be f807 283e 826e b5bf 000b 0b3c
00000010: 94d4 4e3e 8087 81bc 1094 243e 04b2 a43f
00000020: ca55 2bbe
-0.22139955 0.1640929 -1.4174349 0.008486509 0.2019828 -0.015811682 0.16072106 1.2866826
-0.16731945

backbone.convs.69.weight f4 [1, 1, 9]
00000000: 4dea 2dbf 558d 5dbf 2566 be3e eae6 82bf
00000010: ca98 9f3f e747 1bbf f7da a73f b8b3 383e
00000020: b02e 823d
-0.6793564 -0.8654378 0.37187305 -1.0226719 1.2468503 -0.6065659 1.3113698 0.18037307
0.06356561

backbone.convs.70.weight f4 [1, 1, 9]
00000000: 7408 78bf 85a0 fd3f 299e 20bf 8697 adbf
00000010: ef5f c9be 18ac b63f 1bd4 5bbf 207b b7bb
00000020: 792f 4d3f
-0.968879 1.9814612 -0.62741333 -1.3561866 -0.39331004 1.4271269 -0.8587052 -0.0055993944
0.8015056

backbone.convs.71.weight f4 [1, 1, 7]
00000000: 6e9d a6bf 1faf 12bf 8ff7 e93e 236c 913e
00000010: debf 2f3f 8212 ff3f 60d6 c5bf
-1.3016794 -0.57298464 0.45696685 0.28402814 0.6865214 1.9927523 -1.5456047

backbone.convs.72.weight f4 [1, 1, 9]
00000000: 1f2a 023f 535e 9dbf eb19 cfbf 36a1 96be
00000010: 2f82 4640 367f 93bf 12d8 c3bf 03ae 9f3f
00000020: c760 773f
0.5084552 -1.229441 -1.6179785 -0.2941987 3.1016958 -1.1523197 -1.5300314 1.2474979
0.96632046

backbone.convs.73.weight f4 [1, 1, 9]
00000000: b69f dd3f e3b3 d1be 56c2 65bf d9d7 f5be
00000010: b5c2 ebbe 6b9e 8c3e 0506 a03f 42d9 16bf
00000020: b1af d6be
1.7314365 -0.40957555 -0.8974966 -0.4801624 -0.46046987 0.27464613 1.2501837 -0.5892526
-0.41930917

backbone.convs.74.weight f4 [1, 1, 7]
00000000: 11b3 bd3f 3ceb 953f 56ab d8bd 5968 f2bf
00000010: 162a 47bf 3e3a 953e 1326 2bbe
1.4820272 1.1712413 -0.10579555 -1.8938094 -0.77798593 0.29145998 -0.16713743

backbone.convs.75.weight f4 [1, 1, 7]
00000000: 2b45 c23d 3217 443f 2c59 39be ca91 2e3e
00000010: 6f12 5f3f 9e34 4e3f 43bd 21c0
0.09485849 0.76597893 -0.18100423 0.17047802 0.871375 0.8054904 -2.5271766

backbone.convs.76.weight f4 [1, 1, 11]
00000000: b82e 5a3c 1083 86bf ee52 053f f58b aa3f
00000010: 6197 ee3f 2b0a b2bf be75 e3be 730a 323f
00000020: a6f8 f33e d072 b2bf 244e 1fbf
0.013316803 -1.0508747 0.52079666 1.3323961 1.8639947 -1.3909353 -0.44425768 0.69547194
0.4765064 -1.3941288 -0.6222861

backbone.convs.77.weight f4 [1, 1, 7]
00000000: 0a3b 2f3f 86ad 163f 207e 343e a91e 96be
00000010: a241 3cbf 2d5a a23e 3ae4 3cbf
0.6844946 0.58858526 0.17626238 -0.29320267 -0.7353765 0.31709424 -0.73785746

backbone.convs.78.weight f4 [1, 1, 9]
00000000: ff97 37be cace 283f 668d 4bbf 72d4 a43f
00000010: 405a 61bf 89b3 4fbe 8557 ba3e 0050 bd39
00000020: 1e01 82be
-0.17929076 0.65940535 -0.7951263 1.2877333 -0.88028336 -0.20283331 0.36394897 0.00036108494
-0.25391477

backbone.convs.79.weight f4 [1, 1, 7]
00000000: bb68 b73f a83a 153e 4dcf c23f 4db0 c9bf
00000010: c871 4cbd d8e8 d3be 4bd1 87bf
1.4328836 0.14573157 1.5219513 -1.5756928 -0.049913198 -0.41388583 -1.0610746

backbone.convs.80.weight f4 [1, 1, 7]
00000000: ecf4 ac3d 495b 8fbf 7847 b03f 2994 c23f
00000010: 1976 cbbf 8ff4 173f a6a7 5dbf
0.08445153 -1.1199733 1.377181 1.5201465 -1.5895416 0.5935754 -0.86583936

backbone.convs.81.weight f4 [1, 1, 11]
00000000: ada4 3abe 5a75 993d 1c82 f03e d27b 06bf
00000010: 7fa2 8abf 4326 bebe 4584 b0be 17ff 353d
00000020: da21 dfbe e647 e93f b2f0 073f
-0.18226881 0.07493086 0.46974266 -0.52532685 -1.083084 -0.37138566 -0.34475914 0.044432726
-0.43580514 1.8225067 0.53101647

backbone.convs.82.weight f4 [1, 1, 9]
00000000: 0b64 0c40 d396 c13f 9917 30be 7129 fabf
00000010: b8b9 0fbf 7c47 bcbf 211d 5c3f ea1a bf3e
00000020: f2c6 47bf
2.1936061 1.5124153 -0.17196502 -1.9543897 -0.5614276 -1.4709315 0.8598195 0.3732522
-0.7803794

backbone.convs.83.weight f4 [1, 1, 9]
00000000: b080 143d 8a5a 3dbf 7e0f b0bf 7474 acbf
00000010: 2550 1740 c284 893f 1ec4 03be b85a fc3e
00000020: 11d8 c0be
0.03625554 -0.73966277 -1.3754728 -1.3473039 2.3642666 1.074364 -0.12867782 0.49287963
-0.37664846

backbone.convs.84.weight f4 [1, 1, 9]
00000000: 4057 f13f 4b1a 1fc0 8a4b 473f 511c 9e3f
00000010: 46cc 49be 4c89 31bd 3ee9 4c3f 7f4d b8be
00000020: 2c80 cebf
1.8854752 -2.4859798 0.7784964 1.2352391 -0.1970683 -0.043343827 0.800434 -0.35996625
-1.6132865

backbone.convs.85.weight f4 [1, 1, 9]
00000000: bbba 563f 382d 0ebe 681e 3fbd 4462 15bf
00000010: 30ea a1bf c0ce e73d 623d a13e 10e2 84bd
00000020: d7fc 543f
0.8387868 -0.13884437 -0.046659857 -0.58353066 -1.2649593 0.11318731 0.31492144 -0.064884305
0.83198303

backbone.convs.86.weight f4 [1, 1, 9]
00000000: 4a95 81bf 3579 68bf 9e86 953e 9cc3 dcbf
00000010: d66f 6c3f 622a 2c3f b2e4 e13e 4cd7 433f
00000020: de03 0d3f
-1.0123684 -0.9080995 0.29204267 -1.7247195 0.9235815 0.6725217 0.44119793 0.7650039
0.55084026

backbone.convs.87.weight f4 [1, 1, 11]
00000000: 047c 763f af50 cabe 6f95 d5be c20e 04be
00000010: 804e 69bc d968 9bbf 1c80 79bf 40ad 143f
00000020: 65c2 843f 51e9 e7be 301a 823f
0.9628298 -0.39514682 -0.4171557 -0.12896255 -0.014239907 -1.2141372 -0.97461104 0.5807686
1.0371825 -0.45295194 1.0164242

backbone.convs.88.weight f4 [1, 1, 7]
00000000: 2e98 583f 40ef 5b3f 3a68 98be 6045 5d3d
00000010: 1c53 85bf 240a e4be 2075 d03c
0.8460721 0.8591194 -0.2976702 0.05402124 -1.0415988 -0.44538987 0.025446475

backbone.convs.89.weight f4 [1, 1, 9]
00000000: 4ae9 f83e f27c 5340 d227 96bf db63 023f
00000010: 4ae3 98bf 8ad0 e33e 10aa 60bd 561e a5bf
00000020: 822b 84bf
0.48615485 3.304501 -1.1730902 0.5093362 -1.1944363 0.4449504 -0.054849684 -1.2899883
-1.0325778

backbone.convs.90.weight f4 [1, 1, 9]
00000000: e4c5 db3e cf4c 9e3f 3c25 99bd a061 a4bc
00000010: 944f 9bbf c08d 03c0 5faf 883f 3176 d03f
00000020: d6a9 7fbf
0.42924416 1.236719 -0.07477805 -0.020066082 -1.213366 -2.0555267 1.0678519 1.6286069
-0.99868524

backbone.convs.91.weight f4 [1, 1, 9]
00000000: 4d2d 423e cab5 17bf 46ac 76bf 6df9 70be
00000010: e52b 3abf 4e0f a93f ae0b b33f bba2 2ebf
00000020: 795b 953e
0.18962593 -0.59261763 -0.9635662 -0.23532648 -0.7272323 1.3207796 1.3987939 -0.68217057
0.2917135

backbone.convs.92.weight f4 [1, 1, 7]
00000000: 7e2c 30bf c3a9 22bf c5f2 89bf 9a34 853f
00000010: c4ac 783e 90e9 943e 9ab2 533f
-0.6881789 -0.63540286 -1.0777212 1.0406678 0.24284655 0.29084444 0.826944

backbone.convs.93.weight f4 [1, 1, 7]
00000000: c187 d3be 089c 5f3f 9abd 913d 2333 273f
00000010: 7f27 f3be dcb8 59bf 7f26 103e
-0.4131451 0.8734746 0.07116242 0.65312403 -0.4749107 -0.850477 0.14077185

backbone.convs.94.weight f4 [1, 1, 7]
00000000: 510a 933e 629c 493f 2240 c5be 13e8 88be
00000010: 4b0f 57bf b4cc 653f b495 f5be
0.28718808 0.78754246 -0.38525492 -0.2673956 -0.8400771 0.8976548 -0.47965777

backbone.convs.95.weight f4 [1, 1, 11]
00000000: 6807 1d3f 75a3 1abe 6fdc 133f 701a 843c
00000010: 5219 ecbe b32d 8ebf ac7c 98be 748f d53f
00000020: 9b56 0cbf 08dd 3fbf a8be e23e
0.61339426 -0.15101416 0.5775823 0.016125888 -0.46113068 -1.1107696 -0.29782617 1.6684403
-0.5481965 -0.7494664 0.44286084

backbone.convs.96.weight f4 [1, 1, 9]
00000000: dc41 0e3f c643 9d3d bf38 763f 023a 453d
00000010: da40 2dbf 2e7b 04bf d262 04bf 2a44 06bf
00000020: 4eec 173f
0.55569243 0.076789424 0.9618034 0.048151024 -0.6767708 -0.5175046 -0.5171329 -0.5244776
0.5934495

backbone.convs.97.weight f4 [1, 1, 9]
00000000: 3742 5abf e0e4 4d3d 759c 023e b84d 0d3f
00000010: c45d b93e eca4 51be 103f 8c3e 66fd 443e
00000020: 7335 00bf
-0.85257286 0.0502671 0.12754996 0.55196714 0.3620435 -0.20473069 0.27391863 0.19237289
-0.5008156

backbone.convs.98.weight f4 [1, 1, 9]
00000000: 260a 60be 09e5 883e a1b9 dbbd 1045 293f
00000010: 6af6 de3e 4733 c8be 4482 39bf baa0 f03e
00000020: 01db c8be
-0.21878871 0.2673724 -0.10728765 0.66121006 0.43547374 -0.39101622 -0.72464395 0.46997625
-0.39229587

backbone.convs.99.weight f4 [1, 1, 7]
00000000: 4687 fcbe 734b 52bf c8f5 0f40 5724 4f3f
00000010: 8ba2 13bf f052 41bc 44e2 93bf
-0.49321955 -0.82146376 2.2493763 0.80914825 -0.57669896 -0.011799559 -1.1553426

backbone.convs.100.weight f4 [1, 1, 11]
00000000: 683e 563e 0eb0 013f 6f9a 773f 6ab1 afbf
00000010: 7d23 793f 7558 27c0 1205 873f 0f7b 343f
00000020: 1cb1 13bf 1453 db3d b089 283d
0.20922244 0.50659263 0.9672002 -1.3726017 0.97319776 -2.614774 1.0548422 0.7050027
-0.5769212 0.10709205 0.041146934

backbone.convs.101.weight f4 [1, 1, 11]
00000000: 16bd 473e a63d 153f 0eba 25bf 76aa c43f
00000010: 8419 973e b235 5dbf 9f84 72bf 0a22 233f
00000020: 23e6 1fbe 2c69 2b3c 5d70 24bf
0.19505724 0.58297193 -0.6473702 1.536452 0.29511654 -0.8641006 -0.94733614 0.63723814
-0.15615134 0.010462087 -0.6423395

backbone.convs.102.weight f4 [1, 1, 11]
00000000: ae98 053f 48a4 53bf 6124 d93e 7453 49bf
00000010: 2411 dabe a667 f1bf 3edc 8b3f 7a93 0040
00000020: e69a ccbe 44df e9be 62db 3b3f
0.52186096 -0.8267255 0.42410567 -0.78642964 -0.42591202 -1.8859756 1.0926588 2.0090013
-0.39961928 -0.4567815 0.73381627

backbone.convs.103.weight f4 [1, 1, 11]
00000000: 5224 9fbf 8516 8dbe 386c 923f 0f78 a93e
00000010: 8ce3 1e3f 7c14 d33d 4633 ab3f 5a3f 56bf
00000020: 4728 42bf 5151 c63f 1f54 fcbf
-1.2432959 -0.27556244 1.1439276 0.3309941 0.6206596 0.103066415 1.3375022 -0.83690417
-0.7584271 1.5493566 -1.9713172

backbone.convs.104.weight f4 [1, 1, 7]
00000000: a2d5 0fbf c237 c2bf ec84 1b3f ab9a 2abd
00000010: a18f 46bf 5459 1e3f 1ad0 d53f
-0.5618535 -1.5173266 0.607497 -0.04165141 -0.7756291 0.61855054 1.6704133

backbone.convs.105.weight f4 [1, 1, 11]
00000000: e884 69bf e012 97bd e8f9 823f 4fdf 473f
00000010: 2fa4 293f fc84 b73f 50fc 0a3e 7dc6 403f
00000020: 7886 7fbf 6791 94be 1bf4 20c0
-0.91218424 -0.07376647 1.0232515 0.78075117 0.6626615 1.4337459 0.13572812 0.7530287
-0.9981456 -0.29017183 -2.514899

backbone.convs.106.weight f4 [1, 1, 9]
00000000: d963 633e 8738 8fbf 09c2 b43f 2230 f73e
00000010: 7fb8 513f 7a99 8e3f 34aa babb a99c 9bbf
00000020: 6ae0 dabf
0.22206058 -1.1189126 1.4121715 0.4827891 0.81922144 1.1140587 -0.0056965593 -1.2157184
-1.7099736

backbone.convs.107.weight f4 [1, 1, 11]
00000000: 9e01 463e 2c68 41bf cede b23e f97d 3b3f
00000010: deb6 ad3f b2fc e1bf ce7a 673e 3ab3 cabe
00000020: 5bb9 603f 6b30 f13d 75de 6fbf
0.19336554 -0.7554958 0.3493561 0.73239094 1.3571432 -1.7655241 0.2260544 -0.39589864
0.8778283 0.11776813 -0.9369882

backbone.convs.108.weight f4 [1, 1, 11]
00000000: 6cec 80be 4175 173e 15df 9c3f ac34 313f
00000010: b404 46be 8047 8d3c 58d4 0e3f 9096 d7bf
00000020: 039f 803f b0cd 63be 689a a5bf
-0.25180376 0.14790823 1.2255579 0.69220996 -0.19337732 0.017246008 0.5579276 -1.6842823
1.0048527 -0.22246432 -1.2937746

backbone.convs.109.weight f4 [1, 1, 9]
00000000: 00cd d1bf c2a3 883e b972 303f 42b3 883d
00000010: 8c95 49be f27c 96bf 5191 c33f ab5b 5f3e
00000020: d992 783e
-1.6390686 0.26687437 0.6892505 0.06674816 -0.19685954 -1.175688 1.5278722 0.21812312
0.24274768

backbone.convs.110.weight f4 [1, 1, 11]
00000000: 920b 6f3e 5754 bbbf 91cb dabf 3e31 a1be
00000010: 35c9 833f 984f 533e ec58 943e d3e4 fa3e
00000020: c8b7 d2bd 2aea 373f 2a7d 1f3f
0.23344257 -1.4635113 -1.7093374 -0.3148288 1.0295779 0.20635831 0.28974092 0.49002704
-0.1028896 0.7184168 0.6230036

backbone.convs.111.weight f4 [1, 1, 9]
00000000: f443 be3d dee3 a4be 40b4 a23e 3ffd 5fbe
00000010: 74ec 1740 ff9a 333f d0c6 16bf 04ca 8dbf
00000020: acd1 9fbf
0.09290305 -0.322051 0.31778145 -0.2187395 2.373807 0.7015838 -0.58897114 -1.1077275
-1.2485862

backbone.convs.112.weight f4 [1, 1, 9]
00000000: dd49 afbe 64ef 663e 7dfb 99be 6247 63bf
00000010: ea97 98bf 935c 0a3f ceed 803f fd9a 923f
00000020: 8a40 48be
-0.3423604 0.22552258 -0.30074683 -0.88780797 -1.192136 0.5404751 1.0072572 1.1453549
-0.1955587

backbone.convs.113.weight f4 [1, 1, 11]
00000000: a9c3 9d3e 9c39 9c3f 60a7 7e3d a0a9 0ec0
00000010: 5b82 a8be 03b0 463e d025 153e 9886 a73f
00000020: 1028 5fbf 1244 50be 38bd c93e
0.3081334 1.2205081 0.06217134 -2.229103 -0.32911953 0.1940308 0.14565206 1.308795
-0.87170506 -0.20338467 0.39402175

backbone.convs.114.weight f4 [1, 1, 9]
00000000: 21c8 d2be b2f6 163e d658 1b3f 6ab3 1f3f
00000010: 61f6 1abf 4033 fabe 6242 763f 1671 8bbf
00000020: d993 823e
-0.4116831 0.14742544 0.6068243 0.6238314 -0.60532194 -0.48867226 0.9619504 -1.0893886
0.25503424

backbone.convs.115.weight f4 [1, 1, 9]
00000000: 482d 36bf 9019 793f 2ebc e4bf 3e0e a83f
00000010: de0d f0be 2a07 8c3f d3db 253f 4ab5 e5bf
00000020: f3f6 3b3f
-0.71162844 0.9730463 -1.7869928 1.3129346 -0.4688558 1.0939686 0.6478855 -1.794595
0.7342369

backbone.convs.116.weight f4 [1, 1, 9]
00000000: 95fc 5a3f 7808 43bf 9ac5 bcbf ac5f 5a3f
00000010: 921b 833e 867e 073e 48e7 403f 7199 05bf
00000020: ac1e bcbd
0.8554166 -0.761848 -1.4747803 0.85302234 0.25606972 0.13231859 0.7535291 -0.5218726
-0.09185538

backbone.convs.117.weight f4 [1, 1, 9]
00000000: 53d4 7a3f 9316 273f 0ce6 71be eba6 5c3f
00000010: b779 1b3f c9ec a1bf c02a ccbf 66b8 80be
00000020: 0ce5 7b3e
0.9798023 0.6526882 -0.23622912 0.86192197 0.607326 -1.2650386 -1.5950546 -0.25140685
0.24599093

backbone.convs.118.weight f4 [1, 1, 11]
00000000: 4e2c 433e fb54 993f 5494 a23e a5da 863f
00000010: 28cc 2bbf 593b 313f 9fb7 aabf 5142 313f
00000020: 907a 46bf 7b23 e4be 772a 6bbf
0.1905987 1.1979059 0.3175379 1.0535475 -0.6710839 0.6923118 -1.3337287 0.69241816
-0.77530766 -0.4455832 -0.9186167

backbone.convs.119.weight f4 [1, 1, 11]
00000000: 4cc2 fcbe 7ab9 843f 20cc a8bf b836 42bf
00000010: 86eb dd3e 98f1 983d fc84 3dbe 5cea 16be
00000020: a80a 85bc dadd 8e3f 5663 843e
-0.49366987 1.0369103 -1.3187294 -0.75864744 0.43343753 0.07467955 -0.18507761 -0.14737839
-0.016240433 1.1161454 0.25857037

backbone.convs.120.weight f4 [1, 1, 7]
00000000: 53f6 323f 403e 5a3e 05af 00c0 dae2 4a3f
00000010: 9f4c 9dbf 01a1 8e3f 2e55 d73e
0.6990711 0.21312809 -2.0106823 0.792524 -1.2289008 1.1142884 0.42057174

backbone.convs.121.weight f4 [1, 1, 11]
00000000: 2819 0ebe 0aea a63e 200b 6dbf 405c a4bc
00000010: 0078 02bf 18e5 d63d c848 dd3c 122b 0fbf
00000020: 8e53 543e 17f4 913f ba3c b23e
-0.13876784 0.32600433 -0.925951 -0.02006352 -0.50964355 0.10492915 0.027012244 -0.55925095
0.20734999 1.1402615 0.34811956

backbone.convs.122.weight f4 [1, 1, 11]
00000000: 0792 1c3f 364d a7bf 23a8 8f3f d045 823f
00000010: 2875 57bf 3dc8 503f b890 b3bf f5e0 26bd
00000020: bf24 813f 60f0 f8be d0d0 febe
0.6116032 -1.3070438 1.1223186 1.0177555 -0.8416314 0.8155554 -1.402854 -0.04074188
1.0089339 -0.48620892 -0.49768686

backbone.convs.123.weight f4 [1, 1, 7]
00000000: a889 853f 4956 56be 902d f43f 2d02 a03e
00000010: 13c5 1cc0 3ea4 adbf d282 403f
1.0432634 -0.20931353 1.9076405 0.3125166 -2.4495285 -1.3565748 0.75199616

backbone.convs.124.weight f4 [1, 1, 7]
00000000: 5ea6 a13f 6014 e03e 44f6 a1bf 74a4 55be
00000010: 0b24 16be e8b9 81bf 8afb 6e3f
1.2628896 0.43765545 -1.2653279 -0.20863515 -0.14662187 -1.0134859 0.9335257

backbone.convs.125.weight f4 [1, 1, 7]
00000000: 2dc7 dfbe dc18 29bf 5859 223e 6245 983f
00000010: 83b0 a3be 8cd6 153e 4010 9ebd
-0.43706647 -0.6605356 0.15854394 1.1896174 -0.31970605 0.14632624 -0.07717943

backbone.convs.126.weight f4 [1, 1, 9]
00000000: c8fa dfbe 934c b53f 3663 6d3f 9c8d 0540
00000010: d35d c3bf c15c 62bf 5772 c5bf f6c5 923d
00000020: 8988 e4bd
-0.43746018 1.4163994 0.9272951 2.0867682 -1.5263008 -0.8842278 -1.5425519 0.07166664
-0.111588545

backbone.convs.127.weight f4 [1, 1, 7]
00000000: ce2c 9ebe b4ce 283f 1011 d73d a490 df3f
00000010: cbcc c3bf f9fa 843f 080c dbbf
-0.30893558 0.65940404 0.10501301 1.7466016 -1.5296873 1.0389091 -1.7113047

backbone.convs.128.weight f4 [1, 1, 7]
00000000: 35be c8bf 3dad 8d3f c1ce 923c 717f 25bf
00000010: deb3 313d 866f 203f 5100 d73e
-1.5683047 1.1068493 0.017920854 -0.64647585 0.043384425 0.6267017 0.4199243

backbone.convs.129.weight f4 [1, 1, 11]
00000000: b338 543f 9228 d03f 4eec eebf 78ea b1bf
00000010: c615 a43f 5bd5 9dbf 4351 043f 8b34 183f
00000020: 7bbd 58bf ed66 553f c618 b1be
0.82899016 1.6262381 -1.8665864 -1.3899679 1.2819145 -1.2330736 0.51686496 0.59455174
-0.84664124 0.8336018 -0.34589213

backbone.convs.130.weight f4 [1, 1, 11]
00000000: c8b0 cf3e ec7c 1e3f bc4e 753e 0bef e5bd
00000010: 2cea 72be 29a3 e7be d679 79bf 0119 20bf
00000020: c5b3 3c3f 99ce b0bd cc33 f93e
0.4056456 0.61909366 0.23955816 -0.112272345 -0.23722142 -0.4524167 -0.9745153 -0.6253815
0.73711807 -0.086331554 0.4867233

backbone.convs.131.weight f4 [1, 1, 7]
00000000: f4fa d73f f8ae f0bf 64a9 7d3e 506f 70bd
00000010: c84d 1fc0 11e8 3b40 0ac9 e2be
1.687346 -1.8803396 0.24771649 -0.058699906 -2.4891224 2.9360392 -0.44294006

backbone.convs.132.weight f4 [1, 1, 11]
00000000: c140 9ebe e31b e63e 800f 74bf c9d0 723f
00000010: c8df a23e 0ec2 76bf ec67 aa3d 65f5 e0bd
00000020: 9955 443f 4110 f43e bbe8 34bf
-0.30908778 0.4494315 -0.9533615 0.9484983 0.31811357 -0.96389854 0.08320603 -0.10984305
0.7669311 0.4766865 -0.7066762

backbone.convs.133.weight f4 [1, 1, 7]
00000000: 02d9 b13f bb45 cf3e 2071 25bf db29 4b3e
00000010: d3e4 89be 94fa c8bf b372 fc3e
1.389435 0.40482888 -0.6462574 0.19840185 -0.26932392 -1.570147 0.4930626

backbone.convs.134.weight f4 [1, 1, 7]
00000000: ff28 0fc0 358e a23e 0d3e d13e e994 dd3e
00000010: d6da 7abe 3cb7 943f 92ee 243e
-2.2368772 0.3174912 0.40867653 0.43277672 -0.24497542 1.1618419 0.16106632

backbone.convs.135.weight f4 [1, 1, 7]
00000000: e813 353e be96 2cbf c292 1abe b161 9fbd
00000010: b473 9abe aa3b 633f 5683 0f3e
0.17683375 -0.67417514 -0.15095046 -0.07782305 -0.301664 0.88762915 0.14014944

backbone.convs.136.weight f4 [1, 1, 11]
00000000: 2e59 a73f a4ae 48bf 1cfd 463f 3991 9fbf
00000010: ea72 eabf 40b9 b9bf 18c3 3d3e a858 bf3f
00000020: de76 c43e f1c2 05bf b1ef d73f
1.307409 -0.7839148 0.77729964 -1.2466193 -1.8316319 -1.4509659 0.18531454 1.4948931
0.38371938 -0.5225058 1.6870023

backbone.convs.137.weight f4 [1, 1, 9]
00000000: 88c3 e53f 80ea b1bb 92a1 c6bf 4627 d3bf
00000010: b4c1 0c3e 9ced 2b3e 0684 903e 4040 eabd
00000020: b348 703f
1.7950296 -0.005429566 -1.5518057 -1.649636 0.13745767 0.1678986 0.28225726 -0.11438036
0.9386093

backbone.convs.138.weight f4 [1, 1, 9]
00000000: be5e 90be 6ca4 0cbe f10b ba3f 404a d9bc
00000010: 159b ad3f bfde e33f 8a07 f3bf 1023 23c0
00000020: 2d65 9b3e
-0.28197283 -0.13734597 1.4534894 -0.026524663 1.3562952 1.7802352 -1.8986676 -2.549015
0.30350628

backbone.convs.139.weight f4 [1, 1, 7]
00000000: aa5d 6cbe 8b30 3abe 36a0 ddbf dc6b c43f
00000010: 66cf a53e 1b56 173e 1d3c 0d3e
-0.23082605 -0.1818258 -1.7314517 1.5345416 0.32384795 0.1477894 0.13792463

backbone.convs.140.weight f4 [1, 1, 11]
00000000: 3189 87be 47b7 9bbf 3a05 733f 8143 db3f
00000010: c17e d8bf f7a0 023e 1933 9f3f fe35 6ebe
00000020: c084 34bf dc2a 233e 0814 a9bd
-0.26471856 -1.2165307 0.9492985 1.7129976 -1.6913682 0.12756716 1.2437469 -0.23262784
-0.7051506 0.15934318 -0.08255774

backbone.convs.141.weight f4 [1, 1, 11]
00000000: e0b4 0f3f 8cb4 00be 7123 7bbf 908d 563e
00000010: 43d2 973f ea2d 70be c72f 593f 5282 a2bf
00000020: 6263 58bf 17c5 df3e d4d3 5a3e
0.5613537 -0.12568873 -0.98100954 0.2095244 1.1861042 -0.23455015 0.8483853 -1.2696021
-0.84526646 0.43705055 0.21369869

backbone.convs.142.weight f4 [1, 1, 7]
00000000: 1812 9dbe e4ba e8be bcde 1d3f a8e4 96be
00000010: 409f d83b 4eba 373f eae2 91be
-0.30677867 -0.45455086 0.6166799 -0.29471326 0.006610781 0.71768653 -0.28493434

backbone.convs.143.weight f4 [1, 1, 9]
00000000: 7e1b 8c3e 04e4 3d3e 2041 aa3e 113f 2dbf
00000010: 4325 23bf e52c 683f 5e88 523e 2773 75be
00000020: 5c6a b3be
0.27364725 0.18544012 0.3325281 -0.67674357 -0.6372873 0.90693504 0.20559832 -0.23969708
-0.35042083

backbone.convs.144.weight f4 [1, 1, 7]
00000000: 2274 9bbf d4f0 29be ccce d5be 1a07 f33e
00000010: 554e 7fbf a04b 3940 db17 13bf
-1.2144816 -0.16595775 -0.41759336 0.47466356 -0.997289 2.8952408 -0.57458276

backbone.convs.145.weight f4 [1, 1, 7]
00000000: 008f 2c3d 9d5e 0abf 2624 c7bf 95f7 323f
00000010: e526 723f b682 963e 28f1 eb3d
0.042128563 -0.5405062 -1.5557907 0.6990903 0.945906 0.293966 0.11520606

backbone.convs.146.weight f4 [1, 1, 9]
00000000: 2469 a1bf e097 743e 1fc3 42be 58c9 b73e
00000010: 032b 853f f613 8a3f e05b 793d 801f ddbc
00000020: 2659 a6bf
-1.2610211 0.2388606 -0.19019745 0.358958 1.0403751 1.0787342 0.060878634 -0.02699256
-1.2995956

backbone.convs.147.weight f4 [1, 1, 11]
00000000: f58a f23e 2f48 d9bf 1063 b43d 5038 e8bc
00000010: bae8 1dc0 ae1d 893f c3c1 bb3f b7ed aa3f
00000020: a57d 813e 090d 9d3e 7d3c 4dbf
0.4737164 -1.6975154 0.08807957 -0.028347164 -2.4673295 1.0712183 1.4668506 1.3353795
0.25291172 0.30674008 -0.8017042

backbone.convs.148.weight f4 [1, 1, 11]
00000000: f0ce e5bf 2642 923e 9038 bcbb 05d1 20be
00000010: 389b f73f d0f1 593e de91 54bd 4cd0 2abf
00000020: 10b4 80be 79ad c93f 7238 8abf
-1.7953777 0.28566092 -0.0057440475 -0.15704735 1.9344244 0.2128365 -0.051896922 -0.66724086
-0.25137377 1.5756065 -1.0798476

backbone.convs.149.weight f4 [1, 1, 11]
00000000: 3610 023e 7054 7c3e a8b0 bf3e 3f6a 703f
00000010: 6a14 92bf 18cc 2ebe 9604 383f 0f7e 28be
00000020: 1f80 85bf 4467 963e 5561 38be
0.12701496 0.24641585 0.37439466 0.9391212 -1.141248 -0.17070043 0.71882 -0.16454338
-1.0429724 0.2937566 -0.18005879

backbone.convs.150.weight f4 [1, 1, 7]
00000000: ca3f 81be 204e eabf 41fa 123f c5a4 7fbf
00000010: 253e f73f a065 45bf fe67 ac3f
-0.2524398 -1.8305092 0.5741311 -0.99860793 1.931584 -0.7710819 1.3469236

backbone.convs.151.weight f4 [1, 1, 9]
00000000: 36bb f63e 2adf 1840 915e 29bf b0b4 213f
00000010: 9a7f c1be 8e79 abbf 27f6 0cbf d8e8 f23d
00000020: 6fe4 30bf
0.48189706 2.3886209 -0.6615992 0.6316633 -0.37792665 -1.339647 -0.550631 0.11860818
-0.6909856

backbone.convs.152.weight f4 [1, 1, 11]
00000000: 2d4c cb3e 2eed 4c3e 0b6a ec3e aadc 03bf
00000010: eeb5 0dbf 88c0 ab3f 8a23 3fbf b689 77be
00000020: f5d1 f5be b0a1 bb3c 3b68 e83d
0.39706555 0.20012352 0.46174654 -0.5150858 -0.5535573 1.3418131 -0.74663603 -0.24173626
-0.48011747 0.022904247 0.113480054

backbone.convs.153.weight f4 [1, 1, 7]
00000000: cb43 ab3f fcef 77bf 53cb 1dbe fffe 863f
00000010: 306b 263e c99a 6bbf c822 03bf
1.3380064 -0.9685056 -0.15409593 1.0546569 0.16251826 -0.9203306 -0.51224947

backbone.convs.154.weight f4 [1, 1, 7]
00000000: 3b14 8a3f 4cfc b53e 5712 81bf be8d cb3e
00000010: fd34 ecbd bae4 85bf 8e0e ad3e
1.0787424 0.3554405 -1.0083722 0.39756578 -0.11533544 -1.0460427 0.33800167

backbone.convs.155.weight f4 [1, 1, 7]
00000000: 8c88 75bf a342 97bf 679c 34be db08 823f
00000010: 0c60 19bf 0949 ce3e 5faf bf3f
-0.9591148 -1.1817211 -0.17637788 1.0158952 -0.5991218 0.40290096 1.4975394

backbone.convs.156.weight f4 [1, 1, 7]
00000000: 6807 3dbf 04c9 893e 911b a4bf 665b 1e3e
00000010: 5882 8b3e 91d5 c03f 78a4 3abe
-0.73839426 0.26911175 -1.2820913 0.15464553 0.27247882 1.5065175 -0.18226802

backbone.convs.157.weight f4 [1, 1, 9]
00000000: 22c4 83be 739a ad3f c18c 173f 3259 7dbe
00000010: 83c3 893f de45 2abf 4cf5 19be e35b d6be
00000020: 988f a4bf
-0.25735575 1.3562759 0.5919915 -0.24741057 1.076279 -0.6651286 -0.1503498 -0.4186698
-1.2856321

backbone.convs.158.weight f4 [1, 1, 11]
00000000: 6c8d 52bf fabf 2bbf 964a 74bf 9cb2 9b3e
00000010: 3aa9 70bf 2bbf 3c3e 748b dc3f cc95 b43f
00000020: b4be af3e 42bf 01c0 a189 b93f
-0.8224704 -0.6708981 -0.9542631 0.30409706 -0.9400822 0.184323 1.7230058 1.4108214
0.34325182 -2.0272985 1.4495126

backbone.convs.159.weight f4 [1, 1, 11]
00000000: 5a40 4cbe 7f02 973f da07 993e c1e0 863e
00000010: 9f2b 9c3e 8d05 4cbf 7034 453f d281 85be
00000020: 2e9c 2e3e 9c75 11c0 66c2 0a3f
-0.19946423 1.1797637 0.29888803 0.2634335 0.3050203 -0.7969597 0.7703314 -0.26075608
0.17051765 -2.2728033 0.5420288

backbone.convs.160.weight f4 [1, 1, 7]
00000000: bf48 9ebf 07cd 473f 0073 de3f 7cad 32bf
00000010: 37c3 eebe db2a 173e 55ba 87be
-1.236595 0.7804722 1.7378845 -0.69795966 -0.46633312 0.14762442 -0.26509348

backbone.convs.161.weight f4 [1, 1, 9]
00000000: 70d8 4abe 6931 b13f e971 0d3f f692 06c0
00000010: cc83 153f f008 ae3a 1b3f 0b3f 4dc7 91be
00000020: 1d12 f6be
-0.19809127 1.3843204 0.5525194 -2.1027198 0.5840423 0.001327781 0.54393166 -0.28472367
-0.48060694

backbone.convs.162.weight f4 [1, 1, 9]
00000000: aa22 193e 7a78 b7bd 8cc0 86bf 70a3 4a3e
00000010: da66 3c3f 69c9 87bf d7b9 303f bac5 1e3f
00000020: e753 43be
0.1495463 -0.08958526 -1.0527511 0.19788909 0.7359444 -1.060834 0.6903357 0.62020457
-0.19074975

backbone.convs.163.weight f4 [1, 1, 11]
00000000: 13c3 26be f5d9 d23e ee8d e03c b8c1 603d
00000010: 57e0 983e 5904 debf 4abb 8c3e 967e ac3e
00000020: 6e5d a73f d591 ec3e 796a a3bf
-0.16285352 0.41181913 0.027411427 0.054872245 0.29858658 -1.7345077 0.2748664 0.33690327
1.3075387 0.4620501 -1.2766868

backbone.convs.164.weight f4 [1, 1, 9]
00000000: d375 a5bf 006b b23f 8dd5 c83e d358 90be
00000010: d1d1 cbbf acf5 bf3e 4be5 5e3e ba7a ac3d
00000020: 6837 343f
-1.2926582 1.3938904 0.39225426 -0.28192768 -1.5923406 0.3749212 0.21767156 0.08421846
0.70397043

backbone.convs.165.weight f4 [1, 1, 11]
00000000: decc 12be 80db bcbe f5c0 acbf 70e1 243f
00000010: 9b02 0b3f a5c9 823f 6386 4ebf c5f7 4f3f
00000020: 8451 793f 3d7e 13be e65b 97bf
-0.14335963 -0.36886215 -1.3496386 0.6440649 0.5430085 1.0217787 -0.8067381 0.8123744
0.9739001 -0.14403625 -1.182492

backbone.convs.166.weight f4 [1, 1, 9]
00000000: fa40 b0be 009d e53f 1b06 9e3f 8408 273f
00000010: 39e6 65bf 5099 043e 2fbc 4cbf f1d6 5abe
00000020: 38fe c6bf
-0.34424573 1.7938538 1.2345613 0.6524737 -0.89804417 0.12949109 -0.79974645 -0.21371056
-1.5546331

backbone.convs.167.weight f4 [1, 1, 11]
00000000: e036 7a3c eeea 6abf 8a6d 883e 0ea6 863e
00000010: 0e52 6abf fcf5 edbe e863 213f 2ed3 3e40
00000020: 4d13 88bf ce6b 86be cd8e 08bf
0.015271872 -0.91764724 0.26646072 0.26298565 -0.91531456 -0.46476734 0.6304307 2.9816394
-1.063089 -0.26254123 -0.53342897

backbone.convs.168.weight f4 [1, 1, 11]
00000000: f24a 603f fd85 1b3f b857 a1be db80 07c0
00000010: 1f07 633f 3f7e 7a3f 493a 1bbf 3e58 8e3f
00000020: 76a4 94bf 9e90 05bf 9578 853e
0.8761436 0.60751325 -0.31512237 -2.1172397 0.8868274 0.97848886 -0.6063581 1.1120679
-1.161269 -0.52173793 0.2606856

backbone.convs.169.weight f4 [1, 1, 9]
00000000: 080a 62bf 4027 5cbf a3ab d13f e114 c6be
00000010: e868 82bf 311d b63e db74 a5be eea5 56be
00000020: cb05 d83f
-0.88296556 -0.8599739 1.6380504 -0.38687804 -1.0188265 0.35569146 -0.32315716 -0.20961735
1.6876768

backbone.convs.170.weight f4 [1, 1, 9]
00000000: 7ef2 a5bf 43f5 49bf addc 24bf 5488 c03f
00000010: 80b2 e8bd aa4e bdbe 00dd d33f fc85 1640
00000020: 7e1b 13c0
-1.2964628 -0.78889865 -0.64399225 1.5041604 -0.11362171 -0.36974078 1.6551819 2.3519278
-2.298553

backbone.convs.171.weight f4 [1, 1, 11]
00000000: 7794 a83e 8438 f6be 8ff2 9a3f 0caa ac3d
00000010: 1395 e73e a5e9 aabf c1e7 bebf ce0c 103e
00000020: 7aa6 233f cc6e 0b3e 1555 a13e
0.3292577 -0.48089993 1.2105273 0.08430871 0.45230922 -1.3352553 -1.4914476 0.14067385
0.639259 0.13616484 0.31510225

backbone.convs.172.weight f4 [1, 1, 11]
00000000: d6b5 503f dbb1 873f d832 87be 8bb2 cc3f
00000010: 361b 773f f87d 03bf 0800 21c0 034a 01bf
00000020: 54de aabe d41f 67bd 58ae 80be
0.8152746 1.0601152 -0.26405978 1.5991987 0.96525896 -0.5136409 -2.515627 -0.5050356
-0.33372748 -0.056426838 -0.25133014

backbone.convs.173.weight f4 [1, 1, 11]
00000000: 5649 af3f 2572 43bf cd0b 003e ae33 58bf
00000010: fa00 d23f c787 3f3e 243b 533d c7b6 1abf
00000020: 90d1 37bc dec0 bebe e810 47bf
1.3694255 -0.76346046 0.12504502 -0.84453857 1.6406548 0.18704139 0.051570073 -0.60435146
-0.011219397 -0.3725652 -0.7776017

backbone.convs.174.weight f4 [1, 1, 11]
00000000: 3a85 7c3e a4f8 953f f26b 133f e345 983e
00000010: 2683 96bf 86a4 a8be cb4f 42bf 5827 1fbd
00000020: b00e 093f 9c80 05bf 80b8 14bb
0.24660197 1.1716504 0.57586586 0.2974082 -1.1758773 -0.3293802 -0.75903004 -0.03885588
0.53538036 -0.5214937 -0.0022692978

backbone.convs.175.weight f4 [1, 1, 9]
00000000: b168 57bf 8f07 39bf 40fa 873f 00d0 b8bd
00000010: d889 a23e 269f 2a3f 71ec 883f 2665 b0bf
00000020: 60e7 aabd
-0.8414412 -0.7227716 1.0623245 -0.09024048 0.3174579 0.6664909 1.0697156 -1.3780868
-0.083449125

backbone.convs.176.weight f4 [1, 1, 11]
00000000: 04c0 833d 8bae 8fbf a82b 813e d0d8 8f3e
00000010: 50ca 44bf 3b77 bf3f c23b 833e d7d7 323f
00000020: d9a7 8e3e 2a89 88bf 3cf1 bcbe
0.064331084 -1.1225141 0.2522862 0.28095102 -0.76871204 1.4958261 0.2563153 0.69860595
0.27862433 -1.0666859 -0.36902797

backbone.convs.177.weight f4 [1, 1, 9]
00000000: 6be8 183f ae41 86bf 13cf b43f c714 a93e
00000010: 1133 0cbf 6065 3f3f 7adc 04be 2b21 0f3e
00000020: 8b28 c0bf
0.5972964 -1.0488794 1.4125694 0.33023664 -0.5476542 0.7476406 -0.1297473 0.13977496
-1.5012373

backbone.convs.178.weight f4 [1, 1, 7]
00000000: 68f9 a6bf 1af0 0840 8a42 1a3f 6d12 b5bf
00000010: 68ff cc3f f7b2 15bf 901b 85bf
-1.3044863 2.1396546 0.6025778 -1.4146248 1.6015444 -0.58476204 -1.0399036

backbone.convs.179.weight f4 [1, 1, 9]
00000000: 9852 843f f98d 8b3f dc5c 24c0 3d9a 15bf
00000010: 87fd 9a3e 600a 1fbf 5619 0e40 1aa6 97bf
00000020: 097e 9f3e
1.0337706 1.0902702 -2.5681677 -0.58438474 0.3027155 -0.62125206 2.2202964 -1.1847565
0.31150845

backbone.convs.180.weight f4 [1, 1, 11]
00000000: 73aa c13f c274 8fbe 0499 9c3e 7cdc 613d
00000010: abf2 ebbe 989f 56bc 2873 343f 5be2 eabf
00000020: 30d5 56bf 18e8 f63f 392d 8abf
1.5130142 -0.28018767 0.30585492 0.05514191 -0.46083578 -0.013099574 0.70488214 -1.8350328
-0.8391905 1.9289579 -1.0795051

backbone.convs.181.weight f4 [1, 1, 9]
00000000: db76 b13e 33c3 c23e 0e21 85bf eaba b7bf
00000010: 379f 9a3e a69a d4be 0a66 453f d0e4 023f
00000020: c24d 143f
0.34660992 0.3803955 -1.0400712 -1.4353917 0.30199596 -0.41524237 0.77108824 0.5113039
0.5793115

backbone.convs.182.weight f4 [1, 1, 11]
00000000: 2ffc ebbf 662e 3440 58c0 a2be 1aff 9f3f
00000010: cc59 603f a30d 96bf 22ad 233e 0048 5abf
00000020: 2855 593e 34be cdbe 40b7 39bf
-1.8436335 2.815332 -0.31787372 1.2499726 0.8763702 -1.1722912 0.15984014 -0.85266113
0.21223891 -0.40184176 -0.7254524

backbone.convs.183.weight f4 [1, 1, 7]
00000000: b57f a63e 5a6f 9e3f 9273 893f 00e2 933b
00000010: cc98 573f 6836 e2bf baac dbbf
0.32519308 1.2377732 1.0738394 0.0045130253 0.84217525 -1.7672853 -1.7162087

backbone.convs.184.weight f4 [1, 1, 11]
00000000: ad80 a9bf 3ded 1340 aa91 a93f e4b2 dc3f
00000010: f9cd b0be 023c 41be 850b 29c0 5ead f4bf
00000020: 12a7 943f d4c6 b03d a293 49be
-1.3242394 2.3113549 1.3247578 1.7242093 -0.34532145 -0.18870547 -2.641328 -1.9115407
1.1613486 0.086316735 -0.19685224

backbone.convs.185.weight f4 [1, 1, 9]
00000000: 50c3 64bf d8b5 a13e 2093 29bd c404 663e
00000010: f051 613d cc2c ecbd 0a92 ad3e adb6 473f
00000020: d40e 2abf
-0.89360523 0.31584048 -0.041400075 0.22462755 0.055009782 -0.11531982 0.3390048 0.78013116
-0.66428876

backbone.convs.186.weight f4 [1, 1, 11]
00000000: 90b6 2c3f 42cb 95bf 049b 8e3f 0f95 d33f
00000010: 952b 0bbf d56c 36bf cef1 253e 6a7f 91bf
00000020: 8e4d 1d3e 184b 4abf 4e92 183f
0.6746607 -1.1702654 1.1141057 1.6529864 -0.54363376 -0.71259815 0.16205522 -1.1367009
0.15361616 -0.79020834 0.59598243

backbone.convs.187.weight f4 [1, 1, 11]
00000000: a92c 88bf 1428 0ebf db2f bfbe aefd 933f
00000010: 85fd d13e c69b 40be da00 413f 517a 92be
00000020: bafd 6f3f 4891 63bf 10b0 c83d
-1.0638629 -0.55529904 -0.37341198 1.1561792 0.41013733 -0.18809423 0.75391924 -0.28608945
0.9374653 -0.88893557 0.09799206

backbone.convs.188.weight f4 [1, 1, 11]
00000000: 75ea 99bf d92d 14bf 5e1e 91bf 5c2d c1bd
00000010: 4be7 d23f 4f2e 71be 0446 0540 d888 2abf
00000020: 80c7 8aba 50e8 143c db12 313e
-1.2024676 -0.5788246 -1.1337392 -0.0943248 1.6476835 -0.23552822 2.0823984 -0.66615057
-0.001058802 0.009088591 0.17292349

backbone.convs.189.weight f4 [1, 1, 7]
00000000: e468 d43e 48d4 e03f ef10 47bf dcae bcbf
00000010: 7c49 b8be bb45 bc3f 89ea 83bf
0.41486275 1.7564783 -0.77760214 -1.4740863 -0.35993564 1.470878 -1.030595

backbone.convs.190.weight f4 [1, 1, 11]
00000000: 6f89 133f 9a77 e3bd 3c9c 293f 8cfa ff3d
00000010: 4beb 12be 44c4 14bf 7cbd 3b3f ea5f 8cbf
00000020: e0e1 fcbc 6d8b f33e 4413 1cbf
0.5763158 -0.111067966 0.6625402 0.1249896 -0.1434757 -0.5811198 0.73336005 -1.0966771
-0.030869424 0.4756731 -0.60966897

backbone.convs.191.weight f4 [1, 1, 7]
00000000: 44aa 8d3f de2d 5fbf 149b 8abd 46b7 603e
00000010: f594 83bf 8bae 8b3f 8b68 e6be
1.1067586 -0.8717936 -0.0676786 0.21944913 -1.0279833 1.0912641 -0.45001635

backbone.convs.192.weight f4 [1, 1, 11]
00000000: afda 20bf a4aa 1cbf 08ea 97bf 18ed bf3f
00000010: 3bf3 763f 0854 a33f 28da 743e d0eb b6bc
00000020: d451 d7bd 1475 c2bf f4c8 c13d
-0.62833685 -0.61197877 -1.1868296 1.499423 0.9646489 1.2760019 0.23911345 -0.022329241
-0.10513654 -1.519198 0.09462157

backbone.convs.193.weight f4 [1, 1, 7]
00000000: 2ee6 ae3f 9c54 d6bf 22f7 ad3f 4f9e 0c40
00000010: 46c9 adbf 622c 80bf 609f 63bf
1.3663995 -1.6744571 1.3591044 2.1971624 -1.3577049 -1.0013545 -0.8891506

backbone.convs.194.weight f4 [1, 1, 9]
00000000: 3750 0040 8db2 70be 4212 aebd 243f 42be
00000010: 763f 20bf baea c3bd 2daf 52be e6cb bfbe
00000020: 4fce 45be
2.004896 -0.23505612 -0.08499576 -0.18969399 -0.62596834 -0.09566255 -0.20574637 -0.3746025
-0.19316982

backbone.convs.195.weight f4 [1, 1, 9]
00000000: 871f 08bf 6143 d33f aed0 a1be e4fd ccbf
00000010: 8233 09bd 6c54 ff3d 0c8b a1be 9034 3c3e
00000020: f1dd 563f
-0.53173107 1.6504937 -0.31604522 -1.6014981 -0.033496387 0.12467274 -0.31551397 0.18379426
0.83932406

backbone.convs.196.weight f4 [1, 1, 11]
00000000: db58 bc3e e3aa 2dbf 38fe f7be b34f a23e
00000010: e6f8 ec3f e63e a7bf e969 41be a636 65be
00000020: 0024 083f e106 663e b737 d2be
0.3678654 -0.6783888 -0.4843614 0.3170143 1.8513458 -1.306607 -0.18888058 -0.22384128
0.5317993 0.22463562 -0.41058132

backbone.convs.197.weight f4 [1, 1, 7]
00000000: 6823 7c3f 183a 48bf 12d9 a9bf 998d 8bbf
00000010: 819a d93f e09f 3dbd 0089 0f3f
0.98491526 -0.78213644 -1.326937 -1.0902587 1.7000276 -0.046295047 0.5606842

backbone.convs.198.weight f4 [1, 1, 11]
00000000: 30e1 4a3e 5b17 983f 8a36 1240 ea0a fabe
00000010: 5aaa efbe 04de d1be 2340 d03f 9dd7 9bbf
00000020: 6eef 1ec0 04fe e03e da89 2bbf
0.19812465 1.1882128 2.2845788 -0.48836452 -0.46809655 -0.40989697 1.6269573 -1.2175175
-2.4833636 0.439438 -0.6700722

backbone.convs.199.weight f4 [1, 1, 7]
00000000: b6fb 0d3f 0336 00bf c3da abbf 2b32 48bf
00000010: ae84 043e 16c0 843f a880 673f
0.55462205 -0.50082415 -1.3426136 -0.7820155 0.12941238 1.037112 0.9043069

backbone.convs.200.weight f4 [1, 1, 11]
00000000: 25bb 82bf a621 093f 719c 8a3f 9c5a 603f
00000010: d674 cdbe f0b0 dd3c d8ad a8bf 0c3e 91be
00000020: 2c2a d83e 0f4e b53f 3b14 abbf
-1.0213362 0.5356697 1.0828992 0.8763826 -0.401282 0.02706191 -1.3178053 -0.2836765
0.42219675 1.4164447 -1.3365549

backbone.convs.201.weight f4 [1, 1, 11]
00000000: 8694 1ebf 2e50 07bd 14d8 403d eb97 893f
00000010: 4419 c9bf 24f0 283f 04cd 4b3d b7e6 f1bd
00000020: 4a19 ecbd c449 4c3f f8df 30be
-0.6194538 -0.03303545 0.04708107 1.0749487 -1.5710835 0.65991426 0.049756065 -0.118115835
-0.11528261 0.7980006 -0.17272937

backbone.convs.202.weight f4 [1, 1, 9]
00000000: ed3c 7dbf c3bd afbf 372c 26bf 5dd5 833f
00000010: e8ca 67bf 2adf 323f 4745 a73f 8ebf f7bf
00000020: 9046 3440
-0.9892109 -1.3729786 -0.64911216 1.0299488 -0.90543985 0.6987177 1.3068017 -1.9355333
2.8168068

backbone.convs.203.weight f4 [1, 1, 7]
00000000: afec ca3e 02a8 9cbe faa8 9a3f 72da e8be
00000010: 7638 14bf 6d1b ec3e 56dc 39bf
0.396337 -0.3059693 1.2082818 -0.4547916 -0.5789865 0.46114674 -0.7260183

backbone.convs.204.weight f4 [1, 1, 7]
00000000: da74 45bf 353d 80bf f80f 0a3f e9a8 dbbe
00000010: 9bd7 6a3f 7faa b23f d678 26bf
-0.77131426 -1.0018679 0.53930616 -0.42902306 0.9173524 1.3958281 -0.6502813

backbone.convs.205.weight f4 [1, 1, 7]
00000000: 4a8c 583e 0bb0 c13e 59c5 c03c 6d6d aa3e
00000010: abbf 11bf f719 52bf 5143 e33e
0.21147266 0.37829623 0.023531603 0.3328661 -0.5693309 -0.8207087 0.44387296

backbone.convs.206.weight f4 [1, 1, 7]
00000000: 22d3 c13e 1165 953f 961e 3dbe be25 763e
00000010: b3db 273f ddbe cdbf 7453 26bf
0.37856394 1.1671468 -0.18468699 0.24037835 0.6556961 -1.6073872 -0.6497109

backbone.convs.207.weight f4 [1, 1, 9]
00000000: 5e9e af3d 6c71 ea3f b653 02c0 224b 453e
00000010: cd24 353f d21f aebf 62e7 05bf 2a4e f53f
00000020: ad74 50bf
0.08575128 1.8315864 -2.0363593 0.19266942 0.7075928 -1.3603461 -0.5230619 1.9164479
-0.81428033

backbone.convs.208.weight f4 [1, 1, 9]
00000000: c0ee 39bd a132 41bf a44a 6abf a407 c5be
00000010: 2e1e a33f 901d ce3f def5 54bf abd7 a63e
00000020: db9a 8ebe
-0.045393705 -0.7546788 -0.9152014 -0.38482392 1.2743585 1.6102772 -0.83187664 0.32586417
-0.2785252

backbone.convs.209.weight f4 [1, 1, 9]
00000000: 20e2 44bf 6d89 153f e451 00be 3458 56bf
00000010: 98e8 413f 6a78 b63f 60af 96bf 4b44 a9bf
00000020: a469 bb3f
-0.7690754 0.5841282 -0.12531239 -0.8372834 0.75745535 1.4255497 -1.177227 -1.3223966
1.4641614

backbone.convs.210.weight f4 [1, 1, 11]
00000000: 6e2e 2540 cacf 2f3e baaa 093f 99c3 19c0
00000010: a2b3 a13e 714a b2be 69d0 00bf 846e 1cc0
00000020: 8811 893f d360 b23f acb1 bebe
2.5809588 0.17169109 0.53776133 -2.4025633 0.3158236 -0.3482242 -0.5031801 -2.4442453
1.0708475 1.3935798 -0.37244928

backbone.convs.211.weight f4 [1, 1, 7]
00000000: 8add 353e fe82 5b3f 14b9 20be 8c9b 87bf
00000010: 76b1 55bf d4e3 32bf 2480 db3f
0.17760292 0.85746753 -0.15695602 -1.0594344 -0.8347391 -0.6987889 1.714848

backbone.convs.212.weight f4 [1, 1, 11]
00000000: a3ff 56be ae17 a63f 7019 a23e 349f 3abf
00000010: 429d 893e 7e9c 88be 0a83 c83e 7078 cabf
00000020: 0dd0 763e ee26 9dbf eff5 bf3f
-0.20995955 1.2975976 0.31660032 -0.72899175 0.2687779 -0.26681894 0.39162475 -1.5818005
0.24102803 -1.2277505 1.4996928

backbone.convs.213.weight f4 [1, 1, 7]
00000000: 2868 973f 5141 103f fc81 683f 3658 863e
00000010: c2dc 96bf 48cb 70be af69 c0bf
1.1828661 0.56349665 0.9082334 0.26239175 -1.178612 -0.23515046 -1.5032252

backbone.convs.214.weight f4 [1, 1, 11]
00000000: a1ad 983f 1648 093e faf4 693e 01e0 4abf
00000010: cc32 a13e 13a5 4b3f a06c f5bf 6a75 03bf
00000020: 41d6 a3bf b0af 913f d412 333f
1.1927987 0.13406405 0.22847357 -0.7924805 0.31484067 0.7954876 -1.9173775 -0.51351035
-1.279976 1.138174 0.69950604

backbone.convs.215.weight f4 [1, 1, 11]
00000000: fc47 32bd 7e91 983f 41e0 5fbf f575 3d3f
00000010: 7c5b d4be 9f04 523f a31f 403f 3aba b5bf
00000020: 5b37 d5be 1b05 d6bd a9e7 6abe
-0.04352568 1.1919401 -0.8745156 0.74008113 -0.41476047 0.820383 0.75048274 -1.4197457
-0.41643795 -0.104501925 -0.22939934

backbone.convs.216.weight f4 [1, 1, 7]
00000000: 16fd cabf 7410 5c3f 1072 943c c778 81bd
00000010: 4014 55be 496b 803f 6488 c3bc
-1.5858486 0.85962605 0.018120795 -0.063218646 -0.20808506 1.0032741 -0.023868747

backbone.convs.217.weight f4 [1, 1, 7]
00000000: 2285 28bf 3a96 cdbe 5a7e ef3d fe79 373f
00000010: 8196 033f 13fa 6dbf 074a 243f
-0.65828145 -0.40153676 0.116940215 0.7167052 0.51401526 -0.9295971 0.64175457

backbone.convs.218.weight f4 [1, 1, 7]
00000000: ae70 64be 3c9d a83f 4483 b1be 7107 83be
00000010: 803e f53e b2b0 fd3e 45a8 bbbf
-0.22308609 1.3172984 -0.3467046 -0.25591615 0.47899246 0.4954887 -1.4660727

backbone.convs.219.weight f4 [1, 1, 7]
00000000: 0b14 e4be 3fa6 183f dca2 09bf d3a7 ecbe
00000010: bc31 843f d8cc 2bbf d687 f93e
-0.44546542 0.5962867 -0.5376413 -0.4622179 1.0327678 -0.6710944 0.48736447

backbone.convs.220.weight f4 [1, 1, 7]
00000000: 50f7 f83e f8b4 5b3d 88cc 5c3e 5c1c cfbd
00000010: 122e ad3e 3e64 20bf b072 bbbe
0.48626184 0.053639382 0.21562397 -0.10112831 0.3382421 -0.6265296 -0.36610937

backbone.convs.221.weight f4 [1, 1, 11]
00000000: f26d 42bf 3f7e dc3f d2fa 73bf c006 00c0
00000010: ee3d 95bf 4dc0 983f 2269 603f a167 d5bf
00000020: ebc7 9b3f 7f62 883f a127 f13e
-0.75949013 1.7226027 -0.95304596 -2.000412 -1.1659524 1.1933686 0.8766042 -1.667225
1.2170385 1.0655059 0.47100547

backbone.convs.222.weight f4 [1, 1, 7]
00000000: 3138 623f b4de bdbe d0c2 f0be 2267 acbe
00000010: 9b0b 493f dc6d 973e 6476 49bf
0.8836699 -0.37083972 -0.4702363 -0.33672434 0.78533334 0.29576004 -0.78696275

backbone.convs.223.weight f4 [1, 1, 9]
00000000: fa6c 21bf 106c 1e3f eef5 7ebf 40a3 343f
00000010: 0000 403a 1878 ba3f 092a fd3e f658 ea3d
00000020: 60d6 e1bf
-0.6305691 0.6188364 -0.9959401 0.705616 0.0007324219 1.45679 0.49446133 0.11442749
-1.7643547

backbone.convs.224.weight f4 [1, 1, 7]
00000000: 7585 303e 5332 87bf 4d08 1cbe b041 b43f
00000010: cc99 033e b05a 473c e341 03bf
0.1723841 -1.0562233 -0.15237541 1.4082546 0.12851638 0.012167618 -0.5127241

backbone.convs.225.weight f4 [1, 1, 11]
00000000: 2899 f2be 6824 96be 2b59 a23f 814b a3bf
00000010: 884a b63f e3aa 05c0 0e4a df3f b1ce 313f
00000020: b445 813f a9de c8bf f0ad e1be
-0.47382474 -0.2932465 1.2683462 -1.2757417 1.4241495 -2.088555 1.7444475 0.6945601
1.0099397 -1.569295 -0.44078016

backbone.convs.226.weight f4 [1, 1, 11]
00000000: 0a3f dc3f e05c 42bd af24 cabf 0ec9 0dbe
00000010: d6e5 113f 0553 0fbe 2dcb 86be df46 833e
00000020: 8495 333f 92f4 4cbe f443 61bf
1.7206738 -0.047451854 -1.5792445 -0.13846228 0.56991327 -0.13996513 -0.26326886 0.25640008
0.7015002 -0.20015171 -0.87994313

backbone.convs.227.weight f4 [1, 1, 7]
00000000: 80b4 c23d 04be 56bf 8372 0e3f 495f 66be
00000010: 30b0 453e 23aa 383f 6e89 00bf
0.09507084 -0.8388369 0.5564348 -0.22497286 0.19305491 0.7213461 -0.502097

backbone.convs.228.weight f4 [1, 1, 11]
00000000: d14e 413e f43f cb3f dbda 253e a856 fc3e
00000010: 809d c0be 688c a63f ab4d a2bf 1f22 e8bf
00000020: 3c09 b63e 435e 9dbe 3c6b a5be
0.18877722 1.5878892 0.16196768 0.49284863 -0.37620163 1.3011599 -1.2679952 -1.8135413
0.3555392 -0.30735978 -0.32308376

backbone.convs.229.weight f4 [1, 1, 11]
00000000: 7cf9 11c0 9382 a03f 38f6 e03d f021 ea3c
00000010: 0157 d73f 362e c53e 4f58 52bf 4245 b5be
00000020: c171 5bbf e309 4c3f 78ea 683d
-2.2808523 1.2539848 0.109844625 0.028580636 1.6823426 0.3851182 -0.82166 -0.35404402
-0.8572045 0.79702586 0.05686423

backbone.convs.230.weight f4 [1, 1, 9]
00000000: 78ad 623f a7e3 3f3e 41e1 77be cfcb 0e3e
00000010: 78e9 b8be a976 a13f 79da 87bf 3d1f 1b3e
00000020: 78ec 75bf
0.8854594 0.18739186 -0.24207021 0.13944934 -0.36115623 1.2614337 -1.0613548 0.15148635
-0.9606395

backbone.convs.231.weight f4 [1, 1, 7]
00000000: f8b1 cc3e 34a2 093e a47b 033f 369c d2bf
00000010: d06c 973e 12a3 ff3f a600 d9bf
0.3997953 0.13440782 0.51360536 -1.6453922 0.29575205 1.997164 -1.6953323
