examples/checkpoint.pt (torch, 707714 bytes, 1005 tensors)

backbone.convs.0.weight f4 [1, 1, 7]
0	0x3fd60487	1.6720132
1	0xc01c4af7	-2.4420755
2	0x3f7abde2	0.9794599
3	0x3f158d4c	0.58418727
4	0xbfbdf12e	-1.4839227
5	0x3f0c19ab	0.54726666
6	0x3e128156	0.1430715

backbone.convs.1.weight f4 [1, 1, 11]
0	0x3f5c967f	0.8616714
1	0xbf16ab78	-0.5885539
2	0xbd2dfdae	-0.042478256
3	0x3f36bc87	0.7138142
4	0x3f19aee6	0.600325
5	0xc01c37b7	-2.4409006
6	0x3f8ddf0f	1.1083697
7	0xbf6ae633	-0.91757506
8	0x3e9c1dee	0.30491585
9	0xbeceb75c	-0.40374267
10	0x3f4ddd11	0.80415446

backbone.convs.2.weight f4 [1, 1, 7]
0	0xbf81d68e	-1.0143602
1	0xbf0c2fe7	-0.54760593
2	0xbeef1455	-0.466952
3	0x3f8fe5b4	1.1241975
4	0x3f9ca89a	1.2238953
5	0xbe8fdd0e	-0.2809834
6	0xbd1c6e6c	-0.038191244

backbone.convs.3.weight f4 [1, 1, 9]
0	0xbf0d20c5	-0.5512813
1	0xbf88b136	-1.067908
2	0x3f051e98	0.5199981
3	0x3cc70430	0.024293989
4	0x3e211248	0.1572963
5	0xbf3d011e	-0.7382983
6	0x3f97955e	1.1842458
7	0x3f8ef1e4	1.1167569
8	0xbf252585	-0.64510375

backbone.convs.4.weight f4 [1, 1, 11]
0	0xbf2b57f8	-0.66931105
1	0x3eb7fc3c	0.35934627
2	0xbfa6c79c	-1.3029666
3	0x4016b56e	2.3548236
4	0x3f448db5	0.7677873
5	0xbd57a770	-0.052649915
6	0xbeff20ee	-0.4982981
7	0x3d0107e0	0.03150165
8	0xc015d9ba	-2.341414
9	0x3f930b20	1.148777
10	0x3e4f42ec	0.20240372

backbone.convs.5.weight f4 [1, 1, 9]
0	0xbfed648e	-1.8546312
1	0xbf1c0e4a	-0.60959303
2	0x3f8da91a	1.1067231
3	0xbeeae4a0	-0.45877552
4	0x3f727500	0.9470978
5	0x3f7d7ddc	0.9902017
6	0xbf99f245	-1.202706
7	0x40027964	2.038659
8	0xbf74fc64	-0.9569762

backbone.convs.6.weight f4 [1, 1, 7]
0	0x3ee0b624	0.43888962
1	0xbf1639b1	-0.5868178
2	0x401061c6	2.2559676
3	0xbf0018a8	-0.5003762
4	0x3f075087	0.5285725
5	0xbfac426b	-1.3457769
6	0xbf4a5b81	-0.79045874

backbone.convs.7.weight f4 [1, 1, 11]
0	0x3f36f03c	0.7146032
1	0xbf2e7bfc	-0.68157935
2	0x3f9e669b	1.2375063
3	0x40034b7a	2.0514817
4	0xc032feef	-2.79681
5	0x3e32edf6	0.17473587
6	0xbe6895e9	-0.22713436
7	0x3f8858b5	1.0652071
8	0xbed1c418	-0.4096992
9	0xbf575b09	-0.84123284
10	0xbe92fbf7	-0.2870786

backbone.convs.8.weight f4 [1, 1, 7]
0	0x3fffb93a	1.9978402
1	0x3e3b8822	0.1831365
2	0xbe94e5ea	-0.2908166
3	0xbe894591	-0.26810887
4	0xbf9abc48	-1.2088709
5	0xbedc5f32	-0.43041378
6	0x3c8d2d80	0.01723361

backbone.convs.9.weight f4 [1, 1, 7]
0	0x3f2a6893	0.6656582
1	0x3f357dc4	0.7089503
2	0xbe2cb92c	-0.16867512
3	0xbf722a54	-0.9459584
4	0x3fa48e6e	1.2855966
5	0xbf15e610	-0.5855417
6	0xbf75c480	-0.9600296

backbone.convs.10.weight f4 [1, 1, 9]
0	0xbfc62dd8	-1.548274
1	0x3fcb2e89	1.5873576
2	0xbeb2fabe	-0.34956926
3	0xbfbf1c15	-1.4930445
4	0xbe4e5b31	-0.20151974
5	0xbc621748	-0.013799496
6	0x3f191950	0.5980425
7	0x3ea54140	0.32276344
8	0x3f8c8cb1	1.0980436

backbone.convs.11.weight f4 [1, 1, 7]
0	0x3e96552e	0.29361862
1	0x3da74bac	0.0816873
2	0xbeb50270	-0.35353422
3	0xbdd2528c	-0.10269651
4	0xbeb0d6d4	-0.345389
5	0xbf367613	-0.71273917
6	0x3f91cc7e	1.1390531

backbone.convs.12.weight f4 [1, 1, 7]
0	0xbfb0e966	-1.3821228
1	0x401d1a3c	2.4547262
2	0x3d6525b0	0.055944145
3	0xbcd6c4c0	-0.026216865
4	0xbe443838	-0.19162071
5	0x3e3188f8	0.17337406
6	0xbf8ac346	-1.0840843

backbone.convs.13.weight f4 [1, 1, 9]
0	0xbc3a5460	-0.011372656
1	0xbec271d1	-0.3797746
2	0x3eb05ca5	0.34445682
3	0x3f09bfa8	0.5380807
4	0xbf7c4848	-0.9854779
5	0xbeed6243	-0.4636403
6	0x3e6b34fb	0.22969429
7	0x3f812644	1.0089803
8	0xbe8fd842	-0.2809468

backbone.convs.14.weight f4 [1, 1, 7]
0	0x3e84bac4	0.2592374
1	0x3fc11462	1.5084345
2	0x3f0225bc	0.5083883
3	0xbe82c7f6	-0.25543183
4	0x3e82b9bb	0.25532326
5	0xbfd6238a	-1.6729596
6	0xbf1a5db2	-0.6029922

backbone.convs.15.weight f4 [1, 1, 9]
0	0x3f99cf92	1.201647
1	0x3e3c5658	0.18392313
2	0x3e81832a	0.25295383
3	0xbf43e4e4	-0.76521134
4	0x3f555383	0.83330554
5	0x3f334823	0.70031947
6	0xbed1f0ec	-0.4100412
7	0xbf7a0e6e	-0.9767827
8	0xbf829314	-1.0201135

backbone.convs.16.weight f4 [1, 1, 9]
0	0xbf209e97	-0.6274199
1	0x3f006fa6	0.5017036
2	0xbc51be80	-0.012801766
3	0x3fa6a096	1.3017757
4	0xbe908829	-0.28228882
5	0x3dc798e8	0.097459614
6	0x3f96f4a3	1.1793407
7	0xbf1b12e4	-0.605757
8	0xbfc6a856	-1.5520122

backbone.convs.17.weight f4 [1, 1, 9]
0	0x3f66fd99	0.9023071
1	0x3f122915	0.57093936
2	0xbf40edd0	-0.75362873
3	0xbef8ad3d	-0.4856967
4	0xbeaea867	-0.34112856
5	0xbf18fea0	-0.59763527
6	0x3f1858b7	0.5951037
7	0x3ebfd614	0.37468016
8	0xbe87a65a	-0.26494104

backbone.convs.18.weight f4 [1, 1, 11]
0	0x3eb65c55	0.3561732
1	0x4031c987	2.7779253
2	0x3f3eb693	0.74497336
3	0xbf904b20	-1.1272926
4	0xbe6dbbec	-0.23216218
5	0xbf164b8b	-0.5870902
6	0x3e0842a2	0.13306668
7	0xbf98c31a	-1.193454
8	0x3f32bc0d	0.6981819
9	0x3ea14a8c	0.31502187
10	0xbff152ee	-1.8853433

backbone.convs.19.weight f4 [1, 1, 7]
0	0x3fd699f8	1.6765738
1	0xbf568235	-0.8379243
2	0x3f07ca94	0.53043485
3	0xbeb08419	-0.34475783
4	0xbf234d20	-0.6378956
5	0x3f088f51	0.53343683
6	0xbf6b7c75	-0.9198678

backbone.convs.20.weight f4 [1, 1, 11]
0	0x3f970a9c	1.1800113
1	0x3fc7d3be	1.5611494
2	0xbee879c2	-0.45405394
3	0x3ed45f6f	0.4147906
4	0x3fb93620	1.4469643
5	0xc00543b9	-2.0822585
6	0xb8b5a000	-8.660555e-05
7	0xbf101a97	-0.5629057
8	0xbe33cd40	-0.17558765
9	0xbfe6d388	-1.8033304
10	0x3ef35b63	0.4753066

backbone.convs.21.weight f4 [1, 1, 11]
0	0xbee3372a	-0.44378024
1	0x3f38e228	0.7222009
2	0x3f9ddf6b	1.2333807
3	0x3e1894b2	0.14900473
4	0xbf132762	-0.5748197
5	0xbf279556	-0.65462244
6	0xbf84c53f	-1.0372695
7	0xbf9aef1e	-1.2104223
8	0x3fd89978	1.6921835
9	0xbeb68bfa	-0.3565367
10	0x3ef61bd9	0.4806812

backbone.convs.22.weight f4 [1, 1, 9]
0	0xbfd61f78	-1.6728354
1	0x3ef80314	0.48439848
2	0xbf2d9042	-0.67798245
3	0x3eb0f496	0.34561604
4	0x3f186c8e	0.5954064
5	0x3ed1ad54	0.4095255
6	0xbf8901c1	-1.070366
7	0x3febafa5	1.8412977
8	0xbe829747	-0.2550604

backbone.convs.23.weight f4 [1, 1, 11]
0	0xbf8ac13b	-1.0840219
1	0xbf83266a	-1.0246098
2	0x3fdea500	1.7394104
3	0x3e24434e	0.160413
4	0x3e2d266d	0.1690919
5	0xbf3e47b4	-0.7432816
6	0x3cc01a82	0.02345014
7	0x3f619d07	0.8813023
8	0xbe0e7d9b	-0.13915102
9	0xbf3a8e3c	-0.7287328
10	0x3f3f0252	0.74612916

backbone.convs.24.weight f4 [1, 1, 11]
0	0xbfb3118d	-1.3989731
1	0x40120ed6	2.2821555
2	0xbf81a1b9	-1.0127479
3	0xbe09c316	-0.13453326
4	0xbfeaedfc	-1.8353877
5	0x3e87a448	0.26492524
6	0x3e905e10	0.28196764
7	0x3e82472a	0.2544492
8	0xbf071e90	-0.5278101
9	0x3fcfd8e5	1.6238066
10	0x3e4effce	0.20214769

backbone.convs.25.weight f4 [1, 1, 9]
0	0x3f43a5c4	0.76424813
1	0xbf0be4bf	-0.54645914
2	0x4020e029	2.5136817
3	0xbf114d7b	-0.5675885
4	0x3f817ae8	1.0115633
5	0xbf339709	-0.70152336
6	0xbf9ad840	-1.2097244
7	0xbe8e356a	-0.27775127
8	0xbf7c87bd	-0.9864462

backbone.convs.26.weight f4 [1, 1, 9]
0	0x3fff5cfe	1.9950254
1	0x3e971100	0.29505157
2	0x3e4a1f34	0.19738466
3	0xbd565c20	-0.05233395
4	0xbf024386	-0.5088428
5	0x3f80c4cd	1.0060059
6	0xbf827c9c	-1.0194278
7	0x3db31a50	0.08745253
8	0xc000052d	-2.000316

backbone.convs.27.weight f4 [1, 1, 7]
0	0x3f87fdac	1.062429
1	0xbe97a8b3	-0.29620895
2	0xbfe6908f	-1.8012866
3	0xbf2286b2	-0.6348678
4	0x3f3f567e	0.7474135
5	0x3f5f56ea	0.87241995
6	0x3d4d3688	0.050100833

backbone.convs.28.weight f4 [1, 1, 7]
0	0xbe889df7	-0.26683018
1	0xbf171aee	-0.59025466
2	0x3f1f9cde	0.62348735
3	0x3e4400f1	0.19140984
4	0xbbd9c740	-0.006646067
5	0xbda076e0	-0.078351736
6	0x3e023cf1	0.1271856

backbone.convs.29.weight f4 [1, 1, 11]
0	0x3ff11085	1.8833166
1	0xbf15ac26	-0.584658
2	0xbf18a356	-0.5962423
3	0xbde92ff0	-0.113860965
4	0x3fa94f60	1.3227348
5	0xbf3e93ee	-0.7444447
6	0x3f4e8f8e	0.806878
7	0xbe917e12	-0.28416497
8	0xbfc09aef	-1.5047282
9	0x3f2ff36d	0.68730813
10	0xbf5f447c	-0.87213874

backbone.convs.30.weight f4 [1, 1, 7]
0	0xbe8354a1	-0.25650504
1	0xbef0bad3	-0.47017536
2	0x3ebd3928	0.3695767
3	0x3faca92a	1.3489125
4	0x3fb8c081	1.4433748
5	0xbfd41b7e	-1.657089
6	0xbf473132	-0.7780944

backbone.convs.31.weight f4 [1, 1, 9]
0	0x3f11a4ae	0.56891906
1	0xbf803526	-1.001622
2	0x3ebefa1b	0.3730019
3	0xbeeb8b6b	-0.46004805
4	0x3fd718f1	1.6804487
5	0x3f37fa47	0.7186627
6	0xbfc4b318	-1.5367155
7	0x3f367136	0.71266496
8	0xbf871476	-1.0553119

backbone.convs.32.weight f4 [1, 1, 7]
0	0x3f69e546	0.9136547
1	0x402acc42	2.668717
2	0x3e9f56b5	0.3112084
3	0xbf87d01f	-1.0610389
4	0xbeb1a26f	-0.3469424
5	0x3cd3cca0	0.025854409
6	0xc020bba5	-2.511453

backbone.convs.33.weight f4 [1, 1, 9]
0	0xbea56301	-0.32302096
1	0x3e92af12	0.28649193
2	0x3ed8f6dd	0.42375842
3	0x3e839795	0.25701585
4	0x3f74752d	0.95491296
5	0x3c8df900	0.017330647
6	0xbf5f81c4	-0.8730738
7	0x3f84c7f6	1.0373523
8	0xbfe3f02d	-1.7807671

backbone.convs.34.weight f4 [1, 1, 11]
0	0xbf5a06c4	-0.85166574
1	0x3f06d7e2	0.5267316
2	0xbcf18c74	-0.029485919
3	0x3f8a8e38	1.0824652
4	0x3f250cfc	0.6447294
5	0xbf8da007	-1.1064461
6	0xbfb2a053	-1.3955177
7	0xbe031648	-0.12801468
8	0x3f514eea	0.8176104
9	0x3f3244d3	0.6963627
10	0xbe837738	-0.25676894

backbone.convs.35.weight f4 [1, 1, 7]
0	0x3fdd5bab	1.72936
1	0x3e8a94b6	0.27066582
2	0x3f621e02	0.8832704
3	0xbffa9a0d	-1.9578263
4	0xbfb1a467	-1.3878297
5	0xbd1316ad	-0.035910297
6	0x3eff1d42	0.4982701

backbone.convs.36.weight f4 [1, 1, 9]
0	0x3f8844f5	1.0646044
1	0xbec555d5	-0.38542047
2	0xbeb2410b	-0.3481525
3	0x3fab5e5d	1.3388172
4	0x3f483198	0.78200674
5	0xbb0914a0	-0.0020916834
6	0xbebde62a	-0.37089664
7	0xc01b32b2	-2.4249692
8	0x3eb13448	0.346102

backbone.convs.37.weight f4 [1, 1, 7]
0	0x3f035044	0.5129435
1	0x3f05cab9	0.52262455
2	0xbf1abc5b	-0.6044366
3	0x3e93b200	0.2884674
4	0xbfaa9673	-1.3327163
5	0x3f824f8e	1.0180528
6	0xbecf53b1	-0.4049354

backbone.convs.38.weight f4 [1, 1, 9]
0	0xbf637d21	-0.88862807
1	0xbf91d12b	-1.1391958
2	0x3fe2c045	1.7714926
3	0xbf77313d	-0.96559507
4	0xbf4007f7	-0.75012153
5	0x3e7c79d4	0.24655849
6	0xbf797473	-0.9744331
7	0x3fe5cfa9	1.7953998
8	0x3f678eca	0.90452254

backbone.convs.39.weight f4 [1, 1, 11]
0	0xbe202a2f	-0.15641092
1	0xbe32c26d	-0.1745698
2	0xbfe75f01	-1.8075868
3	0x3eb8df68	0.36107945
4	0x3e3f8043	0.18701272
5	0x3dd86076	0.105652735
6	0x401103eb	2.2658641
7	0xbf113248	-0.5671735
8	0xbf0dc33a	-0.5537602
9	0xbd44ba6c	-0.04802935
10	0x3ec69d9e	0.38792127

backbone.convs.40.weight f4 [1, 1, 9]
0	0xbefcf7b0	-0.4940772
1	0x3f0add1b	0.5424363
2	0x3f74890f	0.95521635
3	0xbf082a6a	-0.5318972
4	0xbfa28a4d	-1.2698456
5	0x3f2841f8	0.6572566
6	0xbfd333ba	-1.6500161
7	0xbeb57398	-0.35439754
8	0x40094cff	2.1453245

backbone.convs.41.weight f4 [1, 1, 11]
0	0x3ebf7b9e	0.37399
1	0xbfc501dd	-1.5391194
2	0xbe911da8	-0.28342938
3	0x3ff6cdf0	1.9281597
4	0xbf4272bc	-0.7595632
5	0x3df84248	0.12122017
6	0xbfc10a21	-1.5081216
7	0x3d0c87c8	0.03430918
8	0xbf31e586	-0.6949085
9	0x3fd6211e	1.6728857
10	0x3f279258	0.6545768

backbone.convs.42.weight f4 [1, 1, 7]
0	0xbe5df8cd	-0.21676941
1	0x3cbcf38c	0.023065351
2	0x3f01667b	0.50547
3	0x3f253992	0.6454097
4	0xbded6fce	-0.11593591
5	0xbed5ad90	-0.4173398
6	0xbed90964	-0.42389977

backbone.convs.43.weight f4 [1, 1, 9]
0	0x3ecf49b5	0.40485922
1	0xbf4cba42	-0.79971707
2	0x3f446314	0.7671368
3	0xbec00d7d	-0.3751029
4	0xbf395287	-0.7239155
5	0x3e488665	0.19582517
6	0xbf943316	-1.157809
7	0xbd4aee60	-0.04954374
8	0x3fde7f88	1.738267

backbone.convs.44.weight f4 [1, 1, 11]
0	0x3e4e6d1a	0.20158806
1	0xbe0bbcb3	-0.13646202
2	0x3f3d437a	0.73931086
3	0xbd8c5133	-0.06851425
4	0x3f13f806	0.5780033
5	0xbfa740f2	-1.3066695
6	0xbf01c036	-0.50683916
7	0xbf6aecfe	-0.9176787
8	0x3fc0d8dc	1.506618
9	0x3f243cd5	0.6415532
10	0xbf3b1ceb	-0.73091

backbone.convs.45.weight f4 [1, 1, 7]
0	0x3ee007e2	0.43756014
1	0xbec21940	-0.3790989
2	0x3ee2bd5e	0.442851
3	0x3f80cc08	1.0062265
4	0xbe79a908	-0.24380887
5	0xbfaccf62	-1.3500788
6	0x3db0d7d8	0.08634919

backbone.convs.46.weight f4 [1, 1, 11]
0	0xbfceffd2	-1.617182
1	0xbf5a544b	-0.8528487
2	0x3eeefb62	0.46676165
3	0x3ff7244c	1.9307952
4	0xbe6d6b48	-0.23185456
5	0x3dd2a996	0.10286252
6	0xbf4b4a75	-0.7941049
7	0xbea2e7de	-0.31817526
8	0x3fb04f08	1.3774118
9	0xbd1e2010	-0.038604796
10	0xbccd4d10	-0.02506116

backbone.convs.47.weight f4 [1, 1, 9]
0	0x3bdeab40	0.006795317
1	0xbec36763	-0.38164815
2	0xbdc7d9ca	-0.09758337
3	0xbe87fc9d	-0.26559916
4	0x3ea7dae6	0.32784194
5	0xbe80b400	-0.2513733
6	0x3f9bf75e	1.2184865
7	0xc00032ac	-2.0030928
8	0x3fb91c30	1.4461727

backbone.convs.48.weight f4 [1, 1, 7]
0	0x3fff326f	1.9937266
1	0x3fbcc5e1	1.4747888
2	0x3f1e58ff	0.6185455
3	0x3e41b83b	0.18917935
4	0xbf88f979	-1.0701133
5	0xc0011782	-2.0170598
6	0xbf98335b	-1.1890672

backbone.convs.49.weight f4 [1, 1, 9]
0	0xbf184f82	-0.5949632
1	0xbd8490ee	-0.06472956
2	0xbf171160	-0.5901089
3	0x3fe9b423	1.8258098
4	0x3e3b0140	0.18262196
5	0xbe9dc814	-0.3081671
6	0xbbb783c0	-0.0056004226
7	0x3f0af28a	0.54276335
8	0xbf7cd510	-0.9876261

backbone.convs.50.weight f4 [1, 1, 7]
0	0x3e5a6efc	0.213314
1	0xbe4500cc	-0.19238585
2	0xbf21c464	-0.63190293
3	0x3ea1926e	0.3155703
4	0x3f450322	0.76957905
5	0xbeb6a070	-0.3566928
6	0xbdf09a58	-0.11748189

backbone.convs.51.weight f4 [1, 1, 11]
0	0xbf916c0e	-1.1361101
1	0xbe9a6ca6	-0.30161017
2	0xbd4bef28	-0.049788624
3	0x3f0cbb9a	0.5497376
4	0xbf5d70d4	-0.8650029
5	0x3fbb8fda	1.4653275
6	0x3e09c750	0.13454938
7	0x3f753110	0.9577799
8	0x3e2bb6dc	0.16768974
9	0xbf9e6926	-1.2375839
10	0x3ea14926	0.3150112

backbone.convs.52.weight f4 [1, 1, 11]
0	0xbe821b84	-0.25411618
1	0x401e7cf2	2.476376
2	0xbf255ce6	-0.64594877
3	0x3fef71b9	1.870658
4	0xbfdaf534	-1.710608
5	0x3ef0af1b	0.47008595
6	0xc006a892	-2.1040387
7	0xbf9acb75	-1.209334
8	0x3ea6b55d	0.32560244
9	0xbe371907	-0.17880641
10	0x3f75cb0a	0.9601294

backbone.convs.53.weight f4 [1, 1, 7]
0	0x3f2d14be	0.67609775
1	0x3f1ce7c0	0.6129112
2	0x3fb4fe2e	1.414007
3	0xbdad7f70	-0.084715724
4	0x3d815278	0.06314558
5	0xbfc20440	-1.5157547
6	0xbf953560	-1.1656914

backbone.convs.54.weight f4 [1, 1, 9]
0	0x3ec9674e	0.39336628
1	0xbf84df30	-1.0380611
2	0x3fba4747	1.4553002
3	0xbf9a73dd	-1.2066609
4	0xbee17443	-0.44034013
5	0x3cb104a0	0.02160865
6	0x3f737984	0.95107293
7	0x3c4d0bb0	0.012514994
8	0xbe185f3a	-0.14880076

backbone.convs.55.weight f4 [1, 1, 9]
0	0xbe2b1500	-0.1670723
1	0xbe115734	-0.14193422
2	0x3fa34e20	1.2758217
3	0x3e0091ae	0.12555572
4	0xc029feee	-2.6561847
5	0x3f1e3c22	0.61810505
6	0xbfcc28d0	-1.5949955
7	0x3f755f48	0.9584851
8	0x3fca8629	1.5822192

backbone.convs.56.weight f4 [1, 1, 7]
0	0xbfb1d3be	-1.3892744
1	0xbc87475a	-0.016513515
2	0x3f04257b	0.5161969
3	0x3e1b3cd7	0.15159927
4	0x3ba4b7f0	0.00502681
5	0xbdc9a141	-0.0984521
6	0x3f54d7bf	0.831417

backbone.convs.57.weight f4 [1, 1, 11]
0	0x3eff11f5	0.49818388
1	0xbfc40048	-1.5312586
2	0x3f32ef39	0.69896275
3	0x3f6ffb49	0.93742806
4	0xbf6b9fda	-0.9204079
5	0x3ee7eb80	0.4529686
6	0xbf0a267a	-0.5396496
7	0xbf418c93	-0.75605124
8	0xbfc9e213	-1.5772117
9	0x400ea243	2.2286537
10	0x3f022553	0.508382

backbone.convs.58.weight f4 [1, 1, 7]
0	0x3f95849e	1.1681097
1	0x3fbb6e8a	1.4643109
2	0x3f228881	0.6348954
3	0xbf94ec18	-1.163455
4	0xbf679d5b	-0.9047448
5	0xbf203970	-0.6258764
6	0xbf12bfd6	-0.5732397

backbone.convs.59.weight f4 [1, 1, 9]
0	0x3eb42006	0.35180682
1	0xbfd3d4e8	-1.6549349
2	0x3f0c3044	0.5476115
3	0xbf620264	-0.882849
4	0x3f74cb70	0.9562292
5	0x3f3310c7	0.69947475
6	0x3fbc824b	1.4727262
7	0xbfd12b32	-1.6341307
8	0x3e13860d	0.14406605

backbone.convs.60.weight f4 [1, 1, 11]
0	0x3f0f778e	0.560418
1	0xbe3532fb	-0.17695229
2	0xbf1f59b0	-0.6224623
3	0x3f0b2a7e	0.5436171
4	0x3eacb4a7	0.33731577
5	0xbf7a704c	-0.978276
6	0xbf8b6859	-1.0891219
7	0x3f8466c3	1.034386
8	0xbe32c6ea	-0.17458692
9	0x3edce5a7	0.4314396
10	0x3e0971be	0.13422295

backbone.convs.61.weight f4 [1, 1, 11]
0	0xbf221756	-0.6331686
1	0xbfd8741e	-1.6910436
2	0xbf4f9aac	-0.81095386
3	0xbe8c7116	-0.27430028
4	0x3f1fd1f7	0.62429756
5	0x3fde1fe8	1.7353487
6	0x3eabf4d6	0.33585232
7	0x3ebd1dd5	0.36936823
8	0x3e0767fa	0.13223258
9	0x3fedfa1f	1.8591956
10	0xbfd2cb49	-1.6468288

backbone.convs.62.weight f4 [1, 1, 7]
0	0xbfc6a6ae	-1.5519617
1	0x3f319307	0.6936497
2	0x3eff51f8	0.49867225
3	0xbd9848c0	-0.07435751
4	0x3d5a92c0	0.053362608
5	0x3fe49ff2	1.7861311
6	0xbfb3e750	-1.4054966

backbone.convs.63.weight f4 [1, 1, 9]
0	0xbedf1b78	-0.43575644
1	0x405397b0	3.3061333
2	0xbfbc3ec6	-1.4706657
3	0x3f49e558	0.78865576
4	0xbf23f281	-0.64041907
5	0xbf2d7016	-0.67749155
6	0xbe1e66fa	-0.1546897
7	0xbe8f179b	-0.27947697
8	0xbedf615d	-0.4362897

backbone.convs.64.weight f4 [1, 1, 7]
0	0x3d9da0df	0.07696699
1	0xbf9bdd38	-1.2176886
2	0xbefd473b	-0.49468407
3	0x3f60494b	0.87611836
4	0x3e821a81	0.25410846
5	0xbed59478	-0.41714835
6	0x3f6c1da2	0.92232716

backbone.convs.65.weight f4 [1, 1, 9]
0	0x3f9b500c	1.2133803
1	0xbd6a1178	-0.057145566
2	0x3f5c426d	0.8603886
3	0xbf1ffaa6	-0.62491834
4	0x3ea65640	0.3248768
5	0xbd23f828	-0.040031582
6	0xbfec812e	-1.8476923
7	0x3e90b7cd	0.2826523
8	0xbde45fa2	-0.11151053

backbone.convs.66.weight f4 [1, 1, 9]
0	0x3c95fb80	0.018308401
1	0xbe93dbbc	-0.28878582
2	0xbf0685bc	-0.5254781
3	0x3fa2755c	1.2692065
4	0xbe1b4450	-0.15162778
5	0x3f2cc31d	0.6748522
6	0xbfa19fc1	-1.2626878
7	0x3f16807d	0.5878981
8	0xbea4b3f2	-0.32168537

backbone.convs.67.weight f4 [1, 1, 11]
0	0x3f35f2ea	0.7107378
1	0x3f8b7e7a	1.0897973
2	0xbf3a029f	-0.7266025
3	0xbc09235c	-0.008370247
4	0xbfe5c473	-1.7950577
5	0x3f3dcc86	0.74140203
6	0xbe91bf74	-0.2846638
7	0x3fa11b0c	1.2586379
8	0xbd654b92	-0.055980273
9	0xbf9223fb	-1.141723
10	0x3e58e800	0.21182251

backbone.convs.68.weight f4 [1, 1, 9]
0	0xbd612cc6	-0.05497434
1	0xbfccaa3d	-1.5989453
2	0xbdefc3d8	-0.11707276
3	0x3e007d16	0.12547716
4	0xbf283711	-0.65709025
5	0xbf8446fa	-1.033416
6	0x3f45fa7a	0.7733532
7	0x3fc273f5	1.5191637
8	0x3f85918e	1.0435045

backbone.convs.69.weight f4 [1, 1, 9]
0	0x3f0d8424	0.55279756
1	0xbe123b2e	-0.14280388
2	0x402913c5	2.6418316
3	0x402ef0a6	2.733438
4	0xbf825602	-1.0182498
5	0xbf57076e	-0.8399571
6	0xbfc28290	-1.5196095
7	0xbfdacab5	-1.7093111
8	0xbf32b90b	-0.69813603

backbone.convs.70.weight f4 [1, 1, 9]
0	0x3fa51a1b	1.2898592
1	0xbf2e0bf2	-0.6798698
2	0x3fa8d915	1.3191248
3	0xbed5a1b7	-0.4172494
4	0x3ee6fa65	0.4511291
5	0xbf1362c0	-0.57572556
6	0xbe96589e	-0.29364485
7	0xc0013900	-2.019104
8	0x3f6cec4a	0.9254805

backbone.convs.71.weight f4 [1, 1, 7]
0	0x3ea09be2	0.3136893
1	0xbefbadd0	-0.49156046
2	0x3f8c882a	1.0979054
3	0x3b622500	0.0034506917
4	0xbc7d7000	-0.015468597
5	0xbf3b3a64	-0.7313597
6	0xbe34e574	-0.17665654

backbone.convs.72.weight f4 [1, 1, 9]
0	0xbeec4ac6	-0.46150798
1	0xbf326cfc	-0.69697547
2	0xbf69594e	-0.91151893
3	0x3eadcae9	0.3394387
4	0x3fb1e322	1.389744
5	0x3ec109b7	0.37702724
6	0xbf47aa50	-0.7799425
7	0xbeb4f2df	-0.35341546
8	0x3f8c6f6e	1.0971506

backbone.convs.73.weight f4 [1, 1, 9]
0	0x3f0f7739	0.56041294
1	0x3fe1d2dc	1.7642474
2	0xbfb59925	-1.4187361
3	0xbe025274	-0.12726766
4	0x3e0f5b4e	0.13999674
5	0xbdff8937	-0.124773435
6	0xbf12ed69	-0.5739351
7	0x3eb0a2b1	0.34499124
8	0xbf109fa7	-0.5649361

backbone.convs.74.weight f4 [1, 1, 7]
0	0x3e84150a	0.25797302
1	0x400ee3c1	2.232651
2	0xbfb6adfa	-1.4271843
3	0xc031934b	-2.774615
4	0x3f487ccb	0.7831542
5	0xbfb0d1aa	-1.3813984
6	0x4013cd8a	2.30942

backbone.convs.75.weight f4 [1, 1, 7]
0	0xbffa055a	-1.9532883
1	0x3d210a78	0.039316624
2	0x3ec87a56	0.39155835
3	0xbd912e36	-0.07088892
4	0xbe623bde	-0.2209315
5	0xbe8df7fc	-0.2772826
6	0x4005db68	2.0915165

backbone.convs.76.weight f4 [1, 1, 11]
0	0x3f802e30	1.0014095
1	0xbf5e3357	-0.8679709
2	0x3ef18e16	0.47178715
3	0xbf86fc5e	-1.0545766
4	0xbfd85086	-1.6899574
5	0x3fe746c2	1.8068469
6	0xbeb535ae	-0.35392517
7	0x3ea6fe4e	0.32615894
8	0x3f91d730	1.1393795
9	0x3f1d0bf9	0.61346394
10	0xbfb24142	-1.3926165

backbone.convs.77.weight f4 [1, 1, 7]
0	0x3ebc8227	0.36818048
1	0xbf2bbec8	-0.67087984
2	0xbeec4bf8	-0.4615171
3	0x3fb100af	1.3828334
4	0x3e84af0d	0.25914803
5	0xbfc200f5	-1.5156542
6	0x3f234cb6	0.63788927

backbone.convs.78.weight f4 [1, 1, 9]
0	0xbe8f333d	-0.2796878
1	0x3fbd8c0c	1.4808364
2	0x3d0e81d8	0.034791797
3	0xbf83b2aa	-1.0288899
4	0xbf74fd1c	-0.95698714
5	0x3f5538b4	0.8328965
6	0xbe073807	-0.13204966
7	0x3ee2a229	0.44264343
8	0xbec97fde	-0.39355367

backbone.convs.79.weight f4 [1, 1, 7]
0	0xbd6c6bb0	-0.057719886
1	0x3f1098ea	0.5648333
2	0xbf4050dc	-0.7512338
3	0xbf89d956	-1.0769451
4	0x3f59ae78	0.85031843
5	0x3e720816	0.23635897
6	0x3e700372	0.23438814

backbone.convs.80.weight f4 [1, 1, 7]
0	0xbf500a70	-0.81265926
1	0x3ed38608	0.41313195
2	0x3e050570	0.12990355
3	0x3ef9282a	0.48663455
4	0xbf0f520a	-0.55984557
5	0x3fa870e5	1.3159453
6	0xbf791dc3	-0.9731104

backbone.convs.81.weight f4 [1, 1, 11]
0	0xbe305982	-0.17221645
1	0x3efc0d37	0.49228832
2	0x3f6aca41	0.91714865
3	0xbf16f8cb	-0.5897338
4	0xbee60d28	-0.44931912
5	0xbf0cd589	-0.5501333
6	0x3f040279	0.5156627
7	0x3ee096c1	0.43865016
8	0xbf4d0749	-0.8008924
9	0x3fbc2cbe	1.4701154
10	0xbfa2c2d1	-1.2715703

backbone.convs.82.weight f4 [1, 1, 9]
0	0xbf1f20e5	-0.6215957
1	0x3f7e9443	0.9944498
2	0x3f00ad4a	0.5026442
3	0xbea58ca9	-0.32333878
4	0x3f47b5ee	0.7801198
5	0x3f125354	0.571584
6	0xbfca61d4	-1.5811105
7	0xbf9fef9f	-1.2495002
8	0x3f6d3f52	0.92674744

backbone.convs.83.weight f4 [1, 1, 9]
0	0xbf358ce6	-0.7091812
1	0x4000317e	2.0030208
2	0xbf2b3760	-0.6688137
3	0x3e0de1a8	0.13855612
4	0xbf1ff6d0	-0.6248598
5	0x3ec4d1b8	0.38441253
6	0xbecd1180	-0.40052414
7	0x3f3e8d5b	0.7443444
8	0xbf5df0c2	-0.8669549

backbone.convs.84.weight f4 [1, 1, 9]
0	0xbfa9af66	-1.3256652
1	0xbf969484	-1.1764073
2	0x3de63468	0.112404644
3	0xbdeb46c4	-0.11488107
4	0xbf8acaae	-1.0843103
5	0x3f84d428	1.0377245
6	0x3f324103	0.6963045
7	0x3f759267	0.9592652
8	0x3f6543c1	0.8955651

backbone.convs.85.weight f4 [1, 1, 9]
0	0xbf85740b	-1.0426039
1	0x3e9adcf2	0.30246693
2	0xbe363dac	-0.17796963
3	0x3fa37b83	1.2772068
4	0x3e18cc1c	0.14921612
5	0xbf2deadd	-0.679365
6	0xbfe38e8e	-1.7777879
7	0x3ff640d6	1.9238536
8	0x3ccca890	0.02498272

backbone.convs.86.weight f4 [1, 1, 9]
0	0xbf91e031	-1.1396543
1	0xbea3241a	-0.3186348
2	0x3ea98813	0.3311163
3	0xbf6a32be	-0.91483676
4	0x3f122ee7	0.5710282
5	0x3faf3c81	1.3690339
6	0x3ebfa87e	0.37433237
7	0xbf4a7eae	-0.7909955
8	0x3f04c3aa	0.5186106

backbone.convs.87.weight f4 [1, 1, 11]
0	0xbf58a175	-0.84621364
1	0xbf0b9376	-0.5452188
2	0x3edaf83e	0.4276752
3	0xbdc47a1a	-0.095936015
4	0x3f2e6fa2	0.6813909
5	0xbfaa73f3	-1.3316635
6	0x3fb90e43	1.4457477
7	0xbdbc9192	-0.09207453
8	0xbf72895d	-0.9474085
9	0x3d68d370	0.056842268
10	0x3f9f9913	1.246859

backbone.convs.88.weight f4 [1, 1, 7]
0	0xbf94fc5d	-1.1639515
1	0x3fa79cc6	1.3094718
2	0x3cfe9d40	0.031080842
3	0x3fb91766	1.4460266
4	0xbf82b3aa	-1.0211079
5	0x3ea16c35	0.31527868
6	0xbf6ab350	-0.9167986

backbone.convs.89.weight f4 [1, 1, 9]
0	0x3edda2af	0.4328818
1	0xbebedb54	-0.3727671
2	0x3e8c00eb	0.2734445
3	0xbf8591bf	-1.0435103
4	0x3f96b297	1.1773251
5	0xbda53f73	-0.080687426
6	0x3ea8f7a8	0.33001447
7	0xbf5f2cbe	-0.87177646
8	0x3e1ecc14	0.15507537

backbone.convs.90.weight f4 [1, 1, 9]
0	0x3fdf38a6	1.7439163
1	0xbf1e9d02	-0.61958325
2	0xbea3b439	-0.31973436
3	0xbfcaf129	-1.5854846
4	0x3f47c306	0.7803196
5	0xbf9e6410	-1.2374287
6	0xbf0c28a2	-0.547495
7	0x3f75ecb2	0.96064293
8	0x3f532936	0.8248476

backbone.convs.91.weight f4 [1, 1, 9]
0	0x3ec7cb01	0.39022067
1	0x3f2cfdb7	0.6757464
2	0xbfd0e4f4	-1.6319871
3	0xbf181a2f	-0.59414953
4	0xbcc9cf90	-0.024635106
5	0xbf8873b2	-1.0660307
6	0xbedcb3d8	-0.4310596
7	0x3fea4e2e	1.8305109
8	0x3f59f452	0.8513843

backbone.convs.92.weight f4 [1, 1, 7]
0	0xbfa6361e	-1.2985265
1	0xbe3c1058	-0.1836561
2	0x3ef9ed1e	0.4881372
3	0xbe4a0fdc	-0.19732612
4	0x3f0a36e4	0.53990006
5	0x3feea4ab	1.8644003
6	0xbf9b413d	-1.2129284

backbone.convs.93.weight f4 [1, 1, 7]
0	0xbef5094d	-0.47858658
1	0x3e1219cc	0.14267653
2	0xbf00db15	-0.5033429
3	0x3eff52dd	0.49867907
4	0x3f6aae30	0.9167204
5	0x3ef1f0b5	0.47253957
6	0xbf863b58	-1.048686

backbone.convs.94.weight f4 [1, 1, 7]
0	0x3fd6f2f0	1.6792889
1	0x3e0cbcc1	0.13743879
2	0xbf82867f	-1.0197295
3	0xbf8b5919	-1.0886565
4	0x3eba04c8	0.36331773
5	0x3e37bc53	0.17942934
6	0xbe808eb8	-0.25108886

backbone.convs.95.weight f4 [1, 1, 11]
0	0x3e680d77	0.22661386
1	0xbf8d2312	-1.1026328
2	0xbf6b9327	-0.9202141
3	0x3f34acb9	0.70576054
4	0xbd783430	-0.060596645
5	0xbfaaaebe	-1.3334577
6	0xbf13679a	-0.5757996
7	0x3f4bda35	0.7962983
8	0x3fd8ecf8	1.6947317
9	0x3d0555b4	0.032552436
10	0x3f09680a	0.53674376

backbone.convs.96.weight f4 [1, 1, 9]
0	0x3f3467df	0.70470995
1	0xbeb555ba	-0.35416967
2	0x3f12cfb6	0.5734819
3	0xbe8a31ca	-0.2699111
4	0x3f04dbec	0.51898074
5	0x3e7f4c34	0.24931413
6	0xbf5fb0b6	-0.87379014
7	0x3f2323a8	0.6372628
8	0xbf97cadd	-1.1858784

backbone.convs.97.weight f4 [1, 1, 9]
0	0x3ec2b971	0.38032106
1	0xbe814a21	-0.25251868
2	0x3e3cb1b9	0.18427171
3	0xbf94efe4	-1.1635709
4	0x3f5d7f72	0.8652259
5	0x3f0fe950	0.5621538
6	0x3f1be4ae	0.6089581
7	0xbf28845e	-0.65826976
8	0xbf06cd62	-0.5265714

backbone.convs.98.weight f4 [1, 1, 9]
0	0x3f487514	0.7830365
1	0xbf52a161	-0.82277495
2	0x3f1b6828	0.60705805
3	0x3fdbb82e	1.7165582
4	0x3f5fa0ea	0.8735491
5	0x3d8c11b4	0.06839314
6	0xbfb51aba	-1.4148781
7	0xbfacb89a	-1.3493836
8	0xbeec515e	-0.46155828

backbone.convs.99.weight f4 [1, 1, 7]
0	0x3cb35400	0.02189064
1	0xbf9e30be	-1.2358625
2	0xbf164dfa	-0.5871273
3	0x3dbb9480	0.091591835
4	0x3f823cfa	1.0174859
5	0x3f8e31d4	1.1108956
6	0xbed676ae	-0.4188742

backbone.convs.100.weight f4 [1, 1, 11]
0	0xbe01158d	-0.12605877
1	0x3f35e6f6	0.71055543
2	0xbfdc50d3	-1.7212166
3	0x3f14d32e	0.58134735
4	0x3f2113a1	0.62920576
5	0x3e68bdd6	0.22728667
6	0xbe2b5b52	-0.16734055
7	0x3f734761	0.9503079
8	0xbf021725	-0.50816566
9	0x3edf9ee6	0.43675917
10	0xbf819f85	-1.0126806

backbone.convs.101.weight f4 [1, 1, 11]
0	0x3e0e6cfb	0.1390876
1	0xbd832bd8	-0.06404847
2	0xbffe0e5d	-1.9848133
3	0xbf8a731b	-1.0816377
4	0x3fc4d122	1.5376322
5	0xbf423703	-0.7586519
6	0xbe43e9a5	-0.19132097
7	0x3f9f6f1b	1.2455782
8	0xbf51db9f	-0.8197574
9	0x3f4b943e	0.79523075
10	0x3f9762bf	1.182701

backbone.convs.102.weight f4 [1, 1, 11]
0	0xbfde71c0	-1.7378464
1	0x3faeb52c	1.3649039
2	0x3fa6d504	1.3033757
3	0xbf75c091	-0.9599696
4	0x3f010b66	0.5040802
5	0xbf8f5e0f	-1.120058
6	0xbfb7b39c	-1.4351687
7	0x403beb08	2.9362202
8	0xbf009775	-0.50231105
9	0xc003baa8	-2.0582676
10	0x3fda3ecc	1.7050414

backbone.convs.103.weight f4 [1, 1, 11]
0	0xbfa0695c	-1.2532153
1	0x3ddaa8c8	0.10676724
2	0x3e28d465	0.16487272
3	0xbf56e301	-0.8394013
4	0xc008be5e	-2.136619
5	0x4018325b	2.3780735
6	0x3f23b52a	0.6394831
7	0x3fad58cc	1.3542724
8	0xbf4e5f91	-0.8061457
9	0xbfbd20ba	-1.4775612
10	0x3fef4ae6	1.8694732

backbone.convs.104.weight f4 [1, 1, 7]
0	0x3f7d1372	0.98857796
1	0x3fa86d1b	1.3158296
2	0x401760ce	2.3652835
3	0xbf0cba2f	-0.54971594
4	0xbf7aa8cf	-0.9791383
5	0xbf7b99a5	-0.9828132
6	0xc00a1d0e	-2.1580234

backbone.convs.105.weight f4 [1, 1, 11]
0	0x3f8788ef	1.0588664
1	0xbf6fb12a	-0.93629706
2	0xbf5b0464	-0.85553575
3	0x3fd2f6dd	1.6481587
4	0xbf46395d	-0.7743128
5	0x3f4f07f4	0.8087151
6	0xbf935d94	-1.1512933
7	0x3ebc9bf7	0.36837742
8	0x3e65bbd6	0.22434935
9	0xbefb6d08	-0.49106622
10	0x3dcce094	0.100037724

backbone.convs.106.weight f4 [1, 1, 9]
0	0xbf763e6e	-0.9618901
1	0x3f9a2c85	1.2044836
2	0x3ed3a8d0	0.4133973
3	0x3e9a5782	0.30144888
4	0x3f3b5e0a	0.7319037
5	0xbf380de5	-0.718962
6	0x3f796a62	0.9742795
7	0xbd51a590	-0.051183283
8	0xbff25d7d	-1.893478

backbone.convs.107.weight f4 [1, 1, 11]
0	0xbeb5b154	-0.35486853
1	0x3e088ace	0.133342
2	0x3f89033a	1.070411
3	0xbf18e506	-0.5972446
4	0x3f615a58	0.8802848
5	0xbdcdb854	-0.100449234
6	0xbf1d1e5e	-0.6137446
7	0x3da513f9	0.0806045
8	0x3fa4cda2	1.2875254
9	0xbf553d8f	-0.83297056
10	0xbf73f09b	-0.9528901

backbone.convs.108.weight f4 [1, 1, 11]
0	0x3df254c2	0.118325725
1	0xbf45952c	-0.77180743
2	0x3f166afd	0.58757
3	0xbe9514f5	-0.2911755
4	0xbf814acc	-1.0100951
5	0x3d6c1bf8	0.05764386
6	0x3f5f4489	0.8721395
7	0x3f51a2b4	0.8188889
8	0xbf14d6b2	-0.581401
9	0xbf3df919	-0.7420822
10	0x3f71267b	0.9419934

backbone.convs.109.weight f4 [1, 1, 9]
0	0xbee27b06	-0.44234484
1	0x3f4bdbd3	0.796323
2	0xbfb04167	-1.3769959
3	0xbcf2ce70	-0.029639453
4	0xbe9994ca	-0.2999633
5	0x3e3097ec	0.17245454
6	0x3f7f91ec	0.99832034
7	0x3f1e7a72	0.61905587
8	0xbedfda02	-0.43721014

backbone.convs.110.weight f4 [1, 1, 11]
0	0xbfa6aa4e	-1.3020723
1	0xbf049c22	-0.5180074
2	0xbf7dc54f	-0.99129194
3	0x3f8f664b	1.1203092
4	0x3f47f5c1	0.78109366
5	0xbf5ecfd6	-0.8703588
6	0x3f0a0ccb	0.5392577
7	0xbf5201ee	-0.82034194
8	0x400a174d	2.1576722
9	0x3f092fb8	0.5358844
10	0xbf21d442	-0.63214505

backbone.convs.111.weight f4 [1, 1, 9]
0	0xbe9d5855	-0.30731454
1	0xbf918e1a	-1.1371491
2	0xbf261b54	-0.6488545
3	0x3fb5c538	1.4200811
4	0xbf639ac8	-0.8890805
5	0xbf96dbc7	-1.1785821
6	0x3f5a8600	0.8536072
7	0x3f83584e	1.0261323
8	0x3f5c74fa	0.8611599

backbone.convs.112.weight f4 [1, 1, 9]
0	0xbfbf8fbf	-1.4965743
1	0x3d8394db	0.06424876
2	0xbd782f42	-0.060591944
3	0x3f6b9b01	0.9203339
4	0x3f750ac9	0.9571958
5	0x3f322b19	0.6959701
6	0xbfb43620	-1.4079018
7	0xbe623cd4	-0.22093517
8	0x3f0c5a66	0.5482544

backbone.convs.113.weight f4 [1, 1, 11]
0	0x3f5d34fd	0.8640898
1	0xbf866336	-1.0499027
2	0x3edc2aa0	0.4300127
3	0xbf76ac3d	-0.96356565
4	0x3d270178	0.040772885
5	0x3eb57028	0.3543713
6	0x3f5f5b07	0.8724827
7	0xbf569298	-0.83817434
8	0xbefa78a8	-0.48920178
9	0xbf2c0acf	-0.6720399
10	0x3fb9bf74	1.4511552

backbone.convs.114.weight f4 [1, 1, 9]
0	0x3e98afb8	0.29821563
1	0xbf5268ca	-0.82191145
2	0xbf8a15b6	-1.0787876
3	0x3f2aa72d	0.6666134
4	0xbeca5aea	-0.39522487
5	0x3e697a4a	0.22800556
6	0x3f508a33	0.81460875
7	0xbe7cd974	-0.24692327
8	0x3f09103a	0.53540385

backbone.convs.115.weight f4 [1, 1, 9]
0	0xbf678273	-0.90433425
1	0x3f052d44	0.52022195
2	0x3f3bb061	0.7331601
3	0xc01709c0	-2.35997
4	0xc00fad1d	-2.244941
5	0xbf0cfb46	-0.5507091
6	0x3f281cb7	0.65668815
7	0x3f935bec	1.1512427
8	0x403fe9bf	2.9986417

backbone.convs.116.weight f4 [1, 1, 9]
0	0xbe1fa6bc	-0.15590948
1	0xbf00fdb4	-0.5038712
2	0x3f7287bd	0.9473837
3	0xbf90c0c7	-1.1308831
4	0x4030b898	2.7612667
5	0xc02eb46f	-2.7297628
6	0x3f74d5f1	0.9563895
7	0xbf54ba35	-0.8309663
8	0x3f2fb4d7	0.68635315

backbone.convs.117.weight f4 [1, 1, 9]
0	0x3f84b01c	1.0366244
1	0xbec39134	-0.3819672
2	0x3f01afc0	0.506588
3	0x3f262bc2	0.6491052
4	0xbf2d4cc5	-0.67695266
5	0xc01062a5	-2.2560208
6	0xbe5456f4	-0.20736295
7	0x3fbcc256	1.4746807
8	0xbe142abc	-0.14469427

backbone.convs.118.weight f4 [1, 1, 11]
0	0xbede02bc	-0.4336146
1	0xbeb8114a	-0.3595069
2	0x3f1dfb6e	0.61711776
3	0xbdb90f24	-0.09036091
4	0xbfde570e	-1.7370317
5	0x3f74b810	0.9559336
6	0x3e0e86d8	0.13918626
7	0x3f0953b6	0.5364336
8	0x3ef4840c	0.47756994
9	0x3d565e40	0.052335978
10	0xbe21db2e	-0.15806267

backbone.convs.119.weight f4 [1, 1, 11]
0	0xbf8fb817	-1.1228055
1	0xbf1a8d2f	-0.6037168
2	0x3e9c5404	0.3053285
3	0x3ebfc2b1	0.37453225
4	0x3f318931	0.6934996
5	0x3fa29d24	1.2704206
6	0x3f2270ee	0.6345357
7	0xbf140cd1	-0.57832056
8	0x3e09ee54	0.13469821
9	0xbd504e22	-0.050855763
10	0xbf875625	-1.0573164

backbone.convs.120.weight f4 [1, 1, 7]
0	0x3f93cb0a	1.1546338
1	0x3e464c2e	0.19364998
2	0x3f139011	0.576417
3	0xbf9676dc	-1.1755023
4	0xbf822227	-1.0166672
5	0xbfb1a4ea	-1.3878453
6	0x3fd3e154	1.655314

backbone.convs.121.weight f4 [1, 1, 11]
0	0xbf3ad300	-0.7297821
1	0x3ec9cfd4	0.39416373
2	0xc0050729	-2.078562
3	0x3ea6028c	0.32423818
4	0x400095c8	2.009142
5	0x3e8cbdf1	0.27488664
6	0xbe60dd7a	-0.21959487
7	0xbf80ef1e	-1.0072973
8	0x3ecc06e2	0.39849
9	0xbdfef326	-0.12448721
10	0x3f4240eb	0.75880307

backbone.convs.122.weight f4 [1, 1, 11]
0	0x3f183b2f	0.59465307
1	0xbfc8cf9d	-1.5688359
2	0xbe0e86fc	-0.1391868
3	0xbf06ad83	-0.5260851
4	0xbe62e038	-0.22155845
5	0x3f4c01b6	0.7969011
6	0xbfa25bab	-1.2684225
7	0x4038b4b1	2.8860285
8	0xbf669b8f	-0.90081114
9	0x3e8c6f5d	0.27428713
10	0x3d9590c3	0.07303002

backbone.convs.123.weight f4 [1, 1, 7]
0	0xbf468d7c	-0.7755964
1	0x3f6ea228	0.9321618
2	0xbeae96a6	-0.3409931
3	0xbfa9d288	-1.3267374
4	0x3f6783c8	0.9043546
5	0x3e71fc3e	0.23631379
6	0x3ebdb1bf	0.37049672

backbone.convs.124.weight f4 [1, 1, 7]
0	0x3f756494	0.95856595
1	0xbf888341	-1.0665056
2	0x3f5fc976	0.8741678
3	0x3e09d086	0.13458452
4	0xbf853fd6	-1.0410106
5	0xbf35a1ec	-0.709502
6	0x3f5985ec	0.84969974

backbone.convs.125.weight f4 [1, 1, 7]
0	0x3f905624	1.1276288
1	0xbef042f4	-0.4692608
2	0x3f3d5b88	0.7396779
3	0xbfedf310	-1.8589802
4	0x3f28fbf6	0.6600946
5	0x3f583c92	0.8446742
6	0xbf859c60	-1.0438347

backbone.convs.126.weight f4 [1, 1, 9]
0	0xbf0942d2	-0.53617585
1	0xbf91ccfb	-1.139068
2	0x3e2ac2c2	0.16675857
3	0xbea3dd0b	-0.3200458
4	0x3e4be63e	0.19912049
5	0x3e5ed0bb	0.21759312
6	0x3e668c24	0.22514397
7	0x3ea86043	0.32885942
8	0x3f5b99b0	0.85781384

backbone.convs.127.weight f4 [1, 1, 7]
0	0x3dd9130c	0.10599336
1	0xbe5e5cbd	-0.21715064
2	0x3f5bebc2	0.8590661
3	0xbf44dfc4	-0.7690394
4	0xbf2f1646	-0.6839336
5	0x3f634646	0.88779104
6	0xbe3b1cb6	-0.18272671

backbone.convs.128.weight f4 [1, 1, 7]
0	0x3fdb4b43	1.7132343
1	0xbf3b0ba2	-0.73064625
2	0xbefcd385	-0.49380127
3	0xbf56bf9a	-0.8388611
4	0x3e8408fb	0.25788102
5	0xbe7c8b54	-0.24662524
6	0x3ead79a5	0.3388187

backbone.convs.129.weight f4 [1, 1, 11]
0	0xbf408ce2	-0.7521497
1	0xbe9932c8	-0.29921556
2	0xbfa9718b	-1.3237776
3	0x3f5e76b3	0.8689987
4	0x3ebfed9d	0.37485972
5	0x3fe0c678	1.7560568
6	0xbf635247	-0.8879742
7	0xbe9f0c7e	-0.31064218
8	0xbf77a113	-0.96730155
9	0x3ef69584	0.48160946
10	0x3f879ee2	1.0595362

backbone.convs.130.weight f4 [1, 1, 11]
0	0xbf5a8a6d	-0.8536747
1	0x3f8fdce4	1.1239285
2	0x3ea51326	0.32241172
3	0xbcc75b98	-0.024335667
4	0x3f459c69	0.7719179
5	0xbebaff9a	-0.36523134
6	0x3f1f16e5	0.6214431
7	0xbeb6fb98	-0.35738826
8	0xbe33d2a0	-0.17560816
9	0xbe9eae61	-0.30992416
10	0xbf40e7f0	-0.7535391

backbone.convs.131.weight f4 [1, 1, 7]
0	0x3f329f18	0.6977401
1	0x3ede4cad	0.43417874
2	0x3e007c32	0.12547377
3	0xbee6b0f2	-0.45056874
4	0xbe8b6210	-0.27223253
5	0xbf95d837	-1.1706609
6	0x3f22d574	0.63606954

backbone.convs.132.weight f4 [1, 1, 11]
0	0xbf693a26	-0.9110435
1	0x401d34c3	2.4563453
2	0xbf701de3	-0.93795604
3	0x3eac083e	0.33600038
4	0xbfc7842a	-1.5587208
5	0x3d5474d8	0.051869243
6	0x3f137f68	0.5761628
7	0x3ed6c3f8	0.41946387
8	0xbdc4f5c8	-0.096171916
9	0xbf824d52	-1.0179846
10	0x3f2e99dd	0.68203527

backbone.convs.133.weight f4 [1, 1, 7]
0	0xbe3baf38	-0.1832856
1	0x3dde9d44	0.1086984
2	0xbf2aab84	-0.6666796
3	0xbee82808	-0.4534304
4	0x3e98e9b8	0.29865813
5	0x3f3c6e28	0.73605585
6	0x3e23d2a1	0.15998317

backbone.convs.134.weight f4 [1, 1, 7]
0	0xbeae069c	-0.33989418
1	0xbe675bc7	-0.22593604
2	0x400bb9c0	2.1832123
3	0xbf448402	-0.7676393
4	0xbf4a9d2f	-0.79146093
5	0x3f5257d1	0.8216525
6	0xbf61435f	-0.87993425

backbone.convs.135.weight f4 [1, 1, 7]
0	0xbecc0fb5	-0.39855734
1	0x3f3c1517	0.7346968
2	0xbfb0f1bb	-1.382377
3	0xbf060e78	-0.5236583
4	0x3f8c6f64	1.0971494
5	0xbea3acf9	-0.31967905
6	0x3f4adc66	0.7924255

backbone.convs.136.weight f4 [1, 1, 11]
0	0x403731e7	2.8624208
1	0xbfb68844	-1.4260335
2	0x3fdb995e	1.7156179
3	0xbe61984a	-0.2203075
4	0x3f39d1c5	0.7258571
5	0xbff682f1	-1.925871
6	0xbfb92c87	-1.4466714
7	0xbe8009a5	-0.25007358
8	0x3f1e53c7	0.61846584
9	0x3ead1449	0.3380454
10	0xbf7dcfad	-0.99145013

backbone.convs.137.weight f4 [1, 1, 9]
0	0x3fd8b26b	1.6929449
1	0x3e226a14	0.15860778
2	0xbf3f2347	-0.74663204
3	0x3ed5f70a	0.41790038
4	0xbe00499e	-0.12528083
5	0x3e49fd86	0.19725618
6	0xbfdccefa	-1.7250664
7	0xbf6309f3	-0.88687056
8	0x3f8231ac	1.0171409

backbone.convs.138.weight f4 [1, 1, 9]
0	0x3f3a9b38	0.72893095
1	0x3f077af4	0.52921987
2	0x3fdd2801	1.7277833
3	0xbfaac119	-1.3340179
4	0xbff177ed	-1.8864723
5	0xbf09652d	-0.53670007
6	0xbee1e0c7	-0.44116804
7	0x3f9306c4	1.148644
8	0x3d829f19	0.06378002

backbone.convs.139.weight f4 [1, 1, 7]
0	0x3f0f9611	0.5608836
1	0xbec2e056	-0.3806178
2	0xbf8c596e	-1.0964792
3	0xbdeb88a8	-0.115006745
4	0x3f8c8d1a	1.0980561
5	0xbea4dcca	-0.321997
6	0x3e82a473	0.2551609

backbone.convs.140.weight f4 [1, 1, 11]
0	0xbdfc284c	-0.123123735
1	0x3faedaee	1.3660562
2	0xbebd3d18	-0.36960673
3	0xbfa1e222	-1.2647135
4	0xbf403494	-0.7508023
5	0xbf6d15df	-0.926115
6	0x3f5ca722	0.86192524
7	0xbe8cb334	-0.2748047
8	0x3f26d80a	0.651734
9	0x3f0336a5	0.51255256
10	0x3ea24074	0.316898

backbone.convs.141.weight f4 [1, 1, 11]
0	0x3eed9e7f	0.46409985
1	0xbfae00c0	-1.3593979
2	0x3f62a0dc	0.885267
3	0xbed013e0	-0.40640163
4	0xbf099293	-0.5373928
5	0xc0195d8f	-2.3963354
6	0x402cce9f	2.7001112
7	0xbe8e5d32	-0.27805477
8	0xbe03a28d	-0.12854977
9	0x3ebe6149	0.37183598
10	0x3f2f503c	0.684818

backbone.convs.142.weight f4 [1, 1, 7]
0	0xbe4aae6c	-0.19793099
1	0x3e2cfcfc	0.16893381
2	0xbfe1e6a2	-1.7648509
3	0x3f33c7fa	0.70227015
4	0xbe20771c	-0.15670437
5	0x3f09f520	0.53889656
6	0x3f359a4a	0.7093855

backbone.convs.143.weight f4 [1, 1, 9]
0	0x3f9a7985	1.2068335
1	0x3f262f4d	0.64915925
2	0x3e95af9f	0.2923555
3	0xbe8c74d7	-0.27432892
4	0xbf153082	-0.5827714
5	0xbd1c7058	-0.038193077
6	0xbea36ce3	-0.3191901
7	0xbf824324	-1.017674
8	0x3daba426	0.08380918

backbone.convs.144.weight f4 [1, 1, 7]
0	0xbe8701e0	-0.26368618
1	0x3ef1490b	0.4712604
2	0xbf2b1f8b	-0.66845006
3	0x401d6504	2.4592905
4	0xc00bf3ed	-2.186763
5	0x3ef5d703	0.48015603
6	0xbe9567ca	-0.29180747

backbone.convs.145.weight f4 [1, 1, 7]
0	0x3f7c9b7e	0.9867476
1	0x3e385aa6	0.1800333
2	0xbf850d68	-1.0394716
3	0x3c034750	0.008012608
4	0xbe822886	-0.25421542
5	0xbe92f7fc	-0.28704822
6	0x3ecfd796	0.40594167

backbone.convs.146.weight f4 [1, 1, 9]
0	0xbf5b5852	-0.8568164
1	0x3ba59d40	0.005054146
2	0x3d9dedd4	0.07711378
3	0x3ffb5e26	1.9638107
4	0x3f085fdf	0.5327129
5	0xbf9da003	-1.2314457
6	0x3f5b3968	0.8563447
7	0xbfa87d89	-1.316331
8	0xbcf963d8	-0.030443117

backbone.convs.147.weight f4 [1, 1, 11]
0	0x3ea58fb2	0.32336193
1	0x3f6e0746	0.9297985
2	0xbe7a342d	-0.24433966
3	0xbe176c09	-0.14787306
4	0xbef67140	-0.48133278
5	0xbda6ef2e	-0.08151089
6	0x3f76ddbe	0.964321
7	0xbf793868	-0.97351694
8	0xbe591ba5	-0.21201952
9	0x3d6370c6	0.05552747
10	0xbe079810	-0.13241601

backbone.convs.148.weight f4 [1, 1, 11]
0	0x3f82a27a	1.0205834
1	0x3e8403a8	0.2578404
2	0x3ddb593c	0.107103795
3	0x3f4eae3e	0.8073462
4	0xbf4eb8a4	-0.8075049
5	0x3f75f522	0.9607717
6	0x3f37cfc2	0.7180139
7	0xbe63a86e	-0.2223222
8	0xbef5e691	-0.4802747
9	0xbfd2b1c8	-1.6460505
10	0xbf372b72	-0.7155067

backbone.convs.149.weight f4 [1, 1, 11]
0	0xbed7c6b2	-0.4214378
1	0x3f9d04cf	1.2267092
2	0x3e3c939c	0.18415684
3	0xbe27aee5	-0.1637531
4	0xbf79846e	-0.97467697
5	0xbfbea89d	-1.4895207
6	0x3f5fbbcf	0.8739595
7	0xbe5aa689	-0.2135259
8	0xbf3fee7b	-0.7497327
9	0x3ec8d6f2	0.3922649
10	0x3faaf386	1.3355567

backbone.convs.150.weight f4 [1, 1, 7]
0	0xbe864aec	-0.26229036
1	0xbf088cca	-0.5333983
2	0x3fa6b9b7	1.3025426
3	0x3f03dfa8	0.5151315
4	0x3f2623da	0.64898455
5	0xbefa0a26	-0.48835868
6	0xbf975fcc	-1.182611

backbone.convs.151.weight f4 [1, 1, 9]
0	0xbe0f0aa5	-0.13968904
1	0x3de15c9a	0.110039905
2	0x3f86c21f	1.0527991
3	0x4001e83d	2.0297997
4	0xbf47998e	-0.7796868
5	0xbe64363d	-0.22286315
6	0xc01c4440	-2.4416656
7	0x3efa9140	0.48938942
8	0xbdc8f50a	-0.098123625

backbone.convs.152.weight f4 [1, 1, 11]
0	0x3faefbb2	1.3670561
1	0x3f78a636	0.9712862
2	0xbed146ea	-0.40874416
3	0x3e31c4ca	0.17360225
4	0xbef9328e	-0.48671383
5	0x3f071566	0.52767026
6	0x3f88c19e	1.0684087
7	0xbf8104c2	-1.0079577
8	0xbf726527	-0.94685596
9	0xbead79c1	-0.33881953
10	0xbf6b3f27	-0.9189324

backbone.convs.153.weight f4 [1, 1, 7]
0	0x3d5bf610	0.05370146
1	0x3f427af7	0.7596888
2	0x3fd214d6	1.6412609
3	0xbf134ce3	-0.57539195
4	0x3f5495d8	0.83041143
5	0xbf36ae41	-0.7135964
6	0xbfff7f5c	-1.9960742

backbone.convs.154.weight f4 [1, 1, 7]
0	0xbf35e15b	-0.7104699
1	0x3f6e46a9	0.9307657
2	0xbe96c3b0	-0.29446173
3	0x3f5fd602	0.87435925
4	0xbe35a446	-0.17738447
5	0xbf88a5f0	-1.067564
6	0x3ee3b6f2	0.44475514

backbone.convs.155.weight f4 [1, 1, 7]
0	0xbf7ab52c	-0.97932696
1	0x3d96844a	0.07349451
2	0xbf8a01c3	-1.0781788
3	0x3fcfcb25	1.623387
4	0x3eb8b94e	0.36078876
5	0xbd8cbd7e	-0.0687208
6	0x3d8c6744	0.06855634

backbone.convs.156.weight f4 [1, 1, 7]
0	0x3fcc00ff	1.5937804
1	0x3ec9ad83	0.3939019
2	0x3d0b2ca8	0.033978134
3	0xbf9ab124	-1.2085309
4	0xbd099ba8	-0.03359571
5	0xbf6ba670	-0.9205084
6	0x3e105ba3	0.14097457

backbone.convs.157.weight f4 [1, 1, 9]
0	0xbf60eee6	-0.8786453
1	0x3f556ce8	0.833693
2	0x3f6fb86a	0.9364077
3	0xbf2d0e56	-0.676
4	0xbf5fb0ee	-0.8737935
5	0x3ecc4b79	0.3990133
6	0xbe8d148d	-0.27554742
7	0x3fbe9c8a	1.4891522
8	0xbf744bb0	-0.9542799

backbone.convs.158.weight f4 [1, 1, 11]
0	0xbedab443	-0.42715654
1	0xbe97c7e8	-0.29644704
2	0x3e9c9549	0.30582646
3	0xbd5e9bc7	-0.05434778
4	0xbdac47d4	-0.08412138
5	0x3f29d0f2	0.6633445
6	0x3ff184cf	1.8868655
7	0x3fabe573	1.3429397
8	0xbfa2aa75	-1.2708269
9	0xbfc1d132	-1.5141966
10	0xbf0d47fe	-0.55187976

backbone.convs.159.weight f4 [1, 1, 11]
0	0x3ee76f3a	0.45202047
1	0x3ff6b5f2	1.9274275
2	0x3fa466cc	1.2843871
3	0xbcc2ab40	-0.023763299
4	0xbed1f4f6	-0.41007203
5	0x3d6106a0	0.05493796
6	0x3f31d01c	0.69458175
7	0x3de4b43c	0.111671895
8	0xc0410022	-3.015633
9	0xbf061de2	-0.5238935
10	0xbf0d39f4	-0.55166554

backbone.convs.160.weight f4 [1, 1, 7]
0	0x3f0751ca	0.52859175
1	0x3f92efd1	1.1479436
2	0xbffe140e	-1.984987
3	0xbed41a6b	-0.41426405
4	0xbd083347	-0.033252027
5	0x3f3f4957	0.7472128
6	0x3c0f715a	0.008755052

backbone.convs.161.weight f4 [1, 1, 9]
0	0x3ea34ad2	0.3189302
1	0x3e1921b0	0.14954257
2	0x3f63aa50	0.8893175
3	0x3fba49c0	1.4553757
4	0x3d9c031c	0.076177806
5	0xbfd5b927	-1.6697129
6	0xbf2d44a6	-0.67682874
7	0xbf1d6ba0	-0.6149235
8	0x3d93b44a	0.07212122

backbone.convs.162.weight f4 [1, 1, 9]
0	0x3f666c21	0.9000874
1	0xbf119e5a	-0.5688225
2	0x3fafb264	1.3726315
3	0xbeba3c07	-0.36373922
4	0x3eb58efe	0.35460657
5	0xbefa80b6	-0.48926324
6	0x3eec7ac6	0.4618742
7	0xbda00680	-0.0781374
8	0xbfcb6c20	-1.5892372

backbone.convs.163.weight f4 [1, 1, 11]
0	0xbc4595c0	-0.012059629
1	0xbee39d25	-0.4445583
2	0x3f64fd7a	0.89449275
3	0x3ee50f6c	0.44738328
4	0xbf46daaf	-0.77677435
5	0x3f24c304	0.6436007
6	0xbf761290	-0.96122074
7	0xbee48d5e	-0.44639105
8	0x3f12797a	0.5721661
9	0xbdf8c888	-0.12147623
10	0x3e51c0cc	0.20483702

backbone.convs.164.weight f4 [1, 1, 9]
0	0x401beb7b	2.4362476
1	0xbeab335a	-0.33437616
2	0xbef3450a	-0.4751361
3	0xbf4b81d6	-0.7949499
4	0xbe01feca	-0.1269485
5	0x3f5570d6	0.833753
6	0x3f3e13f9	0.74249226
7	0xbf83abe7	-1.0286835
8	0xbfa04e9a	-1.2523987

backbone.convs.165.weight f4 [1, 1, 11]
0	0x3ec7186a	0.38885814
1	0xbf20dff8	-0.6284175
2	0xbe0aeffc	-0.1356811
3	0xbd658828	-0.05603805
4	0x3f7f122a	0.9963709
5	0xbde8495c	-0.11342117
6	0xbfb273b0	-1.3941555
7	0x3e99cc74	0.30038798
8	0x3f93ee46	1.155709
9	0xbea738cf	-0.3266053
10	0xbe3f7ef4	-0.18700773

backbone.convs.166.weight f4 [1, 1, 9]
0	0xbf7a3580	-0.97737885
1	0x3e6eed82	0.2333279
2	0x3f2b747a	0.66974604
3	0x3e63db1a	0.2225155
4	0xbf406bea	-0.75164664
5	0xbd2f6008	-0.042816192
6	0x3f4b19ae	0.7933606
7	0x3dc32b9c	0.09529802
8	0xbe78396d	-0.24240656

backbone.convs.167.weight f4 [1, 1, 11]
0	0x3ef42eef	0.47692057
1	0x3f125c51	0.57172114
2	0xbf8d11b4	-1.1021028
3	0xbf409279	-0.752235
4	0xbb463400	-0.0030243397
5	0x3ed14d65	0.4087936
6	0xbf9c0898	-1.2190123
7	0x3e8fa2f2	0.28054005
8	0x3f20855b	0.62703484
9	0x3f917667	1.1364259
10	0xbed9a1b2	-0.42506176

backbone.convs.168.weight f4 [1, 1, 11]
0	0x3fa843ce	1.3145692
1	0x3fc87975	1.5662066
2	0xbfbe7908	-1.4880686
3	0x3f1f2c90	0.6217737
4	0xbfa02d18	-1.2513762
5	0xbe3dce24	-0.18535668
6	0xbe230c34	-0.15922624
7	0x3fa1bc9a	1.2635682
8	0xbd79e1f0	-0.061006486
9	0xbf98f543	-1.1949848
10	0xbeda29c0	-0.42609978

backbone.convs.169.weight f4 [1, 1, 9]
0	0xbf364e98	-0.71213675
1	0xbf43fb99	-0.7655578
2	0x3f8ebb17	1.1150845
3	0xbf5fae1f	-0.8737506
4	0x3e5289f2	0.20560434
5	0xbf371021	-0.71508986
6	0x3fcc8492	1.5977957
7	0xbeac76bc	-0.33684337
8	0x3ef84403	0.4848939

backbone.convs.170.weight f4 [1, 1, 9]
0	0xbe17a271	-0.1480806
1	0x3f07e57b	0.53084534
2	0x3f342979	0.7037578
3	0xbf1e8c75	-0.6193307
4	0xbb6a6d60	-0.003577076
5	0xbd97d808	-0.074142516
6	0xbe1aa34c	-0.15101355
7	0x3e306bdd	0.17228647
8	0xbed24d32	-0.4107452

backbone.convs.171.weight f4 [1, 1, 11]
0	0xbcd7d180	-0.026345015
1	0xbf9ca66e	-1.223829
2	0x3cfbd9b0	0.03074345
3	0xbf51df42	-0.8198129
4	0xbf53daa4	-0.82755494
5	0x3f495012	0.786378
6	0x3eba035a	0.36330682
7	0x3e3018a5	0.17196901
8	0x3e8282c7	0.254904
9	0x3f6b48a0	0.9190769
10	0x3ebe0919	0.37116316

backbone.convs.172.weight f4 [1, 1, 11]
0	0x3eea1bd0	0.45724344
1	0xbf93a272	-1.1533949
2	0xbe13d374	-0.14436132
3	0x3fd24ca9	1.6429645
4	0xbe87b543	-0.2650548
5	0x3f8be01f	1.0927771
6	0xbea051ca	-0.313124
7	0x3f1edf1b	0.6205918
8	0x3e96047e	0.29300302
9	0xbffb730f	-1.9644488
10	0xbe884acd	-0.26619568

backbone.convs.173.weight f4 [1, 1, 11]
0	0x40088208	2.1329365
1	0xbe6158fa	-0.22006598
2	0xbe27d1ee	-0.16388676
3	0x3e6a2103	0.22864155
4	0x3e723f65	0.23656996
5	0x3e28bb36	0.16477665
6	0x3f0d5fbc	0.55224204
7	0xbf2844ee	-0.6573018
8	0xbd4d3018	-0.050094694
9	0xbf74adc8	-0.9557767
10	0xbfa24f25	-1.2680403

backbone.convs.174.weight f4 [1, 1, 11]
0	0xc00c1b86	-2.18918
1	0x3e0d7b10	0.13816476
2	0xbffd5ef6	-1.9794605
3	0x3f024e6b	0.50900906
4	0xbfdb40f8	-1.7129202
5	0x3f51f22b	0.82010144
6	0x3eb0ad9b	0.3450745
7	0x3f519dc2	0.81881344
8	0x3ef8cc10	0.48593187
9	0x3f468d2f	0.7755918
10	0x3ffe936c	1.988874

backbone.convs.175.weight f4 [1, 1, 9]
0	0x3f032203	0.5122377
1	0x3efa60a0	0.48901844
2	0xbf07a114	-0.5298016
3	0xbf543f81	-0.829094
4	0x3f1fe9b8	0.62466
5	0xbe83b19a	-0.25721437
6	0xbf2167f8	-0.6304927
7	0x3efc9696	0.49333638
8	0x3e026820	0.12735033

backbone.convs.176.weight f4 [1, 1, 11]
0	0x3f46c24a	0.7764021
1	0x3e2887a7	0.16457997
2	0xbfe1f68a	-1.7653363
3	0x3eb29b93	0.3488432
4	0xbf27eb40	-0.6559334
5	0x3d6e86c0	0.058233976
6	0xbf230b12	-0.63688767
7	0x3e4a77c3	0.19772248
8	0xbf864827	-1.0490769
9	0x3e9299a3	0.2863284
10	0x40119ba3	2.2751243

backbone.convs.177.weight f4 [1, 1, 9]
0	0xbf0807cc	-0.531369
1	0xbeaaf6fe	-0.33391565
2	0x3f565461	0.837225
3	0xbf890c34	-1.0706849
4	0xbdc7cef0	-0.09756267
5	0x3ea3d566	0.31998748
6	0x3fb17a78	1.38655
7	0x3f4628e1	0.77406126
8	0xbfa463aa	-1.2842915

backbone.convs.178.weight f4 [1, 1, 7]
0	0x3fde94c6	1.7389152
1	0xbfdaae50	-1.7084446
2	0x4018927b	2.3839405
3	0x3cab5160	0.020912826
4	0xbe911eb9	-0.28343752
5	0xbf9825cb	-1.1886533
6	0xbf769672	-0.9632331

backbone.convs.179.weight f4 [1, 1, 9]
0	0xbf98c08d	-1.1933762
1	0xbf20d9b4	-0.6283219
2	0x3f578806	0.8419193
3	0xbf64fe2e	-0.8945035
4	0x3fc5f560	1.5465508
5	0xbf86c3e2	-1.0528529
6	0x3f00dec9	0.50339943
7	0xbf7aae9e	-0.97922695
8	0x3fed9eea	1.8564122

backbone.convs.180.weight f4 [1, 1, 11]
0	0x3e77f5c5	0.24214847
1	0xbefa7cc8	-0.48923326
2	0x3e871f34	0.26390994
3	0x3f74da5c	0.9564569
4	0x3d122804	0.035682693
5	0x3cbec660	0.023287952
6	0x3e042481	0.1290455
7	0x3f1bcb41	0.60857016
8	0xbfb256df	-1.3932761
9	0x3e6bec83	0.23039441
10	0xbf1b6377	-0.60698646

backbone.convs.181.weight f4 [1, 1, 9]
0	0x3d874f6a	0.06606944
1	0xbdf62fad	-0.12020812
2	0xbf609e03	-0.87741107
3	0xbfb7c64e	-1.4357393
4	0xbe6079a7	-0.21921407
5	0x3e709e4d	0.23497887
6	0xbc8e4158	-0.017365143
7	0x3f6e978e	0.93200004
8	0x3fb7ebfb	1.436889

backbone.convs.182.weight f4 [1, 1, 11]
0	0x3f767da0	0.9628544
1	0x3d497adc	0.049189433
2	0x3d3d28a4	0.046181336
3	0xbfba1741	-1.4538347
4	0x3f7d4238	0.98929167
5	0xbf9f98e6	-1.2468536
6	0x3e99b67d	0.3002204
7	0x3f2e6e24	0.6813681
8	0xbf0c18da	-0.5472542
9	0xbf73d376	-0.9524454
10	0x3f95ec99	1.1712829

backbone.convs.183.weight f4 [1, 1, 7]
0	0xbf8db67b	-1.1071314
1	0x3f442265	0.7661498
2	0x3f2ee069	0.6831117
3	0xbf51421d	-0.81741506
4	0xbf406c45	-0.75165206
5	0x3fc2572c	1.5182853
6	0xbe952ba0	-0.29134846

backbone.convs.184.weight f4 [1, 1, 11]
0	0xbf31b28c	-0.69413066
1	0x3f5a7c83	0.8534624
2	0x3fc40c74	1.53163
3	0x3f9212f5	1.1412035
4	0xbf8c2d8c	-1.09514
5	0x3ef49a24	0.4777385
6	0xc011a098	-2.2754269
7	0xbe8f4d90	-0.27988863
8	0xbf034f7c	-0.5129316
9	0xbf08c39c	-0.53423476
10	0x3fb1a0be	1.387718

backbone.convs.185.weight f4 [1, 1, 9]
0	0xbdfd96f6	-0.12382309
1	0x3f67aa17	0.9049391
2	0xbf6c0029	-0.92187744
3	0xbf2877b2	-0.6580764
4	0xbf64c2b7	-0.8935961
5	0x3f0bfd94	0.54683805
6	0xbde1c06e	-0.11023031
7	0x3ffaac3d	1.9583813
8	0xbf33daa3	-0.7025549

backbone.convs.186.weight f4 [1, 1, 11]
0	0x3f4a7950	0.7909136
1	0x3fa2986b	1.2702764
2	0x3dea2157	0.1143214
3	0xbfdf2e61	-1.7436029
4	0xbf019081	-0.5061112
5	0xbed5c40c	-0.41751134
6	0xbe4f28f1	-0.20230462
7	0x3ff1e0b2	1.8896697
8	0x3e1256e3	0.14290957
9	0xbfbfad4c	-1.4974761
10	0x3e22bac1	0.15891553

backbone.convs.187.weight f4 [1, 1, 11]
0	0xbfae57e6	-1.3620574
1	0xbf39d39a	-0.72588503
2	0x3f0a97a6	0.5413765
3	0x3fa53fda	1.2910111
4	0xbf440df8	-0.76583815
5	0x3d10e338	0.035372943
6	0xbdaf1038	-0.08548015
7	0xbf9dafdd	-1.2319294
8	0x3fde3aba	1.7361672
9	0xbec9c90e	-0.39411205
10	0x3f761c9f	0.9613742

backbone.convs.188.weight f4 [1, 1, 11]
0	0xbe304f6d	-0.17217799
1	0xbfa12c08	-1.2591562
2	0xbf81e8d1	-1.0149175
3	0x3e3deb34	0.18546754
4	0x3eab7930	0.33490896
5	0xbe9ef092	-0.31042916
6	0x3fcaf830	1.5856991
7	0x3ea48cc8	0.32138658
8	0xbe6f6ed6	-0.23382124
9	0x3ec34b00	0.38143158
10	0x3e39f77c	0.18160814

backbone.convs.189.weight f4 [1, 1, 7]
0	0x3e839f96	0.25707692
1	0xbfee5148	-1.8618555
2	0x3fb8d2d9	1.4439346
3	0x3f377407	0.7166142
4	0xbf8ca314	-1.0987267
5	0xbeccb47d	-0.39981452
6	0x3f715973	0.94277114

backbone.convs.190.weight f4 [1, 1, 11]
0	0x3e6a6fe4	0.22894245
1	0x3dbce39c	0.092231005
2	0x3fa01f86	1.250962
3	0xbe898f57	-0.26867172
4	0xbfc687ec	-1.551023
5	0xbf971a3f	-1.1804885
6	0x3ef106f0	0.47075605
7	0xbe9eb502	-0.30997473
8	0xbe8d7d46	-0.2763464
9	0x3ea6d4f2	0.3258434
10	0x3f9bdfdc	1.2177691

backbone.convs.191.weight f4 [1, 1, 7]
0	0xbec8d17b	-0.3922232
1	0xbfbd7a99	-1.4803039
2	0x3fdb593e	1.713661
3	0x3e811ebc	0.2521876
4	0x3faf1ad8	1.3680067
5	0x3e12276f	0.14272855
6	0xbfcd51b9	-1.6040565

backbone.convs.192.weight f4 [1, 1, 11]
0	0x3edc9355	0.43081155
1	0x3d44ef48	0.04807976
2	0xbf03dc66	-0.51508176
3	0xbfdeac6b	-1.7396368
4	0x3ec28cc9	0.37998036
5	0x3e3268ea	0.17422834
6	0xbf673c52	-0.90326416
7	0x3fbdc45f	1.4825553
8	0xbdb5dd80	-0.088801384
9	0xbe9bd5e6	-0.3043663
10	0x3f848b1d	1.0354954

backbone.convs.193.weight f4 [1, 1, 7]
0	0x3db6a70a	0.08918579
1	0x3e64628b	0.22303216
2	0x3f1ed7ec	0.6204822
3	0xbfc36071	-1.5263807
4	0x3ed590ce	0.4171204
5	0xbd79f808	-0.061027557
6	0x3e734a39	0.23758782

backbone.convs.194.weight f4 [1, 1, 9]
0	0xbf03c2d5	-0.51469165
1	0x3d9d2717	0.076734714
2	0xbe19bb13	-0.1501277
3	0xbf3fc217	-0.7490553
4	0xbd267781	-0.04064131
5	0xbf4f7330	-0.8103514
6	0xbfc21394	-1.5162225
7	0x401b8a31	2.4303095
8	0x3fa313eb	1.2740453

backbone.convs.195.weight f4 [1, 1, 9]
0	0xbf2abe0d	-0.66696244
1	0x3fa22d80	1.2670135
2	0x3e067775	0.13131507
3	0xbf3fa1c6	-0.7485622
4	0x3f4f58eb	0.80995053
5	0xbf4e15c5	-0.8050197
6	0xbe9199e6	-0.28437728
7	0xbe88514d	-0.26624528
8	0x3f10196a	0.5628878

backbone.convs.196.weight f4 [1, 1, 11]
0	0xbec59a2a	-0.3859418
1	0x3dafcf0d	0.08584414
2	0xbf98081b	-1.1877474
3	0x3e7be837	0.24600302
4	0x3e723c1e	0.23655745
5	0x402c3cc0	2.691208
6	0xc002f72c	-2.0463362
7	0xbec4add2	-0.38413864
8	0xbe2aec9f	-0.16691826
9	0xbeb79ed8	-0.35863376
10	0x3fa292bf	1.2701033

backbone.convs.197.weight f4 [1, 1, 7]
0	0x3ead6476	0.33865708
1	0xbfb85f0b	-1.4404005
2	0xbf241f2a	-0.6411005
3	0x3f25e152	0.64796937
4	0x3e801ad7	0.25020477
5	0x3e8fd558	0.28092456
6	0x3f10519d	0.5637453

backbone.convs.198.weight f4 [1, 1, 11]
0	0x3e39d608	0.18148053
1	0xbf3698e3	-0.71327037
2	0x3d9749be	0.07387112
3	0xbd95a69c	-0.07307169
4	0x3dc14c7c	0.09438416
5	0xbe9d77e6	-0.30755538
6	0x4005fc4c	2.093524
7	0x3f40e5c1	0.75350577
8	0xbed24500	-0.41068268
9	0xbf88224e	-1.0635469
10	0xbf20ee7d	-0.62863904

backbone.convs.199.weight f4 [1, 1, 7]
0	0x3f58afc4	0.846432
1	0xbea5c243	-0.32374772
2	0x3f8c6269	1.0967532
3	0xbe4d02f4	-0.20020658
4	0xbeb344a9	-0.3501332
5	0x3e23db71	0.16001679
6	0xbf9d53a0	-1.2291145

backbone.convs.200.weight f4 [1, 1, 11]
0	0x3f8e7898	1.1130552
1	0x3fbcbef4	1.4745774
2	0x3f88a626	1.0675704
3	0xbfc08c1a	-1.5042756
4	0xbfbbca97	-1.46712
5	0xbfabcbc0	-1.3421555
6	0xbf369fdc	-0.71337676
7	0xbe305647	-0.17220412
8	0x3f9b3605	1.212586
9	0x3f51cd69	0.81954056
10	0xbef9f512	-0.48819786

backbone.convs.201.weight f4 [1, 1, 11]
0	0xbe8fe826	-0.28106803
1	0x3fc34fe8	1.525876
2	0x3f85b799	1.0446655
3	0x3f03f4aa	0.515452
4	0x3fc3dcbc	1.5301738
5	0xbf94dd3c	-1.1630015
6	0x3f2470bd	0.64234525
7	0xbfbfea8e	-1.4993455
8	0x3dffada8	0.12484294
9	0xbfdc7cb6	-1.7225559
10	0xbf37a67b	-0.71738404

backbone.convs.202.weight f4 [1, 1, 9]
0	0x3f356958	0.70863867
1	0x3e6971ca	0.22797313
2	0x3f6acf4f	0.9172258
3	0x3f0a15ac	0.5393932
4	0xbf5017c4	-0.81286263
5	0xbf2c7262	-0.67362034
6	0xbe712e7d	-0.2355289
7	0x3e9a5a0c	0.30146825
8	0xbf790206	-0.9726871

backbone.convs.203.weight f4 [1, 1, 7]
0	0xbed4f483	-0.41592798
1	0xbfc0b5ad	-1.5055443
2	0x3f063aa4	0.5243323
3	0x3e5a32aa	0.2130839
4	0x3f96e701	1.1789247
5	0x3fa3c677	1.2794942
6	0xbfa31e52	-1.2743628

backbone.convs.204.weight f4 [1, 1, 7]
0	0xbf7d57b4	-0.9896195
1	0xbea61ebe	-0.3244533
2	0x3fa8235c	1.3135791
3	0x3f18955e	0.59602916
4	0x3f6b0bc8	0.9181485
5	0xc0105160	-2.2549667
6	0x3f3dc4ad	0.7412823

backbone.convs.205.weight f4 [1, 1, 7]
0	0xbf957ce2	-1.1678736
1	0x3fa932f1	1.3218671
2	0xbe9a8137	-0.30176708
3	0x3b48d4a0	0.0030644313
4	0x3ec087ff	0.37603757
5	0xbf18bd44	-0.59663796
6	0x3ebb09db	0.36530957

backbone.convs.206.weight f4 [1, 1, 7]
0	0x3f616392	0.8804256
1	0xbe05d170	-0.13068175
2	0x403114c0	2.7668915
3	0xbfb8f080	-1.4448395
4	0xbf2a6e52	-0.66574585
5	0xbe8da9fd	-0.27668753
6	0xbf908ef5	-1.1293627

backbone.convs.207.weight f4 [1, 1, 9]
0	0x3f4ad815	0.79235965
1	0xbfef1bcd	-1.8680359
2	0x3f05a658	0.52206945
3	0xbe7343bd	-0.23756309
4	0xbfbec0d9	-1.4902602
5	0x3ef80e67	0.48448488
6	0x3f3c5de5	0.7358077
7	0x3f544db6	0.8293108
8	0x3e6d640b	0.23182695

backbone.convs.208.weight f4 [1, 1, 9]
0	0xc0305616	-2.7552543
1	0x3ecc4bda	0.3990162
2	0xbf057c4e	-0.521428
3	0xbed5a17d	-0.41724768
4	0xbf25fa32	-0.6483489
5	0x3f609c46	0.87738454
6	0x3f558cb8	0.83417845
7	0x3fca58ff	1.580841
8	0x3f269eb0	0.6508589

backbone.convs.209.weight f4 [1, 1, 9]
0	0x3f9ce427	1.2257127
1	0x3f729793	0.94762534
2	0xbf115175	-0.5676492
3	0xbed21b4d	-0.41036454
4	0x3f0265cc	0.5093658
5	0xbc441b80	-0.011969447
6	0x3e760b5a	0.24027768
7	0xbf99e53a	-1.2023079
8	0xbf3b0e82	-0.7306901

backbone.convs.210.weight f4 [1, 1, 11]
0	0x3f15d42c	0.58526874
1	0xbf9a94e7	-1.2076691
2	0xbfdd6972	-1.7297804
3	0xbdf44b98	-0.11928481
4	0x3effbc9a	0.4994858
5	0x3fbb5c56	1.4637554
6	0x3f820a83	1.0159458
7	0x3f86f3a6	1.0543106
8	0xbf1f5c62	-0.6225034
9	0xbfa9dc20	-1.3270302
10	0x3ec6668d	0.38750115

backbone.convs.211.weight f4 [1, 1, 7]
0	0x3fdf67f9	1.7453605
1	0xbf1d1962	-0.61366856
2	0xbfa2503e	-1.2680738
3	0x3eee53f0	0.46548414
4	0xbd7704d0	-0.060307324
5	0xbf211879	-0.6292797
6	0x3eb89182	0.36048514

backbone.convs.212.weight f4 [1, 1, 11]
0	0x3fa4a5fc	1.2863154
1	0xbf82a63e	-1.0206983
2	0x3f20cb45	0.62810165
3	0x3f9656a3	1.174519
4	0xbfb077e7	-1.3786591
5	0xbf1c43c9	-0.6104093
6	0x3e65b9e7	0.22434197
7	0x3e5dc0fb	0.21655647
8	0x3f321b89	0.69573265
9	0xbf185530	-0.59504986
10	0xbf1ee97f	-0.62075037

backbone.convs.213.weight f4 [1, 1, 7]
0	0xbf89e189	-1.0771953
1	0x3fbdff5f	1.4843558
2	0x3e8e43a2	0.27785975
3	0x3f6e2178	0.9301982
4	0xbf481fb0	-0.7817335
5	0x3d8f9d81	0.07012463
6	0xbf6752f4	-0.9036095

backbone.convs.214.weight f4 [1, 1, 11]
0	0xbfaf2bba	-1.3685219
1	0xbe505080	-0.20343208
2	0xbe2450bc	-0.16046423
3	0x3c1a1e40	0.009406626
4	0xbee71b70	-0.4513812
5	0x3e6dee8e	0.23235533
6	0xbf3e64d9	-0.7437263
7	0x3eadec8e	0.3396954
8	0x3f343747	0.70396847
9	0x3f4183f2	0.7559196
10	0x3f62dcba	0.8861805

backbone.convs.215.weight f4 [1, 1, 11]
0	0xbeed3d88	-0.46336007
1	0x3dae00d6	0.08496253
2	0x3fe05657	1.7526349
3	0x3dfccb62	0.1234348
4	0x3fee10a7	1.8598832
5	0xbdbbdf04	-0.09173396
6	0xc0433e95	-3.0506947
7	0xbec72590	-0.38895845
8	0xbf34eb9c	-0.7067201
9	0x3f35ebd5	0.71062976
10	0x3e2e001c	0.16992229

backbone.convs.216.weight f4 [1, 1, 7]
0	0x3f866dfa	1.0502312
1	0xbf8a9d22	-1.0829203
2	0x3e984906	0.29743212
3	0x3f82aab7	1.0208348
4	0xbfb24f4c	-1.393045
5	0xbe9b5407	-0.30337545
6	0x3ed259f8	0.41084266

backbone.convs.217.weight f4 [1, 1, 7]
0	0xbf58c122	-0.846697
1	0x3f07cb0c	0.530442
2	0xbe15842e	-0.14601204
3	0x3e00fb75	0.12595923
4	0x3e7651e9	0.24054684
5	0x3f56e830	0.8394804
6	0xbf3e6462	-0.7437192

backbone.convs.218.weight f4 [1, 1, 7]
0	0xbf8977c1	-1.0739671
1	0xbdf5b45f	-0.11997294
2	0xbf60f67a	-0.87876093
3	0xbef29e3c	-0.47386348
4	0x3f229e08	0.63522387
5	0x3fe6f7af	1.8044337
6	0x3ddaf1f5	0.10690681

backbone.convs.219.weight f4 [1, 1, 7]
0	0xc018c7f1	-2.3872035
1	0x3cfb84f0	0.030703038
2	0xbfac013c	-1.3437877
3	0x3dd90434	0.10596505
4	0x3fd548f4	1.6662889
5	0x3ee01f0f	0.43773696
6	0x3fbec211	1.4902974

backbone.convs.220.weight f4 [1, 1, 7]
0	0xbde8bc70	-0.113640666
1	0xbe06553c	-0.13118452
2	0x3ebdfe48	0.37108064
3	0xbfac337d	-1.3453213
4	0xbf192c6e	-0.5983342
5	0x3fb17694	1.3864312
6	0x3edca7f0	0.43096876

backbone.convs.221.weight f4 [1, 1, 11]
0	0xbf20c086	-0.6279377
1	0xbfaeb136	-1.364783
2	0x3feb3c41	1.8377763
3	0x3f3cfd34	0.7382386
4	0x3f8396be	1.0280378
5	0x3e4d0124	0.20019966
6	0x3f304ce8	0.6886735
7	0xbf806a9b	-1.0032533
8	0xbda75c24	-0.08171871
9	0x3d888db8	0.06667656
10	0xbfbdaf30	-1.4819088

backbone.convs.222.weight f4 [1, 1, 7]
0	0xbf8a60b3	-1.081076
1	0x3f3082c8	0.68949556
2	0xbe186921	-0.14883853
3	0x3eb0071c	0.34380424
4	0xbfee6d74	-1.8627152
5	0x40095860	2.146019
6	0xbdb18a06	-0.08668904

backbone.convs.223.weight f4 [1, 1, 9]
0	0x3a8e0ac0	0.0010836944
1	0x3f241507	0.64094585
2	0x3fbcf9ba	1.476371
3	0xbe172c92	-0.14763096
4	0xbfd055ee	-1.6276224
5	0x3f14e21a	0.58157504
6	0xbe9828ca	-0.2971862
7	0xbec680aa	-0.38770038
8	0xbe759782	-0.23983577

backbone.convs.224.weight f4 [1, 1, 7]
0	0x3e44c0de	0.19214198
1	0x3e560340	0.20899677
2	0x3fa2004b	1.265634
3	0x3e78b347	0.24287139
4	0x3f43348d	0.7625206
5	0xc00fc91b	-2.2466495
6	0xbed9dd26	-0.42551535

backbone.convs.225.weight f4 [1, 1, 11]
0	0xbe50c732	-0.20388487
1	0xbd3ae156	-0.045625053
2	0xbf0e4dc3	-0.55587405
3	0x3f87efb8	1.0620031
4	0x3f354040	0.7080116
5	0xbf517324	-0.81816316
6	0xbc96540c	-0.018350624
7	0xbf16a458	-0.5884452
8	0x3ff0d8c1	1.8816148
9	0x3ef5df6b	0.48022017
10	0xbff36495	-1.901507

backbone.convs.226.weight f4 [1, 1, 11]
0	0xbf116dae	-0.5680798
1	0x3ea92a2c	0.33039987
2	0x3fcb439b	1.5880007
3	0x3fad1c25	1.3524214
4	0xbfa5896e	-1.2932565
5	0xbf8745bd	-1.0568157
6	0xbf4c54c2	-0.7981683
7	0xbed4516b	-0.41468367
8	0x3f407eae	0.751933
9	0x3df84208	0.121219695
10	0xbc548380	-0.012970805

backbone.convs.227.weight f4 [1, 1, 7]
0	0x3da2d230	0.07950246
1	0xbeee4f5d	-0.46544924
2	0xbdcf73fc	-0.10129544
3	0x3f890c51	1.0706884
4	0x3e627a27	0.2211691
5	0xbf0002b6	-0.50004137
6	0xbe9bf117	-0.30457374

backbone.convs.228.weight f4 [1, 1, 11]
0	0xbe18f40e	-0.1493685
1	0xbe0058be	-0.12533852
2	0xbf269c02	-0.650818
3	0x3f49c795	0.78820163
4	0x3fb19584	1.3873754
5	0x3f38ec4f	0.7223558
6	0xbfc42014	-1.532229
7	0x3ebfb5c4	0.37443364
8	0x3f0edf7e	0.5580977
9	0xbf7fe3f3	-0.999572
10	0xbebf0bf2	-0.373138

backbone.convs.229.weight f4 [1, 1, 11]
0	0x3f4abc56	0.7919363
1	0x3f0f97e6	0.56091154
2	0xbf959b1d	-1.1687962
3	0x3f1c766a	0.61118186
4	0x3f890203	1.0703739
5	0xc0086ad8	-2.1315212
6	0x3fc6a9dd	1.5520588
7	0x3efd3048	0.49450898
8	0x3e832a42	0.25618178
9	0xc001e948	-2.0298634
10	0xbbe47500	-0.0069719553

backbone.convs.230.weight f4 [1, 1, 9]
0	0x3eeffb06	0.46871203
1	0x3f3d31c1	0.73904043
2	0xbe7e0abb	-0.24808781
3	0xbf956a1f	-1.167301
4	0xbe9012f0	-0.28139448
5	0xbeee4b3e	-0.4654178
6	0x3f1352c5	0.5754817
7	0x3f12c0b0	0.5732527
8	0xbe46f2db	-0.1942858
