examples/checkpoint_best_pruned.pt (torch, 716036 bytes, 1006 tensors)

backbone.convs.0.weight f4 [1, 1, 7]
000000 28 f5 a7 3f be 09 d0 3e 47 47 ee be e3 65 32 bf
       1.3121691 0.40632433 -0.46538755 -0.69686717
000010 e8 56 16 3f f5 fe 97 bf 7a 15 34 3d
       0.5872636 -1.1874682 0.043965794

backbone.convs.1.weight f4 [1, 1, 11]
000000 c4 b6 af bd 4b 59 d3 3f 85 ad a8 bd cf 7d 44 bf
       -0.08579782 1.6511625 -0.08236221 -0.7675447
000010 79 ca d3 3f 19 4e 91 3f fd d6 d4 bf 59 37 41 3d
       1.6546165 1.1351959 -1.6628109 0.047171924
000020 66 5f 45 3f b5 65 26 c0 bc 76 78 bd
       0.7709869 -2.5999577 -0.06066011

backbone.convs.2.weight f4 [1, 1, 7]
000000 aa 85 ac 3f 54 7b a5 3c 98 31 7b 3f bc 69 99 be
       1.3478291 0.020200409 0.9812255 -0.2996348
000010 6f d6 88 bf 2e 29 d0 3e d1 8d b1 bf
       -1.069044 0.40656418 -1.3871404

backbone.convs.3.weight f4 [1, 1, 9]
000000 5b c7 7c 3f 76 fb 02 bf da 7d c3 bf 33 cd 81 3f
       0.9874169 -0.5116495 -1.5272782 1.0140747
000010 72 e1 32 3f 1e 1b 07 bf 7e 20 b5 3e 89 6b 3d bf
       0.6987525 -0.5277575 0.35376352 -0.7399221
000020 bc 54 81 3e
       0.2525996

backbone.convs.4.weight f4 [1, 1, 11]
000000 68 7f 42 3d 0f a1 8c bf 92 56 1a bf f8 95 01 bf
       0.047484785 -1.0986651 -0.60288346 -0.5061946
000010 90 3a 2f bf b0 8c 1b be 2a cb 0c bf 79 6f c0 3f
       -0.68448734 -0.15190387 -0.54997504 1.5034019
000020 5c 32 5b 3f 0c f9 c3 3f 92 27 b0 be
       0.8562372 1.5310378 -0.3440519

backbone.convs.5.weight f4 [1, 1, 9]
000000 ae e1 93 3e a4 a8 14 be 7c 2c 0f c0 4d cc 7a 3f
       0.28883117 -0.14517456 -2.23709 0.9796799
000010 56 24 f5 be ea db bf 3e 12 50 b2 3f ae cd ea 3e
       -0.47879285 0.3747247 1.3930686 0.45860046
000020 d4 43 22 bf
       -0.6338475

backbone.convs.6.weight f4 [1, 1, 7]
000000 90 c3 61 bf 18 9c 66 3f 8d c4 c0 be 12 da a6 3e
       -0.8818903 0.9008193 -0.37649956 0.3258825
000010 93 70 86 bf 7a 5e 6b 3f 7e 7d 26 3e
       -1.0503105 0.91941035 0.16258809

backbone.convs.7.weight f4 [1, 1, 11]
000000 46 96 c1 3f 82 4a a3 be 94 cf a2 3e 9a 80 fe bd
       1.5123985 -0.31892782 0.31798995 -0.124268726
000010 c1 8d 82 bf 15 8a 27 3f 51 99 0d bf 36 22 c5 bf
       -1.019951 0.6544507 -0.5531207 -1.5401065
000020 03 a2 0d 3f bd 4b 95 3e 12 21 68 3e
       0.55325335 0.29159346 0.22668865

backbone.convs.8.weight f4 [1, 1, 7]
000000 28 a3 c2 bf c3 b7 71 3f ca e7 7a 3f 91 c8 fb be
       -1.5206041 0.94421023 0.9800993 -0.49176458
000010 07 3f 5b 3e 14 6f 27 be ea 70 19 3d
       0.21410762 -0.16350967 0.0374612

backbone.convs.9.weight f4 [1, 1, 7]
000000 8c 75 a8 bf f7 ff 5d 3f fd 98 c8 3e 54 6c c1 bd
       -1.3160872 0.86718696 0.3917922 -0.0944449
000010 1b d2 25 3e ad 10 7f 3f 83 dc 80 bf
       0.1619343 0.9963482 -1.0067295

backbone.convs.10.weight f4 [1, 1, 9]
000000 64 79 22 3e 68 23 ac bf 00 35 2b 3a d9 2a 15 40
       0.1586662 -1.3448305 0.000653103 2.3307402
000010 24 cb 8b bf 09 88 51 bf fe 55 f8 3e bd fa 00 c0
       -1.0921369 -0.818482 0.48503107 -2.0153039
000020 23 ec 12 40
       2.2956626

backbone.convs.11.weight f4 [1, 1, 7]
000000 55 c6 15 3f 1a 37 96 bf 38 8a 95 bf c0 a9 db 3f
       0.58505756 -1.1735566 -1.1682806 1.7161179
000010 d8 b9 0a be 6c 29 78 3e d0 98 87 bd
       -0.13547456 0.24234551 -0.066209435

backbone.convs.12.weight f4 [1, 1, 7]
000000 70 0b 9c 3c 93 80 03 bf 63 51 5e 3f 05 8e 78 bf
       0.019048423 -0.51368064 0.86842936 -0.97091705
000010 c5 80 40 bf 84 a7 2e 3e de d9 96 3f
       -0.75196487 0.1705609 1.1785238

backbone.convs.13.weight f4 [1, 1, 9]
000000 d5 8f 3a 3f 91 a0 7a bf ac af 64 3f cc f5 4d 3f
       0.7287572 -0.97901255 0.89330554 0.8045318
000010 70 ae ab bd 12 8c 2d bf 50 ce 3f bc 08 c2 3a bf
       -0.08382881 -0.67791855 -0.011706904 -0.7295232
000020 10 e6 62 3d
       0.055395186

backbone.convs.14.weight f4 [1, 1, 7]
000000 5c de 2e 3f 17 34 ca be 00 49 81 3d 10 0a 65 3d
       0.68308043 -0.39492866 0.06312752 0.0559178
000010 fa ff b9 bd ca 05 81 3f d4 84 a9 bf
       -0.09082027 1.0079892 -1.3243661

backbone.convs.15.weight f4 [1, 1, 9]
000000 d6 d6 7b 3f ae a7 ed 3d 20 68 0b 40 e8 94 09 bf
       0.9837469 0.11604248 2.1782303 -0.5374284
000010 99 bc eb bf 53 88 0f 3f 41 03 82 bf 14 e0 bc 3e
       -1.841693 0.5606739 -1.0157243 0.36889708
000020 0f 10 50 bf
       -0.81274503

backbone.convs.16.weight f4 [1, 1, 9]
000000 1c 33 c8 be b7 1d 03 bf 2a cd 49 3f 9f 1a 05 be
       -0.39101493 -0.51217216 0.7882868 -0.12998436
000010 93 04 22 3e f3 41 b0 bd 54 07 b5 be 8d 05 09 bf
       0.15822057 -0.08606329 -0.35357153 -0.53524095
000020 89 e0 87 3f
       1.0615398

backbone.convs.17.weight f4 [1, 1, 9]
000000 50 66 3f bf 70 cc f5 3e a4 25 69 3d 9a ca 08 40
       -0.7476549 0.48007536 0.056920663 2.1373658
000010 f9 a1 d3 bf 70 e4 25 3f dc d5 03 bf f0 82 30 bc
       -1.6533805 0.6480169 -0.514982 -0.010773405
000020 7e 8a ca be
       -0.39558786

backbone.convs.18.weight f4 [1, 1, 11]
000000 ab 1e e8 3f ba 0a a0 be 3b 8b 70 3f ba fd 9b bf
       1.8134359 -0.31258184 0.9396245 -1.2186806
000010 b7 91 23 3f c2 5f 92 3f ac 4b 47 3f 48 27 8c bf
       0.6389422 1.1435473 0.7784984 -1.0949488
000020 25 3f 82 bf c3 5f 2a bf 05 9c 80 bf
       -1.017552 -0.6655237 -1.0047613

backbone.convs.19.weight f4 [1, 1, 7]
000000 df fe 4c 3f 32 2e f1 bd de 3d a0 be 30 5c e7 bf
       0.800764 -0.11776389 -0.312972 -1.8075008
000010 66 24 9c 3e 44 e7 8f 3f 40 5e 07 3c
       0.3049652 1.1242452 0.008262217

backbone.convs.20.weight f4 [1, 1, 11]
000000 27 dd c5 3e f1 3b 82 bf 34 36 2c 3f 6f e3 99 3f
       0.38645288 -1.0174543 0.6727021 1.2022532
000010 76 41 28 be 6b 1b 08 bf f7 00 06 3e 6f e9 cd 3d
       -0.16431221 -0.53166837 0.13086306 0.100542895
000020 80 47 22 bb a3 be be be 99 07 cf be
       -0.0024761856 -0.3725482 -0.40435484

backbone.convs.21.weight f4 [1, 1, 11]
000000 62 30 4c 3f 08 e8 eb bd 32 1e 5d bf 94 ce 6f bd
       0.79761326 -0.11518866 -0.863742 -0.058546618
000010 11 45 0d c0 8a a3 7e 3e 13 68 91 3f e4 99 42 bf
       -2.2073405 0.24867073 1.1359886 -0.7601607
000020 4c 7f 5f 3f a3 54 84 3e 40 f3 30 3f
       0.87303615 0.25845823 0.6912117

backbone.convs.22.weight f4 [1, 1, 9]
000000 a6 d6 39 3f 0c 52 0d 3f 40 cb e9 bb 8f 3e 81 bf
       0.7259315 0.5520332 -0.007134825 -1.0097216
000010 1e 83 03 3f a5 4d d3 bf 3a c5 81 3f 0f 6a da be
       0.51371944 -1.650807 1.0138314 -0.4265904
000020 84 d5 93 3e
       0.28873837

backbone.convs.23.weight f4 [1, 1, 11]
000000 d8 91 9c bf 40 5d d4 bf 0a a8 ed 3e ea 24 13 3f
       -1.2232008 -1.6590958 0.46417266 0.574782
000010 37 06 8c bf 7b fb 8e 3f 6c fa 14 3f e6 c3 d2 bf
       -1.0939397 1.1170496 0.58194613 -1.6466033
000020 ca 05 8a 3f 52 a7 9c 3e 71 14 c0 3f
       1.0783017 0.30596405 1.5006238

backbone.convs.24.weight f4 [1, 1, 11]
000000 57 ea 1c be 62 cf 33 bf b5 25 4a bf 40 0e e7 be
       -0.15323769 -0.70238316 -0.78963786 -0.4512806
000010 d8 9d f6 3d 0c 74 de 3e 9b 72 35 3f bc 66 ac 3e
       0.12041825 0.43447912 0.70878 0.3367213
000020 be 34 63 3f 6b b2 64 bf bd 80 00 3f
       0.88752353 -0.89334744 0.5019644

backbone.convs.25.weight f4 [1, 1, 9]
000000 57 63 89 bf 07 d3 fc bd fb ae a1 3f bd b1 96 bf
       -1.0733441 -0.12344938 1.2631525 -1.1772991
000010 f9 8e ea 3f 75 43 fc bd f0 99 de 3d ba d3 75 3e
       1.8324882 -0.12317554 0.10869205 0.24006549
000020 1f 77 72 bf
       -0.94713014

backbone.convs.26.weight f4 [1, 1, 9]
000000 d2 f2 dc be fb 63 40 3f 60 72 33 40 25 58 3e bf
       -0.43154007 0.7515256 2.803856 -0.7435325
000010 1d e8 da bf 34 30 0f 3f af ee 02 bf 20 da 43 3f
       -1.7102085 0.5593293 -0.5114545 0.7650471
000020 ab d3 bd bf
       -1.4830221

backbone.convs.27.weight f4 [1, 1, 7]
000000 fc 07 44 bf c9 d0 d7 be 85 11 86 3f 29 f1 be bf
       -0.76574683 -0.42151478 1.0474097 -1.4917346
000010 93 8a b1 3f be 59 e2 3e 6a 49 4a be
       1.3870414 0.44209093 -0.19754568

backbone.convs.28.weight f4 [1, 1, 7]
000000 ea 7f 60 bf b5 1f 89 3e 3e f6 38 3e 1c 24 5a bf
       -0.8769518 0.26782003 0.18062684 -0.8521135
000010 4c a4 f1 3d b7 65 d4 3e 3a 6f 3f 3f
       0.11798915 0.41483852 0.74779093

backbone.convs.29.weight f4 [1, 1, 11]
000000 86 9a f3 be 9f 7b 73 3f 44 8c 60 3e 5a 3c dd 3e
       -0.4757883 0.95110506 0.21928507 0.43210107
000010 34 e6 b2 be 85 5f 3e 3f e2 32 a4 bf 17 04 22 3f
       -0.34941256 0.743645 -1.2828028 0.6328749
000020 31 9a 8a bf a3 00 0e 3f 38 8d af be
       -1.0828305 0.5546972 -0.3428743

backbone.convs.30.weight f4 [1, 1, 7]
000000 26 26 f2 3e e8 6a b3 bf 4e e6 3c 3f 87 2d 3d bf
       0.4729473 -1.4017 0.7378892 -0.73897594
000010 91 39 b2 3f 90 a7 91 3e f4 3c 3f bf
       1.3923818 0.28448153 -0.7470238

backbone.convs.31.weight f4 [1, 1, 9]
000000 90 aa b0 be b3 4f b7 3f 89 3b 3c 3f 07 be 95 3f
       -0.3450513 1.4321197 0.73528343 1.1698617
000010 87 cb 02 be e7 2c 8f bf 44 65 fb 3e d8 b0 43 bf
       -0.12772952 -1.1185578 0.49100697 -0.7644172
000020 66 7b bc bf
       -1.4725158

backbone.convs.32.weight f4 [1, 1, 7]
000000 74 54 34 be 75 d2 df bf a4 84 80 bf 88 ee 22 3f
       -0.17610341 -1.7486101 -1.0040479 0.6364522
000010 f9 16 fd 3f 14 2b 94 be 60 bc 1a 3f
       1.9772636 -0.28939116 0.6044369

backbone.convs.33.weight f4 [1, 1, 9]
000000 00 ba 8a 3f d9 7e 68 3f 67 6c b2 bf ee b0 88 bf
       1.0838013 0.90818554 -1.3939332 -1.0678995
000010 e7 e9 a1 bf 79 e8 0d 40 a3 ec 83 3f 7a 26 05 bf
       -1.2649506 2.217314 1.0306591 -0.52011836
000020 09 39 7e bf
       -0.9930578

backbone.convs.34.weight f4 [1, 1, 11]
000000 b0 58 06 3d f0 9b 04 3f 88 a9 af 3f 3b c9 98 bf
       0.032799423 0.5180044 1.3723612 -1.1936411
000010 60 7a b8 bd d1 e1 c4 3f 3a ee 57 3e 50 8d 4d bf
       -0.09007716 1.5381414 0.2108697 -0.8029375
000020 de f0 a0 be 32 8d 49 be 75 84 89 bf
       -0.31433767 -0.19682768 -1.0743548

backbone.convs.35.weight f4 [1, 1, 7]
000000 56 db 57 3f e4 28 15 3f dc 60 03 3f fc df 27 3f
       0.84319055 0.5826552 0.5131967 0.6557615
000010 bc 27 c7 bf a2 43 08 bf f6 b1 01 bf
       -1.5559001 -0.532282 -0.5066217

backbone.convs.36.weight f4 [1, 1, 9]
000000 40 8f cc 3d 98 97 16 3f 48 a1 90 3c e2 35 10 3f
       0.0998826 0.58825064 0.01765503 0.5633222
000010 04 cf 61 bd 9a 31 77 3f 78 b8 0f 3f fe 84 c2 bf
       -0.055129066 0.9656006 0.5614085 -1.5196836
000020 c9 53 9c bf
       -1.2213069

backbone.convs.37.weight f4 [1, 1, 7]
000000 0c 90 f3 be 8c 8f 47 3f 5a 50 0b be 74 e3 c9 3d
       -0.47570837 0.7795341 -0.1360487 0.09857836
000010 30 c1 9e be 40 11 ed 3c 20 0c 72 3c
       -0.31006765 0.02893889 0.014773399

backbone.convs.38.weight f4 [1, 1, 9]
000000 80 61 a5 3b 00 3f 41 bc 1c 18 cd 3f 69 0c 8e bf
       0.0050470233 -0.0117948055 1.6022983 -1.1097537
000010 86 a5 ab 3e a0 f5 9c 3c 98 09 f5 bf 3a 6e a2 3f
       0.33524722 0.019160092 -1.9143553 1.2689888
000020 88 83 47 be
       -0.19483769

backbone.convs.39.weight f4 [1, 1, 11]
000000 36 b9 eb bf 08 22 4f 3f 7d dc a7 3e c9 d1 3b 3e
       -1.8415897 0.809113 0.32785407 0.18341745
000010 b8 94 e3 be 3b e4 98 bf e7 75 b6 3f 0d 0a 99 3f
       -0.444494 -1.194465 1.4254731 1.1956192
000020 1a a2 25 bf 84 58 20 3d b0 74 16 3e
       -0.6470047 0.039146915 0.1469295

backbone.convs.40.weight f4 [1, 1, 9]
000000 b2 7a 49 be 68 d2 43 3f b0 8e 12 bf 64 36 08 bf
       -0.19675711 0.7649293 -0.57248974 -0.53207994
000010 2a a8 2d 3f 91 6e a0 be 7c 1f e8 3d 3c 0d 16 bf
       0.67834723 -0.31334355 0.1133413 -0.58613944
000020 c7 e9 24 3f
       0.64419216

backbone.convs.41.weight f4 [1, 1, 11]
000000 48 eb 0c bf df b9 2d bf ca 18 0c bf 44 3d 96 bf
       -0.5504651 -0.6786174 -0.54725325 -1.1737447
000010 a0 b3 00 3e ac 63 0d 40 85 61 40 bf 57 92 26 3f
       0.12568521 2.2092085 -0.75148803 0.65067047
000020 a9 1b 10 3f cc b4 6a 3e 44 e6 9b bd
       0.56292206 0.22920531 -0.07612279

backbone.convs.42.weight f4 [1, 1, 7]
000000 c5 c5 9c bf f4 d6 14 bf f5 d6 e9 3e a3 2e 86 3f
       -1.2247854 -0.5814049 0.45671812 1.0482982
000010 dc 68 4f be dc 8e a8 be 66 3b 55 3f
       -0.20254844 -0.32921493 0.8329376

backbone.convs.43.weight f4 [1, 1, 9]
000000 d0 30 92 be 08 88 23 3f 1c 8a f1 bd 8d 3d 2b 3f
       -0.28552866 0.6387944 -0.117939204 0.66890794
000010 fe 3e ab 3e 3f 2a 5a 3e a7 02 5b bf 30 28 cf be
       0.33446497 0.21305178 -0.8555092 -0.40460348
000020 e4 3c 44 be
       -0.19163853

backbone.convs.44.weight f4 [1, 1, 11]
000000 94 06 86 bc 18 08 52 bf c3 c5 8f 3f 78 0e 6a bc
       -0.016360559 -0.820436 1.1232227 -0.014285676
000010 c4 45 08 3e 36 07 c3 bf dc 74 e1 3f 5d 0c 16 bf
       0.13307863 -1.5236576 1.7613788 -0.58612615
000020 8f 94 86 bf 96 6f 2f 3f 49 5c 9e 3e
       -1.0514086 0.6852964 0.30929783

backbone.convs.45.weight f4 [1, 1, 7]
000000 ac 7e 5a be 84 ed 76 3f d8 82 dd 3e 1f 88 5f 3f
       -0.21337384 0.9645617 0.43263888 0.8731708
000010 86 c9 75 be 96 fa bd bf b1 5f aa be
       -0.24002656 -1.4842098 -0.33276132

backbone.convs.46.weight f4 [1, 1, 11]
000000 dd ea 2b 3e 5a d9 39 3f ef e1 5f 3f 8c a9 02 3f
       0.16788812 0.7259728 0.8745412 0.5103996
000010 9c cb dc be bb 0c 4f 3f ed 72 b3 bf e8 6d 97 bf
       -0.43124092 0.808788 -1.4019448 -1.1830416
000020 74 db 2f bf d0 74 bf be 0d 51 7d 3f
       -0.68694234 -0.37393808 0.989518

backbone.convs.47.weight f4 [1, 1, 9]
000000 98 63 b3 3e b4 52 b4 be 8d 7d a1 3f 98 f6 95 bd
       0.35036922 -0.35219347 1.261644 -0.07322425
000010 d3 b3 1a bf ee 74 3f 3f 64 1c d1 3e 3a 70 78 3f
       -0.6043064 0.74787796 0.40841973 0.97046244
000020 10 61 2d c0
       -2.7090492

backbone.convs.48.weight f4 [1, 1, 7]
000000 1d 49 4c bf 04 04 e4 3f 9c cb cc 3e fa dc b7 bf
       -0.7979906 1.7813725 0.39999092 -1.4364312
000010 a0 fc ca bf b4 19 6b 3f c2 74 38 3f
       -1.5858345 0.91836095 0.7205316

backbone.convs.49.weight f4 [1, 1, 9]
000000 ea b5 82 bf a8 21 6d be ea 75 b6 3e 9f ff fd be
       -1.0211766 -0.2315737 0.35636836 -0.49609086
000010 c5 dc 5a bf f2 99 6f 3e 01 fe a8 3f 75 a4 83 3f
       -0.8549312 0.23398569 1.3202516 1.0284563
000020 1c ab ab be
       -0.33528984

backbone.convs.50.weight f4 [1, 1, 7]
000000 e8 1a 15 3f 7e f2 ef be 5b 0d 59 bf 4f be 08 40
       0.5824418 -0.46864694 -0.84786004 2.1366155
000010 52 b9 cc be f0 74 87 be 6d f6 3c bf
       -0.39985138 -0.26456404 -0.73813516

backbone.convs.51.weight f4 [1, 1, 11]
000000 04 b2 d8 be 88 ef b4 bf b7 92 e1 3f f0 9d 15 3f
       -0.42323315 -1.4135599 1.7622899 0.5844412
000010 18 d1 71 be 1b c7 95 3e ab f3 0b 3f b3 78 e0 3e
       -0.23614919 0.29253468 0.5466868 0.43842086
000020 42 b6 d1 bf 3e de 53 bf 25 20 6a 3f
       -1.6383746 -0.8276099 0.914553

backbone.convs.52.weight f4 [1, 1, 11]
000000 a7 09 e0 be f0 dd 81 3c cb c4 d0 3e 6c a4 1e bf
       -0.43757364 0.015852898 0.4077514 -0.6196964
000010 e1 86 c0 be 27 f3 e7 be 81 15 0f 3f da ba 04 bf
       -0.37602904 -0.45302698 0.5589219 -0.5184761
000020 74 0b 74 bf de 20 af 3f fe f1 80 3f
       -0.95329976 1.3681905 1.007385

backbone.convs.53.weight f4 [1, 1, 7]
000000 5b 39 f7 be a8 38 a6 bf 64 d0 92 3f 0a 09 e8 3f
       -0.48285946 -1.298604 1.1469846 1.8127759
000010 40 88 7c 3c 80 20 a1 bf 20 50 85 3d
       0.015413344 -1.2588043 0.06509423

backbone.convs.54.weight f4 [1, 1, 9]
000000 ac 06 c5 3e c0 d2 2b 3f 0c 56 90 3e 23 de 76 bf
       0.38481653 0.67118454 0.2819065 -0.96432704
000010 08 ec a8 bf 8d 9d 7b 3f a0 b1 71 3e 84 e6 c1 be
       -1.3197031 0.9828728 0.23602915 -0.37871182
000020 12 f3 d8 3d
       0.10593237

backbone.convs.55.weight f4 [1, 1, 9]
000000 a6 d2 a1 bf 44 83 87 3f 78 8b 34 3e 1f 40 45 3f
       -1.264241 1.0586934 0.17631328 0.77050966
000010 1c 3c 71 be 32 c5 ea be 12 ca d3 be f5 a4 2a bf
       -0.23558086 -0.45853573 -0.41365105 -0.66657954
000020 b3 3b 84 3f
       1.0330719

backbone.convs.56.weight f4 [1, 1, 7]
000000 38 44 96 bc 90 f3 45 c0 f3 e0 3f 3f e7 7d a7 bf
       -0.018343076 -3.0929909 0.7495262 -1.3085297
000010 e1 79 93 3e 57 d4 e8 3f ce 1a c8 3f
       0.28803924 1.8189801 1.563318

backbone.convs.57.weight f4 [1, 1, 11]
000000 20 89 39 3f cd 49 10 3f ea 31 fd 3f e2 f9 02 bf
       0.7247486 0.5636261 1.9780858 -0.5116254
000010 dc 3f 93 3f 31 3f 8a be 1c 29 8a 3f e4 19 52 bf
       1.1503863 -0.27001336 1.0793796 -0.82070756
000020 7c 27 65 bf fa 00 ec bf f3 d5 93 bf
       -0.89513373 -1.8437798 -1.1549667

backbone.convs.58.weight f4 [1, 1, 7]
000000 9e fe be 3e 7a a1 10 be 3d 25 47 3f 79 69 52 bf
       0.37303632 -0.14124098 0.77791196 -0.8219219
000010 54 4d 24 be fc bd 00 c0 48 fc fd 3f
       -0.16045123 -2.0115957 1.9842615

backbone.convs.59.weight f4 [1, 1, 9]
000000 e0 13 bb bd a8 f8 b0 3d eb 11 26 bf 8c b4 80 3f
       -0.0913465 0.086411774 -0.6487109 1.0055099
000010 10 69 11 3e 40 e2 cb 3c 56 e9 01 3e 90 96 95 be
       0.14200234 0.024888158 0.12686667 -0.29216433
000020 52 f8 b4 be
       -0.35345703

backbone.convs.60.weight f4 [1, 1, 11]
000000 3c 74 14 3e 1d 6b 64 bf ac 41 d5 3d 8b ba cc bf
       0.14497465 -0.8922594 0.104129165 -1.5994428
000010 2c f5 50 be 28 dc 23 be d2 31 e8 3d 61 f3 f0 3e
       -0.20406026 -0.16001952 0.113376275 0.47060683
000020 d6 53 0a 3d 88 0a 6d 3f ca 0f 88 3f
       0.03377136 0.92594194 1.0629818

backbone.convs.61.weight f4 [1, 1, 11]
000000 0c bb 1f 3f e6 a6 e6 bf 7c 72 63 3f dc f2 f5 bd
       0.62394786 -1.8019683 0.88846564 -0.120092124
000010 66 6a 33 be 0e ab 1d 3f 50 1b e8 bc 4e 7e 72 3f
       -0.17521057 0.61589134 -0.028333336 0.94723976
000020 00 d7 3f bd 64 27 ac bf e4 39 e2 3e
       -0.0468359 -1.3449521 0.44184792

backbone.convs.62.weight f4 [1, 1, 7]
000000 bc 5f c8 bf 52 aa 34 3f 94 de f1 3f c4 65 93 bf
       -1.5654216 0.7057239 1.889605 -1.1515431
000010 c0 de 77 3d 20 16 d1 bd 6e 21 27 3e
       0.060515165 -0.10209298 0.16321346

backbone.convs.63.weight f4 [1, 1, 9]
000000 e4 0a ba be eb cc e8 3e 2b 2e 81 bf 16 cc 55 be
       -0.36336434 0.4546884 -1.0092214 -0.20878634
000010 10 6c 00 3f 8b 8d d3 3e 4a d8 dd be 5d ec 6c 3f
       0.5016489 0.41318926 -0.43329078 0.9254816
000020 6b 89 8f be
       -0.2803453

backbone.convs.64.weight f4 [1, 1, 7]
000000 f4 4e e9 be 3f af c5 be af 39 65 bf f9 c7 2c 3f
       -0.4556805 -0.38610265 -0.89541143 0.67492634
000010 ab a0 15 bf bc 22 d6 3e 0e 40 9d 3f
       -0.58448285 0.41823375 1.2285173

backbone.convs.65.weight f4 [1, 1, 9]
000000 97 c0 d1 3e e0 81 2c 3e bc 12 1a be e4 3c 02 40
       0.40967247 0.16846418 -0.15046209 2.0349665
000010 8e 5d 36 bf c8 06 ab bd c1 cc e1 bf da e6 59 bf
       -0.71236503 -0.08350903 -1.7640611 -0.85117877
000020 24 cf 72 3f
       0.9484732

backbone.convs.66.weight f4 [1, 1, 9]
000000 34 1e 6e 3f bb 89 11 c0 4d 93 1f 3f 9e 2e b7 3f
       0.93014836 -2.2740314 0.6233414 1.4311101
000010 b0 81 65 bf 3f cf 5a 3e bc be 26 bf 60 b4 14 3e
       -0.8965101 0.2136812 -0.6513479 0.14521933
000020 5d ef f4 3e
       0.4783887

backbone.convs.67.weight f4 [1, 1, 11]
000000 14 79 bc bf 2f 0b 2e 3f 96 d2 e1 3e 89 f8 0e bf
       -1.472445 0.67985815 0.44105977 -0.55847985
000010 a7 d2 d9 3f 17 22 02 bf 08 77 1d 3f c6 e5 6c 3e
       1.7017411 -0.50833267 0.6150975 0.23134527
000020 28 c3 fc bd 01 4c 8c bf 7e 97 b7 3d
       -0.123419106 -1.0960695 0.08964442

backbone.convs.68.weight f4 [1, 1, 9]
000000 e3 38 0f 3f 8a e7 b3 3e 30 cd d1 bc 40 90 84 3c
       0.5594618 0.35137588 -0.025610536 0.016182065
000010 fd 31 63 bf 00 5a 78 3a 12 47 bc be 0c fc 0a 3f
       -0.8874815 0.000947386 -0.36772972 0.54290843
000020 7c 9d 42 be
       -0.19005388

backbone.convs.69.weight f4 [1, 1, 9]
000000 05 9e 5b 3f fc 22 f4 3e 70 0c 0f bf 97 26 93 3f
       0.85787994 0.4768294 -0.55878353 1.1496152
000010 fb e2 13 bf d1 e8 1e be 66 ac aa 3f ef ed f4 bf
       -0.5776822 -0.155185 1.3333862 -1.9135112
000020 fe cf 1c bf
       -0.6125487

backbone.convs.70.weight f4 [1, 1, 9]
000000 96 18 9a bf dd 31 1e 40 a2 70 6f bf 29 9f 91 bf
       -1.2038753 2.4717934 -0.9353124 -1.1376697
000010 9b 13 85 3f 8a e6 1b bf 99 df a4 3e a2 c1 16 bf
       1.0396608 -0.6089865 0.3220184 -0.5888921
000020 d6 29 24 3f
       0.64126337

backbone.convs.71.weight f4 [1, 1, 7]
000000 60 2b 24 3f c0 60 bc 3d 82 43 95 bf 76 96 8c bf
       0.64128685 0.09198141 -1.1661227 -1.0983417
000010 d3 89 b6 3f d2 53 94 3f 68 df 86 bf
       1.4260811 1.158808 -1.0536928

backbone.convs.72.weight f4 [1, 1, 9]
000000 d8 78 b1 be dd 7d 75 bf d6 dc d7 be 97 d4 6a be
       -0.3466251 -0.9589518 -0.42160672 -0.22932659
000010 24 4f 2d 3c 3f 58 80 3f e5 89 5e be b2 73 54 3e
       0.010577951 1.002693 -0.2173229 0.2074726
000020 aa fd 73 3f
       0.95308936

backbone.convs.73.weight f4 [1, 1, 9]
000000 a2 b5 8d bd 90 88 4a bf 66 8a 2e bf e5 0e cc 3f
       -0.06919409 -0.7911463 -0.6817993 1.5942045
000010 5f d7 1d bf 4d a9 88 3e 92 49 4c be f9 3f 48 3f
       -0.61656755 0.26691666 -0.1994994 0.78222615
000020 f6 fd 91 be
       -0.2851407

backbone.convs.74.weight f4 [1, 1, 7]
000000 70 fe cc bf 5d d4 bf bd 7a 54 3c bf 87 8b ec 3e
       -1.6015148 -0.09366677 -0.735664 0.462002
000010 15 1f ca 3f 56 22 05 3f 6c 69 05 be
       1.5790735 0.5200552 -0.13028497

backbone.convs.75.weight f4 [1, 1, 7]
000000 70 d2 08 bd b6 90 86 3f 68 c0 72 bf 17 26 53 3f
       -0.033403814 1.0512912 -0.9482484 0.82479995
000010 0a 88 37 bf 0c 08 74 be 70 01 79 3d
       -0.71691954 -0.23831195 0.060792387

backbone.convs.76.weight f4 [1, 1, 11]
000000 38 ad 54 bf d2 d0 87 3f d1 ed 38 bf cc df ea 3f
       -0.8307681 1.0610602 -0.7223788 1.8349547
000010 77 c6 75 bf 16 cc 82 3e 73 59 17 c0 ea 96 d7 bf
       -0.9600596 0.2554633 -2.3648345 -1.684293
000020 4e 93 92 3f 8a 5e bb 3e f8 2b f3 3f
       1.1451204 0.36595565 1.8997793

backbone.convs.77.weight f4 [1, 1, 7]
000000 45 99 c8 3e a4 0b 05 3e 18 a5 7e be e5 d9 31 bf
       0.39179435 0.12992722 -0.24867666 -0.69473106
000010 cd ed c6 3e 41 c9 28 bf f9 45 31 3f
       0.38853303 -0.6593209 0.69247395

backbone.convs.78.weight f4 [1, 1, 9]
000000 97 cb 10 3f 20 0d 5d 3d 25 c1 42 bf 6a bc 66 bf
       0.56560653 0.053967595 -0.76075965 -0.9013125
000010 21 f7 86 be ac 73 22 3f 40 cf ff be e0 ef 52 3f
       -0.2636042 0.6345775 -0.49962807 0.8239727
000020 98 c1 b1 3e
       0.34718013

backbone.convs.79.weight f4 [1, 1, 7]
000000 a8 01 2b bf c9 e1 93 3f 65 aa d5 bf 46 27 95 3f
       -0.667994 1.1553279 -1.6692625 1.165261
000010 43 8f c7 be 72 ee 97 bf 6d f4 cb 3f
       -0.38976488 -1.1869643 1.5933968

backbone.convs.80.weight f4 [1, 1, 7]
000000 42 29 0a be b4 83 07 be 84 ac 26 3f 02 db 0b 3e
       -0.13492301 -0.13233835 0.6510699 0.13657764
000010 4d bb 92 3f 13 9f 04 c0 55 9b cf 3e
       1.146341 -2.0722091 0.40548196

backbone.convs.81.weight f4 [1, 1, 11]
000000 69 26 8a 3e d3 59 14 bf 29 ac b6 3f b8 ef 9a bf
       0.2698243 -0.5794956 1.4271289 -1.2104406
000010 98 e1 7b 3e 8e ea 24 3e b0 72 37 3f 33 2a 47 bf
       0.24597776 0.161051 0.71659374 -0.77798766
000020 38 42 b0 3e d2 b1 34 3e 53 fb 45 bf
       0.3442552 0.17645958 -0.77336615

backbone.convs.82.weight f4 [1, 1, 9]
000000 d3 26 3e 3f b3 ad 6e be 1d 13 1e 3f e9 dc e6 3f
       0.7427799 -0.23308448 0.61747915 1.8036166
000010 57 d7 0f c0 f5 0b 0d bf 50 78 94 be 96 44 4c 3e
       -2.2475183 -0.5509637 -0.2899804 0.19948038
000020 24 40 2b bd
       -0.041809216

backbone.convs.83.weight f4 [1, 1, 9]
000000 7e 18 90 3e 1c 4d da bf e4 7f ec bd 34 12 29 be
       0.28143686 -1.7054782 -0.11547831 -0.1651085
000010 e1 ef a6 3e ba 32 57 3f 30 40 a8 3e ed 85 de 3e
       0.32604888 0.8406178 0.3286147 0.43461552
000020 d8 ac 66 be
       -0.22526872

backbone.convs.84.weight f4 [1, 1, 9]
000000 70 cb 08 3e ae 92 93 bf ae 10 d6 be fe 63 46 3e
       0.13358855 -1.1529138 -0.418096 0.19374081
000010 b4 50 96 3f 42 e7 3c be f3 3f 5c bf 3b 86 a4 3e
       1.1743379 -0.18447593 -0.8603508 0.3213366
000020 15 f7 4a 3f
       0.7928327

backbone.convs.85.weight f4 [1, 1, 9]
000000 6a e0 a3 3f d6 9d 80 be 51 c0 08 3f 5d a6 a4 3e
       1.2802861 -0.2512042 0.5341845 0.32158175
000010 80 ca b6 3e 48 03 16 be 6e 4e b0 bf 1c 85 d7 be
       0.3570137 -0.14649689 -1.3773935 -0.42093742
000020 ce 14 98 be
       -0.29703373

backbone.convs.86.weight f4 [1, 1, 9]
000000 87 7f 43 bf 0d 4e b3 bf 01 53 c2 3f 39 02 32 3e
       -0.76366466 -1.4008194 1.5181581 0.1738366
000010 37 b9 88 be 95 5a b3 bf 0c 20 9b 3f f8 78 85 3e
       -0.26703808 -1.4012018 1.2119155 0.26068854
000020 44 0a 2b 3f
       0.6681254

backbone.convs.87.weight f4 [1, 1, 11]
000000 83 50 c2 3e a7 4d 05 be a0 99 44 bf 92 ef 7a 3f
       0.3795205 -0.13017903 -0.76796913 0.98021805
000010 72 ce 5e bf 4f ca c8 3e 43 f2 ff 3f de 64 4b bf
       -0.8703376 0.3921685 1.9995807 -0.79450786
000020 4e f8 b0 3e fb 4f ac bf 64 75 40 be
       0.3456444 -1.3461908 -0.18794781

backbone.convs.88.weight f4 [1, 1, 7]
000000 34 c7 4b bf 1e c1 5d bf 7b 9e 27 3f f7 87 15 c0
       -0.79600835 -0.866228 0.65476197 -2.3364236
000010 2e fd 07 40 e6 95 63 3f 2a fe a8 3e
       2.1248279 0.889006 0.33006412

backbone.convs.89.weight f4 [1, 1, 9]
000000 80 fa 7b 3e 66 d4 54 bf 24 89 55 bf b2 0e a3 3f
       0.24607277 -0.83136594 -0.83412385 1.273886
000010 06 1e f5 bf 9c e0 4f be a9 a8 a6 3f 8e 1e 90 3d
       -1.9149787 -0.20300525 1.3020221 0.07037078
000020 98 20 64 3f
       0.89112234

backbone.convs.90.weight f4 [1, 1, 9]
000000 e0 13 e8 3c a9 0a a7 bf 88 99 7a 3e ae 0c 0c be
       0.02832979 -1.3050128 0.2447263 -0.13676712
000010 3e 1c 0c 3f 2e e3 53 3f 08 76 2b bf a8 ec 81 bd
       0.54730594 0.82768524 -0.66976976 -0.06343967
000020 b4 e5 06 3f
       0.5269425

backbone.convs.91.weight f4 [1, 1, 9]
000000 f7 79 07 bf f7 b9 ce 3e 4c b3 7b 3e dc 9e 8e 3f
       -0.5292048 0.40376255 0.24580115 1.114223
000010 95 17 c6 3e f2 46 bb be a8 58 e5 3d 4b b9 2e bf
       0.38689867 -0.36577564 0.111985505 -0.68251485
000020 ad 67 2f bf
       -0.6851757

backbone.convs.92.weight f4 [1, 1, 7]
000000 8e a4 f8 be 28 15 48 3f 71 f7 57 be 20 8d 18 bf
       -0.48563045 0.7815728 -0.21090485 -0.5959034
000010 38 9e 3a bf ef 3a e9 3e dc c8 48 3f
       -0.7289767 0.45552775 0.7843149

backbone.convs.93.weight f4 [1, 1, 7]
000000 43 90 4a bf bd ce 9d 3f 9b 17 19 bf 80 18 96 bc
       -0.79126376 1.2328717 -0.59801644 -0.01832223
000010 e5 ae 2c bf 6d 6f ad bf 3a 12 0d 40
       -0.6745437 -1.354963 2.2042375

backbone.convs.94.weight f4 [1, 1, 7]
000000 98 08 bc be ab fb 4d be 67 68 70 be e5 a7 9c 3f
       -0.36725307 -0.20115535 -0.23477326 1.2238737
000010 9f 10 19 3f bb 2d 4c be aa b7 51 bf
       0.59790987 -0.1993932 -0.81920874

backbone.convs.95.weight f4 [1, 1, 11]
000000 75 91 bc 3e b6 ee e6 bf a6 3d c1 3f e4 8d 9b bf
       0.36829725 -1.8041599 1.5096939 -1.2152677
000010 02 cc 59 3f 3d 21 93 3e 50 e7 32 3f 05 ea 8e be
       0.85076916 0.28736296 0.69884205 -0.27912918
000020 cd ad 9e 3f e2 60 0e c0 2a 8e 11 3f
       1.239679 -2.2246633 0.5685755

backbone.convs.96.weight f4 [1, 1, 9]
000000 5c 23 ec bf f4 56 ad 3f 28 d5 8d 3f 06 ea 30 bf
       -1.8448291 1.3542161 1.1080675 -0.6910709
000010 52 15 f9 bf 79 5a 27 bf da 99 8f 3f 2c 92 4d 3d
       -1.9459631 -0.65372425 1.1218827 0.05018823
000020 68 28 c0 3f
       1.5012331

backbone.convs.97.weight f4 [1, 1, 9]
000000 1a d5 12 c0 08 79 02 3f 56 7a 3c 3f 18 d4 43 3f
       -2.2942567 0.5096593 0.7362417 0.76495504
000010 50 0e 74 3d 9f 2a ee be 30 d7 9d 3c e2 5a 2e 3f
       0.059583962 -0.46516892 0.019267648 0.68107426
000020 e0 10 3a bc
       -0.011356562

backbone.convs.98.weight f4 [1, 1, 9]
000000 e3 da 99 3f 1a 00 6e bf 31 21 5e 3f 48 5b e8 bf
       1.2019924 -0.92968905 0.86769396 -1.8152857
000010 20 a7 e6 3f 77 1b 60 3f 48 e5 95 bf b6 04 d6 3d
       1.8019753 0.8754191 -1.1710596 0.10450117
000020 09 80 6f bf
       -0.9355474

backbone.convs.99.weight f4 [1, 1, 7]
000000 6d 70 7b 3e 22 08 07 3f 0a 68 40 3f f0 11 05 bf
       0.24554606 0.52746785 0.7515875 -0.51980495
000010 aa 1d 3e 3e e3 49 e5 3e 58 b3 d1 bf
       0.18566003 0.44782934 -1.6382856

backbone.convs.100.weight f4 [1, 1, 11]
000000 e1 af 0e 40 12 b0 67 bf e9 61 b4 bf 5e 50 05 3d
       2.2294848 -0.90503037 -1.409238 0.032547347
000010 fd f3 11 3f ea 5c ea be f9 c6 71 3f 9c 5d b1 be
       0.5701292 -0.45774013 0.94444233 -0.3464173
000020 90 2c 5a be 22 14 23 bf b2 83 44 3e
       -0.21306062 -0.63702595 0.19190863

backbone.convs.101.weight f4 [1, 1, 11]
000000 6b 97 19 be 44 5c b6 bf a8 48 ab 3f 8c 5c aa 3e
       -0.14999168 -1.4246907 1.3381548 0.33273733
000010 bb 5b 3c bf cf 3f 2c 3f 21 dc 21 bf 56 c6 ff 3f
       -0.7357747 0.67284864 -0.63226515 1.9982402
000020 fc 07 45 3e b5 34 94 bf d6 1c de be
       0.19241327 -1.1578585 -0.43381375

backbone.convs.102.weight f4 [1, 1, 11]
000000 87 8f ac bf 96 21 92 bf 39 d1 36 3f d2 c4 ef bf
       -1.3481301 -1.14165 0.71413 -1.873194
000010 7e 1c 75 bf ff 07 ac be df 36 e9 3f 99 2f a6 3f
       -0.957466 -0.3359985 1.821987 1.2983276
000020 d0 d5 c7 be 30 df b0 3e c2 f4 ee 3f
       -0.39030313 0.3454528 1.8668444

backbone.convs.103.weight f4 [1, 1, 11]
000000 14 2f d0 3e ab 19 6c bf a8 cf 93 be 91 32 98 be
       0.40660918 -0.92226666 -0.28869367 -0.2972608
000010 7e ea a5 3f 74 b9 c1 3e 02 48 08 3f b8 29 4b bf
       1.2962186 0.37836802 0.53234875 -0.7936053
000020 64 63 14 3f f0 22 52 3d 51 52 71 bf
       0.5796416 0.05130285 -0.9426623

backbone.convs.104.weight f4 [1, 1, 7]
000000 88 70 25 3d 5b 32 35 3f 70 db e7 3d 30 26 87 bd
       0.04039052 0.7077996 0.11321151 -0.065990806
000010 be 18 ba 3e db 3f c2 be 7c 8c 47 bf
       0.36347002 -0.37939343 -0.7794874

backbone.convs.105.weight f4 [1, 1, 11]
000000 fc 8d 5a bf 5e 4b 9f bf 29 e3 73 be ec 5a c2 bd
       -0.853729 -1.2444875 -0.23817123 -0.09489998
000010 b8 5d 4b 3f 7d c7 10 40 f4 c8 4f 3f 9c 39 7a be
       0.7943988 2.2621758 0.81166005 -0.24436039
000020 cd 9f 23 c0 bc 86 c8 3e 7e ee 78 3f
       -2.5566285 0.39165294 0.9723891

backbone.convs.106.weight f4 [1, 1, 9]
000000 e4 bb c9 bf 10 2f 34 be 00 74 18 bd e4 82 1c be
       -1.5760465 -0.17596078 -0.03722 -0.15284306
000010 68 30 e8 3e 32 ab e8 be 6b 0e 08 bf ac ba a5 3e
       0.4534943 -0.45443112 -0.53147 0.32368982
000020 83 a6 09 40
       2.150788

backbone.convs.107.weight f4 [1, 1, 11]
000000 9d f2 d5 be cf 3d b4 3e ee 8a 3a bd 26 63 8e be
       -0.41786662 0.35203406 -0.04554265 -0.2781002
000010 92 7f a7 bf bc 2c 2d 3d 91 d1 6b 3e a2 52 bc 3f
       -1.3085806 0.04227899 0.23029162 1.4712718
000020 c3 37 c7 3e 41 88 84 be ac 41 34 be
       0.3890973 -0.25885203 -0.17603177

backbone.convs.108.weight f4 [1, 1, 11]
000000 90 08 42 be 2b da 1d 40 6c ca 10 3f 29 6e 26 be
       -0.18948579 2.466441 0.5655887 -0.1625296
000010 0e 9c 95 3f e8 07 4e bf a7 b0 14 3f 75 3d a1 be
       1.1688249 -0.80480814 0.5808205 -0.314922
000020 b6 23 73 bf 9b f6 c2 bf a3 46 56 bf
       -0.94976366 -1.5231508 -0.83701533

backbone.convs.109.weight f4 [1, 1, 9]
000000 9d d7 08 40 5d bc dc 3e 68 e9 19 bf f6 ba 62 bf
       2.13816 0.4311246 -0.60121775 -0.8856653
000010 98 ca 88 3e 41 86 18 3f 34 28 f3 3e aa 56 3a bf
       0.26717067 0.59579855 0.4749161 -0.7278849
000020 a0 a0 d8 bf
       -1.6924019

backbone.convs.110.weight f4 [1, 1, 11]
000000 28 4f c9 be 07 dc 1a 3f c8 e7 e4 be 16 ce 14 bf
       -0.39318204 0.60491985 -0.44708085 -0.5812696
000010 cb 83 86 3f 27 f8 84 3f cc c0 85 be 92 f3 ef be
       1.050897 1.038823 -0.26123655 -0.46865517
000020 82 3e 87 be a2 5c ca 3e 39 9f 2c bf
       -0.26414877 0.39523798 -0.67430454

backbone.convs.111.weight f4 [1, 1, 9]
000000 9c c2 0f bf 8c e0 ee 3e 69 01 ce be fc a3 29 bf
       -0.56156325 0.4665569 -0.4023545 -0.66265845
000010 f7 b6 a0 3f 26 09 61 bf b5 b1 44 3f 40 5d 09 3c
       1.2555836 -0.87904584 0.7683366 0.008384049
000020 e0 89 dd 3b
       0.0067608207

backbone.convs.112.weight f4 [1, 1, 9]
000000 44 23 c5 3e 78 f1 86 be 44 a9 1f 3f 5e ff 14 c0
       0.38503468 -0.263561 0.62367654 -2.3280864
000010 d8 5e e4 3c c5 3a d7 3f 70 b5 7d 3f 13 9b ec be
       0.027877256 1.681481 0.99104977 -0.46212062
000020 1c c5 27 bf
       -0.6553514

backbone.convs.113.weight f4 [1, 1, 11]
000000 b8 5c 85 3e 26 10 90 3e 9c 6c 2c bf 90 3b 59 3e
       0.260473 0.2813732 -0.67353225 0.21214128
000010 a3 62 20 3f 88 89 f4 3d 96 4c 6a bf 5c 7f 51 bf
       0.6265051 0.119402945 -0.9152311 -0.8183496
000020 33 9f cc be 9a 2a 45 bf 67 ee 04 40
       -0.3996521 -0.7701813 2.077051

backbone.convs.114.weight f4 [1, 1, 9]
000000 40 f5 b3 3c b0 2b 21 3d d6 b1 b1 bf 31 6f 29 bf
       0.02196753 0.039348304 -1.3882396 -0.6618529
000010 c8 a9 95 3f ec a5 3d 3e 7c 82 2d be ae 04 1f 3f
       1.1692438 0.18520325 -0.16944307 0.62116516
000020 70 fd 3a 3e
       0.18260741

backbone.convs.115.weight f4 [1, 1, 9]
000000 36 66 ad bf dc ca d5 bf a5 c1 8f 3f 5e 85 0d 3f
       -1.3546817 -1.6702533 1.1230971 0.5528163
000010 d2 02 a9 3f 63 ec 36 3f 0d 36 2c be 64 b7 03 3d
       1.3203986 0.7145445 -0.16817494 0.032157317
000020 7a c6 0c bf
       -0.5499035

backbone.convs.116.weight f4 [1, 1, 9]
000000 28 20 15 3f b8 c6 30 3d a4 32 94 be ec 17 80 be
       0.5825219 0.043158263 -0.28944886 -0.2501825
000010 b4 5f b7 bd 36 a0 97 bf e1 ab 78 be f6 7b 46 bf
       -0.08953801 -1.1845767 -0.24284317 -0.775329
000020 00 33 0d 40
       2.2062378

backbone.convs.117.weight f4 [1, 1, 9]
000000 9e b2 35 be cb fb 8f bf 67 fe 84 be 84 73 01 bf
       -0.17743918 -1.1248716 -0.25975344 -0.5056689
000010 23 be 80 3f 3c ef 9f 3e a7 88 86 bf 12 2e 56 3f
       1.0058025 0.3123721 -1.0510453 0.8366405
000020 4a c6 76 3f
       0.96396315

backbone.convs.118.weight f4 [1, 1, 11]
000000 d4 b5 16 3e a6 05 e2 3e ca 7f 84 be 58 1c ba bd
       0.147178 0.44144934 -0.25878745 -0.090874374
000010 5a a9 f4 3e e3 33 78 3f 78 19 8a 3f 9f ce 23 c0
       0.47785455 0.9695417 1.0789022 -2.5594862
000020 fa 1d a5 bf ae a2 bb 3f 92 6e c3 be
       -1.2899773 1.4659021 -0.38170296

backbone.convs.119.weight f4 [1, 1, 11]
000000 32 dc a5 3f 82 5d d7 be 48 de 75 3f 98 2d 20 3e
       1.2957823 -0.42063528 0.960423 0.15642393
000010 6e e7 e0 3e b8 86 b4 bf 15 18 05 c0 ec b1 a6 3f
       0.43926567 -1.4103613 -2.0795949 1.3023047
000020 11 84 2f bf f0 c2 ee 3f 74 2f b6 bf
       -0.6856089 1.865324 -1.4233232

backbone.convs.120.weight f4 [1, 1, 7]
000000 29 a1 68 3e 8f a9 77 3e 1e fb 48 3f 08 3e e8 bf
       0.22717728 0.24185775 0.78508174 -1.814393
000010 68 e6 b1 bd 86 60 03 3c 8e 9d 23 3f
       -0.08686525 0.008018618 0.63912284

backbone.convs.121.weight f4 [1, 1, 11]
000000 14 48 7e 3f ce 19 d5 3e a8 78 c1 be 21 b2 b3 be
       0.9932873 0.4162125 -0.37787366 -0.3509684
000010 a1 27 da bf 25 ce a6 be ea 5a 9d 3f bf df 27 bf
       -1.7043344 -0.3257915 1.229337 -0.65575784
000020 29 10 4a bf ec 4a d7 3f 07 28 ef bd
       -0.7893091 1.6819739 -0.116775565

backbone.convs.122.weight f4 [1, 1, 11]
000000 50 18 4b 3f 7c 64 bc 3f 26 1f 84 bf ea 09 1a 3f
       0.7933397 1.4718165 -1.0322006 0.6017138
000010 10 d0 9e bd 5e 15 94 bf 19 73 f0 3e af 2d 14 3f
       -0.077545285 -1.1569021 0.46962813 0.5788221
000020 35 6c c4 3f 14 2b 00 be 42 b7 43 c0
       1.5345522 -0.12516433 -3.0580602

backbone.convs.123.weight f4 [1, 1, 7]
000000 5e 9c de 3f de 28 7d 3f 55 ee 73 bf 02 6c 83 3f
       1.739147 0.98890483 -0.9528554 1.0267336
000010 00 15 95 bf c6 e8 cd bf 9e f7 e9 bc
       -1.1647034 -1.6086662 -0.028560456

backbone.convs.124.weight f4 [1, 1, 7]
000000 20 9e 4e be 08 ad c7 3e 1e 46 7d bf 77 76 2b 3f
       -0.20177507 0.389992 -0.98935115 0.6697764
000010 78 80 d0 be bb 76 ec 3f 43 86 a7 bf
       -0.40723014 1.8473734 -1.3087848

backbone.convs.125.weight f4 [1, 1, 7]
000000 4c 41 e3 3f 63 0c 0d be 40 1b d2 bd 57 34 39 3f
       1.7754302 -0.13774256 -0.10259104 0.7234549
000010 6f c2 52 bf f6 ce d7 3e bc aa ed bf
       -0.8232793 0.42150086 -1.8567729

backbone.convs.126.weight f4 [1, 1, 9]
000000 66 c8 9b bf 1c 8d d8 3e 7c e0 b6 3f 17 e4 05 c0
       -1.2170532 0.42295158 1.4287257 -2.0920465
000010 0e 46 d2 3f 00 bb 06 bb 0e 16 97 bf 00 c8 63 3f
       1.6427629 -0.0020558238 -1.1803606 0.8897705
000020 e4 c2 db 3d
       0.10730532

backbone.convs.127.weight f4 [1, 1, 7]
000000 c6 f8 76 bf 22 a5 a3 be 4b f0 e1 3e ce fd 0c 40
       -0.9647335 -0.31961924 0.4412864 2.202991
000010 ae 7e 94 be 41 0e a8 bf 54 df 78 3e
       -0.290029 -1.312935 0.24303943

backbone.convs.128.weight f4 [1, 1, 7]
000000 6d 3b b9 be b0 06 4e bf 48 b6 0f 3e 62 6f b7 3f
       -0.3617815 -0.80478954 0.14034379 1.4330866
000010 a4 7e 3c 3e 19 39 36 3f 5a c0 a6 bf
       0.18407685 0.71180874 -1.3027451

backbone.convs.129.weight f4 [1, 1, 11]
000000 a7 c3 5e bf d1 6b 31 3f 52 4b bb bf b8 21 f2 3e
       -0.8701729 0.6930514 -1.4632361 0.4729135
000010 9e 5d c6 3f 08 84 15 bf c0 7c e3 bc 3d fb 25 bf
       1.549732 -0.5840459 -0.027769446 -0.64836484
000020 d7 33 2c 3f ef db 6d 3e e8 a8 dd bc
       0.672666 0.2322843 -0.02705808

backbone.convs.130.weight f4 [1, 1, 11]
000000 26 6a 50 be b0 06 bc bf 66 42 41 be 16 c2 08 bf
       -0.20352992 -1.4689541 -0.18872985 -0.5342115
000010 e0 27 9e bc 7e 92 74 3f 1c 4d 06 40 df b1 75 3e
       -0.019306123 0.9553603 2.0984564 0.23993634
000020 cb 5a c8 be bb 78 a2 be 1a 77 2e be
       -0.3913177 -0.31732735 -0.17037621

backbone.convs.131.weight f4 [1, 1, 7]
000000 b0 7c e4 3f f7 d8 28 3f c0 a5 7b bb 2f 34 b6 bf
       1.7850552 0.6595606 -0.0038398355 -1.4234675
000010 08 4c 91 bd d2 eb 7f bf 08 70 5a 3d
       -0.0709458 -0.9996921 0.053329498

backbone.convs.132.weight f4 [1, 1, 11]
000000 46 ca 0a bf 3c af 96 3f a1 5b 67 3f 36 52 7e bf
       -0.54214895 1.1772227 0.9037419 -0.99344194
000010 7c b4 60 bf b6 38 02 be 1a a3 8c bf 4d 3a 9a be
       -0.877754 -0.12716946 -1.0987275 -0.30122605
000020 06 42 ea 3f e2 80 3f be 65 92 5d 3e
       1.8301399 -0.18701509 0.21637876

backbone.convs.133.weight f4 [1, 1, 7]
000000 cf 9d 3c bf 99 36 6c 3f e1 ec a0 bf d1 a5 9b be
       -0.73678297 0.9227081 -1.257229 -0.30399945
000010 e5 47 53 3f dd d3 b3 bf db 39 fa 3f
       0.8253158 -1.404903 1.9548906

backbone.convs.134.weight f4 [1, 1, 7]
000000 25 06 99 3f 10 5d a3 3d 87 7e 3b c0 c0 1a 50 bd
       1.1955 0.07976735 -2.9295976 -0.05080676
000010 3a f5 43 bf 15 71 90 3f 73 cb ab 3f
       -0.7654606 1.128451 1.3421463

backbone.convs.135.weight f4 [1, 1, 7]
000000 9c 37 67 bf 0f 12 95 bf 9a a7 df 3e 80 32 73 3c
       -0.9031923 -1.1646136 0.43682557 0.014843583
000010 f6 41 bc 3f 18 9d 1a bf 4e d4 3f 3f
       1.470763 -0.60395956 0.74933326

backbone.convs.136.weight f4 [1, 1, 11]
000000 51 b6 5d bf c9 64 86 bf fe f8 e2 3e cd 10 62 3f
       -0.8660632 -1.0499507 0.4433059 0.88306886
000010 4e cd 80 3f 00 40 32 bb 46 62 ee 3e 72 76 22 bf
       1.0062654 -0.0027198792 0.46559352 -0.63461983
000020 45 58 35 bf a6 34 18 bf 3c 6e 87 3f
       -0.70837814 -0.59455335 1.0580516

backbone.convs.137.weight f4 [1, 1, 9]
000000 25 6b 75 be 52 37 e0 3e 1b 2e 3b 3f ed 17 bb 3f
       -0.23966654 0.43792206 0.73117226 1.4616677
000010 25 08 a3 bf 28 51 f6 3e 35 44 04 bf fd 0f 4a bf
       -1.273686 0.48108792 -0.51666576 -0.78930646
000020 de c5 95 be
       -0.29252523

backbone.convs.138.weight f4 [1, 1, 9]
000000 24 3a cf bd 34 8d 7e 3f 55 2b e9 be c0 b7 0e 3c
       -0.10118511 0.9943421 -0.45540872 0.008710802
000010 b5 95 0d 3f f4 61 a9 3f 8c 8e 73 3e 14 e3 df 3d
       0.5530656 1.3233018 0.23784846 0.109319836
000020 32 e1 2a c0
       -2.6699948

backbone.convs.139.weight f4 [1, 1, 7]
000000 e7 08 42 bf 8e 57 e0 3e 36 88 5c 3f 94 a8 4b 3d
       -0.75794834 0.438168 0.8614534 0.049721316
000010 80 45 20 bf ee e7 0c 3f 0c 08 04 bf
       -0.6260605 0.55041397 -0.5157478

backbone.convs.140.weight f4 [1, 1, 11]
000000 95 12 77 3e 10 77 1c bd a8 b8 d7 3e 66 90 a3 be
       0.24128182 -0.038199484 0.4213307 -0.31946105
000010 40 40 a6 be 8d f5 49 3e a5 8c bc bf d9 00 19 3e
       -0.32470894 0.19722576 -1.4730421 0.1494173
000020 18 f6 e3 be ba b3 d7 3d 89 37 be 3f
       -0.44523692 0.10532327 1.4860698

backbone.convs.141.weight f4 [1, 1, 11]
000000 96 66 b1 3f c1 38 56 bf ae e4 a5 bf e8 6e 7e 3d
       1.3859432 -0.8368035 -1.2960413 0.062117487
000010 77 5b 4d 3f b6 9f 96 3f 0b 3a 7f 3e 58 40 e4 bd
       0.8021769 1.176749 0.24924485 -0.11145085
000020 ed 22 1f bf ae 98 1e 3f 90 04 b7 bf
       -0.6216267 0.6195172 -1.4298267

backbone.convs.142.weight f4 [1, 1, 7]
000000 9e 48 3c bf 41 34 ba 3e 50 b4 4d bd b6 40 88 3e
       -0.73548305 0.36367992 -0.050220788 0.2661187
000010 60 b8 01 bb f6 a1 00 3f ab 6d b0 be
       -0.0019793734 0.5024713 -0.3445867

backbone.convs.143.weight f4 [1, 1, 9]
000000 a6 e9 20 3f 70 1f d8 3e 17 62 c5 be 49 9f a3 bf
       0.6285652 0.42211485 -0.385514 -1.2782985
000010 58 57 18 bf 82 d0 0c 3f da 0b 3b bf 44 71 b9 3f
       -0.59508276 0.5500566 -0.7306496 1.4487691
000020 c8 99 75 bd
       -0.05996111

backbone.convs.144.weight f4 [1, 1, 7]
000000 78 0c 83 bf b4 bb ae 3e 96 41 cd be 08 37 c9 bf
       -1.023818 0.3412758 -0.400891 -1.5719919
000010 f6 7b 01 40 1d ff 1c 3f 20 5f 9b 3c
       2.023191 0.6132677 0.018966258

backbone.convs.145.weight f4 [1, 1, 7]
000000 e0 0f 3c bc 5c f1 1b be f0 c2 ab 3f 01 7a 3f bf
       -0.011478394 -0.1522879 1.3418865 -0.7479554
000010 df 7f 51 bf 53 06 02 3f f0 2d f5 bd
       -0.8183574 0.507909 -0.119716525

backbone.convs.146.weight f4 [1, 1, 9]
000000 92 8e 15 be f4 91 7d be 2a 42 fd be 33 26 68 3f
       -0.14605168 -0.24762708 -0.49464542 0.9068329
000010 82 e5 c8 bf 68 53 b9 3f c5 d1 9e 3e c4 5a 09 3f
       -1.569504 1.4478579 0.31019416 0.5365412
000020 68 5c 3e bf
       -0.7435975

backbone.convs.147.weight f4 [1, 1, 11]
000000 f2 9e d8 3f 14 af 90 bd e2 98 16 bf 4c 0c 2f 3e
       1.6923506 -0.070646435 -0.5882703 0.17094535
000010 f0 c7 1e bf 28 44 27 3d 8b 82 10 3f c2 c6 0c bf
       -0.6202383 0.040836483 0.5644919 -0.5499078
000020 b8 c0 13 3d 44 e9 7c 3e ad 30 6c bf
       0.036072463 0.24698359 -0.92261773

backbone.convs.148.weight f4 [1, 1, 11]
000000 92 b9 c9 be 20 06 f7 bf 06 fd 18 3f 4b 48 8f be
       -0.3939939 -1.9298744 0.59761083 -0.27984843
000010 f6 e4 9f 3e a4 37 37 3e 0a 1f 25 be 9b a3 c2 3f
       0.3122937 0.17892319 -0.16125122 1.5206178
000020 f5 95 4e be 37 5a f4 3e 67 ba f5 bd
       -0.20174392 0.47725078 -0.11998444

backbone.convs.149.weight f4 [1, 1, 11]
000000 e6 38 91 bf ed 90 35 3f 46 0f 95 bd 09 8d 41 3f
       -1.1345489 0.70924264 -0.07278304 0.7560583
000010 6b e4 35 3f fb 84 44 3f 83 04 04 c0 b4 46 15 3e
       0.71051663 0.7676541 -2.0627754 0.14577752
000020 08 35 4a 3e 60 1f 65 3f e8 5f 69 bf
       0.19746792 0.89501 -0.91161966

backbone.convs.150.weight f4 [1, 1, 7]
000000 32 fd e9 3f ce ea 95 be ac 49 02 bf 65 b0 a8 bf
       1.8280394 -0.29280704 -0.50893664 -1.3178831
000010 c2 c9 1a bf b1 46 f0 3e b5 97 da 3e
       -0.6046411 0.46928933 0.42693868

backbone.convs.151.weight f4 [1, 1, 9]
000000 2a ed 23 be b6 85 bc bf fd 7b c0 3f c0 ec 51 3e
       -0.1600844 -1.4728305 1.5037838 0.20500469
000010 d2 3c ad bd 70 56 9a 3c ca d4 7f 3f 06 ab de bd
       -0.08458866 0.018840045 0.99934065 -0.10872464
000020 f8 96 66 bf
       -0.9007411

backbone.convs.152.weight f4 [1, 1, 11]
000000 f0 75 3f 3d 9e 5c b3 3f d9 f3 02 c0 93 6d 67 3f
       0.046743333 1.401264 -2.0461333 0.9040157
000010 89 f9 33 3f 05 c9 3d 3f af d4 33 bf b6 c8 9b be
       0.70302635 0.74134856 -0.70246404 -0.30426568
000020 87 6f 59 3f 18 3e 82 bf a8 4b 13 bf
       0.849358 -1.01752 -0.5753732

backbone.convs.153.weight f4 [1, 1, 7]
000000 00 e7 e3 3b 03 be 13 40 44 cf 90 bf 82 4e dd be
       0.0069550276 2.3084724 -1.1313252 -0.4322396
000010 2e 22 12 be 43 b1 9e 3e 25 4a 6b bf
       -0.14270851 0.30994615 -0.9191001

backbone.convs.154.weight f4 [1, 1, 7]
000000 e0 a8 6d 3d 17 4f 50 3f fb ba 59 3f 10 2a fc bf
       0.05802238 0.8137068 0.85050935 -1.9700336
000010 ca 53 83 3e c0 2a 78 3e 27 8a 80 be
       0.25649863 0.24235058 -0.25105402

backbone.convs.155.weight f4 [1, 1, 7]
000000 a0 cc c7 3e 43 62 60 3f df 99 38 3f 2e fd cc bf
       0.39023304 0.87649935 0.7210979 -1.6014764
000010 02 9e a1 3f 94 21 ac bf eb c1 9b be
       1.2626345 -1.3447747 -0.30421385

backbone.convs.156.weight f4 [1, 1, 7]
000000 dd 3a 5b bf 1a 60 fd 3f dc c2 9d 3e 00 06 7a bf
       -0.85636693 1.9794953 0.30812728 -0.97665405
000010 48 52 65 bf 68 7b 6e 3e a0 4a 55 3e
       -0.89578676 0.23289263 0.20829248

backbone.convs.157.weight f4 [1, 1, 9]
000000 ec 14 dd 3e ab ee 77 bf 17 bf 0e 3f d6 ad af be
       0.43180025 -0.96848553 0.5576033 -0.34312314
000010 7d 07 13 3f ae 38 98 3f 71 5d 4e 3e 01 2b 5c bf
       0.574333 1.1892297 0.20152833 -0.8600312
000020 2d 69 48 bf
       -0.78285486

backbone.convs.158.weight f4 [1, 1, 11]
000000 d7 57 c2 bf bb 14 9b be 3a 41 52 3f 61 a8 e1 3e
       -1.5183057 -0.30289254 0.8213078 0.44073775
000010 e2 2c 1c 3f 1b 67 96 3e 8b f8 bd bf 65 04 33 be
       0.61005986 0.29375538 -1.4841474 -0.17482145
000020 9d 19 64 3f a4 11 34 bf 34 37 90 3f
       0.8910158 -0.7033942 1.1266847

backbone.convs.159.weight f4 [1, 1, 11]
000000 6b e5 17 bf c0 cb 84 3f 4b ae 17 bf 98 7e b2 3f
       -0.5933444 1.037468 -0.59250325 1.3944883
000010 48 14 6e 3f 6c 6a a5 bf 3a 23 a3 bf 42 03 8b 3f
       0.92999697 -1.2923102 -1.2745125 1.0860369
000020 08 d6 2a be d4 ef 82 be 3c a6 8b be
       -0.16683209 -0.255736 -0.27275264

backbone.convs.160.weight f4 [1, 1, 7]
000000 7a 21 f1 3e 73 4e 72 3f f0 9d e1 3e 81 cd 6a bf
       0.47095853 0.94650954 0.4406581 -0.91719824
000010 5f 5e 38 3f 45 a8 0a bf 60 4b 8f bf
       0.72019 -0.5416301 -1.1194878

backbone.convs.161.weight f4 [1, 1, 9]
000000 d6 d9 7c 3f 1f ce dc 3e 8a c8 95 3f 2a 31 29 bf
       0.9876989 0.43126008 1.1701825 -0.66090643
000010 99 d0 b2 bf 92 06 5c bf e8 62 79 bf e4 6c 96 3f
       -1.3969909 -0.85947526 -0.97416544 1.1751981
000020 6a 40 02 3e
       0.12719885

backbone.convs.162.weight f4 [1, 1, 9]
000000 12 ea 45 be a0 77 16 bf 7d 3c 09 3f 59 e1 a3 be
       -0.19327572 -0.58776283 0.5360792 -0.32007864
000010 90 b1 a4 3e bd 74 06 bf 44 16 35 3f 6e 3a ba bd
       0.3216672 -0.5252188 0.707371 -0.09093176
000020 4c cd 1b 3e
       0.15215033

backbone.convs.163.weight f4 [1, 1, 11]
000000 50 fa 7c 3f 36 ca 13 bf 64 35 14 bf cd 55 bb bf
       0.98819447 -0.57730424 -0.5789397 -1.4635559
000010 8d 3f c7 3f 14 c4 64 bf 10 ce 96 3f d1 7a 28 bf
       1.5566269 -0.8936169 1.1781635 -0.658124
000020 00 58 81 3f 8a 0b 28 bf af 80 c1 3d
       1.010498 -0.6564261 0.094483726

backbone.convs.164.weight f4 [1, 1, 9]
000000 5b 06 9a 3f 69 99 17 3f 90 42 bd be d4 0b df be
       1.203319 0.5921846 -0.36964846 -0.43563712
000010 4f 3c a9 3f 84 af 7d 3e c1 c0 a3 bf 63 68 6b be
       1.322153 0.24773985 -1.2793199 -0.22989039
000020 e9 83 86 bf
       -1.0509006

backbone.convs.165.weight f4 [1, 1, 11]
000000 c5 ce 0d be 4b 5f 00 bd 94 79 d5 3f f1 cb c1 bf
       -0.13848408 -0.03134088 1.6677728 -1.5140363
000010 42 3e 33 3f 49 bf dd 3f 88 c9 04 3e ca a1 82 bf
       0.7001687 1.7324001 0.12967503 -1.0205624
000020 3a 3e 8d be 6c 3b ac bf 99 45 c4 3d
       -0.27586538 -1.3455634 0.09583587

backbone.convs.166.weight f4 [1, 1, 9]
000000 b9 3d 82 3f 47 a6 99 be c7 1d 9c bf 8a b8 61 3f
       1.0175086 -0.30009672 -1.2196587 0.8817221
000010 a1 6b da 3e b9 a0 19 bf c1 65 d2 be a4 05 e0 be
       0.4266024 -0.6001087 -0.41093257 -0.43754303
000020 4a 7b 24 3f
       0.64250624

backbone.convs.167.weight f4 [1, 1, 11]
000000 bf 69 18 3f 1b 7a 23 3f 19 c5 2f be ed 7a 61 be
       0.59536356 0.63858193 -0.1716503 -0.22019549
000010 32 9f b2 be 6e 14 a0 bf e8 c1 fe 3f 09 ad 85 bf
       -0.3488708 -1.2506235 1.9902925 -1.0443431
000020 4e e0 e3 be 5a 2d e0 be b4 c1 31 3f
       -0.44507068 -0.437846 0.6943619

backbone.convs.168.weight f4 [1, 1, 11]
000000 b8 ac 55 3f 7c d2 68 bf ff dd 2a be 78 ae d4 be
       0.8346667 -0.90946174 -0.16686247 -0.4153936
000010 ee 14 cb bf ec 26 dc bd 3b 40 89 3e b2 78 44 3f
       -1.5865762 -0.10749611 0.26806816 0.76746666
000020 ca 59 75 3f 3e 44 4f 3f 52 a7 e7 be
       0.9584013 0.80963504 -0.45244843

backbone.convs.169.weight f4 [1, 1, 9]
000000 b3 e0 02 40 16 0e bb bf 8f 0d a3 3e f8 96 21 c0
       2.0449646 -1.4613674 0.31846282 -2.5248394
000010 0e 96 28 3f a3 ab 0e bf 06 dc 4a 3f 84 72 cb 3e
       0.65853965 -0.55730647 0.7924198 0.39735806
000020 95 dd a9 3e
       0.33176866

backbone.convs.170.weight f4 [1, 1, 9]
000000 fb ff 5d bd 2b b7 62 3f 0c 1a 04 bf 20 5e 04 3f
       -0.0541992 0.8856074 -0.51602244 0.51706123
000010 8f 84 18 3e ba c3 8b be 4e 86 11 bf 58 e9 75 bf
       0.14894317 -0.27297765 -0.5684556 -0.9605918
000020 1c 15 52 3f
       0.8206346

backbone.convs.171.weight f4 [1, 1, 11]
000000 38 a3 3e 3f da f2 50 bf 71 43 5e 3e d6 26 0c bf
       0.744678 -0.8162056 0.21705414 -0.5474676
000010 b5 7d 1d 3f d3 cc 69 3f 3a 21 42 be c2 c5 66 3f
       0.6151994 0.9132816 -0.18957987 0.90145504
000020 0d 41 d0 be 3a 26 27 bf 9b 5b 47 bf
       -0.4067463 -0.65292704 -0.77874154

backbone.convs.172.weight f4 [1, 1, 11]
000000 5c e0 66 be 55 36 a0 3f 69 72 fa bf 16 e5 17 bf
       -0.22546524 1.2516581 -1.9566165 -0.5933393
000010 e5 4d d8 be 7a 74 86 3f 7b a3 54 3e fe 62 75 bf
       -0.4224693 1.0504296 0.20765488 -0.95854175
000020 2d 63 2e 3f 5c 4a 7f 3f b0 01 02 bd
       0.6812008 0.9972284 -0.03173989

backbone.convs.173.weight f4 [1, 1, 11]
000000 3f e5 ba 3f f8 9b 8d bf ce 73 47 3f 83 ef 9e be
       1.460121 -1.1063223 0.7791108 -0.31042108
000010 74 07 aa 3f 0d e5 b1 bf 02 7c 0a c0 b8 a1 45 3e
       1.3283525 -1.3898026 -2.1638188 0.19299972
000020 ce 40 9f 3f 9c 35 97 bd 40 94 21 3d
       1.2441652 -0.07383272 0.039448023

backbone.convs.174.weight f4 [1, 1, 11]
000000 00 16 a7 bf 44 61 2c bf 26 2a ea 3e 07 3a 19 3e
       -1.3053589 -0.67335916 0.45735282 0.14963542
000010 53 18 64 bf 17 3b a2 3f 43 02 98 bf 7e 9b 7f 3f
       -0.89099616 1.2674283 -1.187569 0.9984664
000020 cc b8 83 be 24 9a 87 3f f9 b9 c3 3e
       -0.25726926 1.0593915 0.38227823

backbone.convs.175.weight f4 [1, 1, 9]
000000 38 41 ae be 08 e1 0d 3e 60 f4 39 3c c3 fd 8c be
       -0.34034133 0.13855374 0.011349767 -0.27537355
000010 cd f1 01 3f ae cb 2f bf 00 55 b1 3b ec 0a 44 3f
       0.50759584 -0.68670166 0.005411744 0.76579165
000020 27 51 01 be
       -0.12628613

backbone.convs.176.weight f4 [1, 1, 11]
000000 4a 7d 16 bf 0a 01 ca 3f b5 1c 6f 3e dc 05 23 be
       -0.58784926 1.5781567 0.23350795 -0.15920204
000010 a7 4d 72 3e b9 a8 57 3f 3e 30 43 3f 36 9d f4 bf
       0.23662435 0.84241825 0.76245487 -1.9110477
000020 b1 ea 97 be 30 b7 f2 bf a0 53 99 3f
       -0.29671243 -1.8962154 1.1978645

backbone.convs.177.weight f4 [1, 1, 9]
000000 f0 6a 56 bc 81 60 91 3e 78 62 55 3e c8 9e df 3d
       -0.013087019 0.2839394 0.20838344 0.10918957
000010 9e 52 ca bf 8c 7a 00 3f 10 5c e5 be 89 ce 4c 3f
       -1.5806463 0.5018699 -0.447968 0.8000265
000020 7e 9c 0d 3e
       0.13829228

backbone.convs.178.weight f4 [1, 1, 7]
000000 b4 e6 46 3e 6d b6 4c bf dd 58 15 3f df d4 3a 3f
       0.19423944 -0.7996586 0.5833872 0.72981066
000010 32 72 b4 bf ea dc a9 be ee 50 84 3f
       -1.409735 -0.33176357 1.0337198

backbone.convs.179.weight f4 [1, 1, 9]
000000 17 83 ac be 0b a8 75 bf bd b1 e8 be 27 28 65 bf
       -0.33693764 -0.9595954 -0.45448104 -0.8951439
000010 b7 5f 83 3f 93 a8 a7 3f 86 1a 27 bf 65 8f f7 3e
       1.0263585 1.309832 -0.65274847 0.4835159
000020 bc 59 f5 3e
       0.47920024

backbone.convs.180.weight f4 [1, 1, 11]
000000 1e 0f 32 3f ba 20 68 3e b0 28 46 3f 66 35 19 3f
       0.69554317 0.22668734 0.77405834 0.59847105
000010 47 09 92 3f ad a5 bc bf e0 00 27 c0 82 bb 1c 3f
       1.1409081 -1.473806 -2.6094284 0.61223614
000020 b8 16 92 bf 48 88 9d 3e ba 74 5e 3f
       -1.1413183 0.30768037 0.8689686

backbone.convs.181.weight f4 [1, 1, 9]
000000 5d 7f d1 3f a7 68 70 be ee 21 b5 bf 3e 06 40 bf
       1.6366993 -0.23477422 -1.415098 -0.75009525
000010 d0 fc 66 3f 06 cf 5c bf 2c 71 8c bc e0 ed 29 bb
       0.9022951 -0.8625339 -0.017143808 -0.0025929138
000020 38 45 3e 3f
       0.7432437

backbone.convs.182.weight f4 [1, 1, 11]
000000 64 9d f2 be c8 fe 85 3c e7 94 71 bf dd 0f 63 3f
       -0.47385705 0.01635684 -0.9436783 0.8869608
000010 2b ff 1c 3f e4 f1 f5 3f ba fd 56 3e 8e c8 a6 be
       0.61326855 1.9214444 0.20995227 -0.32574886
000020 36 5e 24 3f 6d 63 1f c0 45 ad 66 bd
       0.64206254 -2.4904435 -0.056317586

backbone.convs.183.weight f4 [1, 1, 7]
000000 5c 5d 51 bf 42 93 ab 3f 39 7c 0f c0 fc ad b0 3d
       -0.8178308 1.3404315 -2.241957 0.08626935
000010 4e e9 45 3f ed 2e c0 3f 2c 35 24 bf
       0.7730912 1.5014321 -0.64143634

backbone.convs.184.weight f4 [1, 1, 11]
000000 80 3c ca 3d 1f c9 ca 3f be c6 67 3f a9 79 94 bf
       0.09874821 1.5842627 0.9053763 -1.1599628
000010 7c c9 09 3e 2d 94 8d bf a0 54 7e be 3d e1 a9 bf
       0.13455766 -1.1060845 -0.2483697 -1.3271862
000020 42 4a 69 3f 81 93 8d 3e f8 9c 8d bd
       0.91128933 0.276516 -0.06914705

backbone.convs.185.weight f4 [1, 1, 9]
000000 ba 75 9a 3f c0 21 7c bf d8 3f 08 3f 10 b0 87 3f
       1.2067177 -0.98489 0.5322242 1.0600605
000010 87 45 3b bf 17 8d 03 3f 9a 3f 80 3e 5e 82 5b bf
       -0.73152965 0.5138716 0.25048524 -0.857458
000020 ab 4e 7d bf
       -0.9894816

backbone.convs.186.weight f4 [1, 1, 11]
000000 b2 f7 57 be d0 4b bc be d0 e0 58 bf 60 b4 2b 3f
       -0.21090582 -0.3677659 -0.84718037 0.67072105
000010 a4 b2 c3 bf aa 3f b8 3e 54 bf a0 bd 06 f5 44 3f
       -1.5288892 0.35986072 -0.07848993 0.76936376
000020 4c a2 8f 3f e3 fc d8 be 74 f2 08 3f
       1.1221404 -0.42380437 0.53494954

backbone.convs.187.weight f4 [1, 1, 11]
000000 8a 3b de bf 83 62 7a bf 5e 75 02 c0 06 b4 b0 be
       -1.736192 -0.97806567 -2.0384135 -0.34512347
000010 70 76 33 be 88 83 80 3d dd ef 57 3f f1 90 7a 3f
       -0.17525649 0.062750876 0.8435038 0.97877413
000020 76 a9 b1 3f 36 db de 3e 70 4a c8 3f
       1.387984 0.4352662 1.5647717

backbone.convs.188.weight f4 [1, 1, 11]
000000 96 e7 78 bf 2a 5b bb bf 88 74 4f 3e bc b1 80 3f
       -0.9722837 -1.4637196 0.20259297 1.005424
000010 6c 6a 83 3f f4 98 01 bf e0 80 71 bf b1 15 c1 3f
       1.0266852 -0.5062401 -0.9433727 1.5084745
000020 1c 95 7a bd 66 03 6b 3f 2b e3 36 bf
       -0.061177358 0.9180206 -0.7144038

backbone.convs.189.weight f4 [1, 1, 7]
000000 c5 83 97 3e 76 52 91 3f 58 39 82 be 49 55 1d 3f
       0.2959272 1.135329 -0.25434375 0.6145826
000010 1c 7b cc bf 58 f6 6a 3d 31 b1 80 be
       -1.597507 0.057363838 -0.25135186

backbone.convs.190.weight f4 [1, 1, 11]
000000 dc 71 94 bf 2c 6f 93 bf 4a 81 41 3f b4 aa 93 3f
       -1.1597247 -1.1518302 0.75587904 1.153647
000010 8e f9 e0 be 08 4a cc be 98 0c 23 3d 90 ae 32 be
       -0.43940395 -0.3990023 0.039806932 -0.17449403
000020 ba db 86 3f e4 fc 69 3f 53 ac 17 bf
       1.0535805 0.91401505 -0.5924732

backbone.convs.191.weight f4 [1, 1, 7]
000000 29 22 1d bf c0 dc c8 bf d2 9e 33 3f 93 c8 3e be
       -0.6138025 -1.5692368 0.70164216 -0.186312
000010 69 12 5f 3f 71 ab 13 3f 8f c4 60 3e
       0.87137467 0.57683474 0.21949981

backbone.convs.192.weight f4 [1, 1, 11]
000000 b1 a1 26 3e 11 89 67 3f e8 a9 11 c0 c7 d5 78 3e
       0.16272618 0.9044352 -2.2759953 0.243003
000010 68 51 ab be 0c 18 27 bd 11 75 49 3f 98 91 93 bf
       -0.33460546 -0.040794417 0.78694254 -1.1528807
000020 b8 00 a7 3f a6 ee a6 3e fe 81 9c 3d
       1.3047094 0.3260395 0.076419815

backbone.convs.193.weight f4 [1, 1, 7]
000000 7e 71 73 3f 23 af 1b 3f e7 cf 76 bf 6d da a9 3f
       0.9509505 0.6081411 -0.96410984 1.3269783
000010 bd 55 db bf 9c 3b 27 bf 02 c3 e3 3e
       -1.713554 -0.6532533 0.44484717

backbone.convs.194.weight f4 [1, 1, 9]
000000 b7 b1 8e bf 00 2d dd 3f a7 4c 0d bf 30 7c ff 3d
       -1.1147984 1.7279358 -0.5519509 0.12474859
000010 90 72 db 3c 36 ef 97 bd ca 53 f5 be 2c 0f 5b bf
       0.026788026 -0.07418673 -0.47915488 -0.85570025
000020 fc 20 99 3f
       1.1963191

backbone.convs.195.weight f4 [1, 1, 9]
000000 5c b9 1a be 35 4b ca 3f 79 0c 8f 3e 66 c4 eb be
       -0.15109771 1.5804201 0.27939203 -0.46048278
000010 be f3 39 c0 7a 7b 34 3f d3 ed f4 3f 23 c4 ca bd
       -2.9055018 0.7050091 1.9135078 -0.09900691
000020 c0 bb 5c bf
       -0.86223984

backbone.convs.196.weight f4 [1, 1, 11]
000000 61 3c 59 be 40 14 41 3f 46 24 02 c0 b8 75 3d 3f
       -0.21214439 0.75421524 -2.033464 0.7400775
000010 87 85 ce bf 89 5b 92 3f 37 ec f3 3e 98 ba 51 3f
       -1.6134499 1.1434184 0.47641155 0.81925344
000020 ef fa b8 3f 2a b9 90 be e4 4f 9e bf
       1.4451579 -0.2826627 -1.2368131

backbone.convs.197.weight f4 [1, 1, 7]
000000 8b a5 9d bf f2 54 2c bf b0 d6 6f bc 47 5c 80 bf
       -1.2316145 -0.67317116 -0.014638588 -1.0028161
000010 f6 a4 4e 3f e8 98 90 3f 2e 41 7c 3f
       0.8072046 1.1296663 0.98536956

backbone.convs.198.weight f4 [1, 1, 11]
000000 90 c4 d4 3f 80 31 1e bf ed 42 ff 3e 22 5c 98 bf
       1.6622486 -0.6179428 0.49855748 -1.1903117
000010 c8 63 ab 3d c6 35 6e 3e 4e 3d 5f 3e e7 50 c6 3e
       0.08368641 0.232627 0.2180073 0.387336
000020 09 6b ba bf 06 02 2e 3e 60 c2 48 3c
       -1.4563915 0.1699296 0.012253374

backbone.convs.199.weight f4 [1, 1, 7]
000000 dc ae 77 bf fc c5 56 bf 7e 51 60 bf 50 73 5e be
       -0.9675119 -0.8389585 -0.8762435 -0.21723676
000010 e0 0e 0e bf 52 02 a7 3f 59 9b 09 40
       -0.5549145 1.3047583 2.1501067

backbone.convs.200.weight f4 [1, 1, 11]
000000 00 d6 d2 be 0a 68 02 3e 99 bf 56 bf ce 94 7e bf
       -0.41178894 0.12735 -0.83886105 -0.9944581
000010 c0 42 92 3f 59 7a 4c bf 51 14 4f bd 74 15 72 3f
       1.142662 -0.7987419 -0.050556485 0.94563985
000020 36 ef b4 3f 82 9f 09 3f ee 43 89 bf
       1.4135501 0.53759015 -1.0723855

backbone.convs.201.weight f4 [1, 1, 11]
000000 a4 8c cc 3e ec 72 1d be d4 21 e2 bf f8 a8 cf 3f
       0.3995105 -0.1537587 -1.7666574 1.622344
000010 4e 9d 24 3f 36 bb f3 3d a8 c2 e3 bf e4 f3 18 be
       0.6430253 0.11900942 -1.7793779 -0.14936787
000020 44 49 74 3f cd 85 95 3f 95 4f 87 bf
       0.95424294 1.1681458 -1.0571162

backbone.convs.202.weight f4 [1, 1, 9]
000000 ba 06 7d bf a3 69 0a 3f a7 79 da be c7 3c 49 3e
       -0.9883839 0.5406744 -0.42670938 0.19652091
000010 18 52 04 bf ee 26 6f 3f 1c a7 94 bf 5d 49 db 3e
       -0.51687765 0.93418777 -1.1613498 0.4282941
000020 70 5f 7e 3f
       0.99364376
